Phase2/Code/Checkpoints/Basic/447model.ckpt (torch, 746967 bytes, 22 tensors)

layer1.0.weight f4 [64, 3, 3, 3]
0.13994423 0.1476002 0.11326191 0.14165524 0.20049357 0.18851441 -0.13870467 0.005787104
0.01971188 0.08918185 0.033660654 -0.1991849 0.046642393 0.11641269 -0.16674358 -0.12739469
0.12173315 -0.0016467656 -0.09672582 0.1379205 -0.04141914 0.073843434 0.0425732 0.06696073
-0.114981934 -0.10197626 0.096644856 -0.21765997 -0.101367325 0.08857791 0.03780261 0.09093667
0.02431082 -0.11441243 0.018527932 0.15589617 0.18161204 0.03186884 -0.1726746 0.20062527
0.027755577 0.12447827 0.1034394 -0.12663306 0.17048538 0.0014021383 0.12307695 -0.14320919
0.07350288 0.05703752 0.04140988 -0.042818293 0.0028536308 -0.19170633 -0.076579355 -0.010933083
0.11132917 0.11210685 -0.19114193 -0.063631445 -0.079767115 0.18690804 0.0022070294 0.044023857
0.15251656 0.02646922 -0.011442489 0.01333043 0.009612749 -0.15789318 0.0054756114 -0.16442285
0.11390127 -0.06511439 0.14797662 0.009338716 0.066131584 0.17295629 0.13574763 0.05999096
0.16566521 0.09031121 0.20118657 0.033022966 -0.04452672 -0.15239973 0.095880136 -0.1551614
-0.05543726 -0.20945887 0.18244004 -0.010741179 0.102624424 0.047649287 0.11943796 -0.17477691
-0.22753562 -0.07264555 -0.20282464 0.012571584 0.028881973 -0.002364428 0.031569693 0.02983698
0.19152302 -0.16161488 -0.13714722 0.027813485 0.13365512 -0.13032988 0.23768602 -0.18614882
-0.22211415 0.18343842 0.20461582 -0.21587124 -0.13618654 -0.20092618 -0.016239345 -0.036395863
-0.047706045 -0.020394962 -0.0042569474 0.0650423 0.10871617 -0.06434257 -0.22367205 0.09858832
0.18717058 -0.016436622 -0.17499869 -0.097666904 -0.09136996 0.09891514 -0.023496863 -0.1517102
0.1483463 -0.05675262 0.06206679 -0.07959022 0.123064116 -0.03212504 -0.06717044 -0.014307114
-0.19788112 -0.14108776 -0.114128366 0.028486619 -0.1836489 0.20369238 0.2129925 -0.16458829
-0.0034903686 0.02477076 -0.11854859 -0.06458474 -0.17160007 0.0057374355 0.21644934 0.030497782
0.12091927 -0.037210193 -0.11185813 0.09032236 0.1766536 -0.06538094 0.1011435 -0.042773455
0.052013315 -0.023854708 0.20586504 0.20147541 0.051581487 -0.102341555 -0.063514225 0.18164183
0.05852741 0.08438853 0.18440787 0.006207795 -0.17685777 0.043549147 0.08586712 -0.1972816
-0.032309663 -0.20203687 -0.14943959 -0.19367516 -0.24148512 -0.030554755 0.11856107 -0.13673036
-0.048805743 -0.009141452 0.17792523 0.19137034 0.038423683 -0.092630215 -0.15773813 -0.017159566
0.11472082 0.14598635 0.13045307 -0.0826229 0.09615127 0.18506105 0.08953999 -0.1775755
0.09525586 0.11040405 0.042196423 -0.010363228 0.19016887 0.19169068 -0.0705163 0.038998976
0.14579238 0.18686554 -0.03470967 0.03772506 -0.13531575 0.205949 -0.046083167 0.0976459
0.029837169 -0.061127964 0.10838452 0.05801766 0.09377617 0.12828922 0.05171993 -0.075610444
-0.042269714 -0.03219073 0.028145073 0.14336506 0.1867248 0.023145283 0.16095565 -0.071799815
0.1787572 -0.10150074 0.15369745 -0.02144263 0.032367643 0.11434493 0.0020024995 -0.14161654
0.04442647 -0.28479755 -0.15374574 -0.17892523 -0.20153253 0.06511736 -0.052670453 -0.24695289
00000000: 8a4d 0f3e 8224 173e dcf5 e73d 120e 113e
00000010: 304e 4d3e ec09 413e 9908 0ebe bfa1 bd3b
00000020: cf7a a13c f9a4 b63d c1df 093d 20f7 4bbe
00000030: 180c 3f3d c769 ee3d d4be 2abe c173 02be
00000040: 3b4f f93d 49d8 d7ba 3018 c6bd 083b 0d3e
00000050: 1ea7 29bd 3a3b 973d 3c61 2e3d b522 893d
00000060: a67b ebbd eed8 d0bd bded c53d 41e2 5ebe
00000070: ac99 cfbd 5668 b53d e9d6 1a3d 013d ba3d
00000080: 7c27 c73c 1051 eabd e4c7 973c 3fa3 1f3e
00000090: 82f8 393e e788 023d 9cd1 30be b670 4d3e
000000a0: aa5f e33c 77ee fe3d 09d8 d33d 19ac 01be
000000b0: b893 2e3e f4c7 b73a c50f fc3d 6ea5 12be
000000c0: ae88 963d 2da0 693d 689d 293d 3c62 2fbd
000000d0: fb03 3b3b aa4e 44be a3d5 9cbd ac20 33bc
000000e0: 8c00 e43d 4798 e53d b6ba 43be 3451 82bd
000000f0: f15c a3bd d264 3f3e cfa3 103b 5c52 343d
00000100: 4d2d 1c3e fad5 d83c 4779 3bbc e067 5a3c
00000110: cb7e 1d3c c0ae 21be c26c b33b 775e 28be
00000120: 1245 e93d b15a 85bd 2f87 173e 6a01 193c
00000130: ff6f 873d 741b 313e 6d01 0b3e 15b9 753d
00000140: 24a4 293e 15f5 b83d da03 4e3e 1743 073d
00000150: a661 36bd ad0e 1cbe ce5c c43d a1e2 1ebe
00000160: 2e12 63bd 637c 56be 90d1 3a3e c5fb 2fbc
00000170: c12c d23d e62b 433d e49b f43d b8f8 32be
00000180: 19ff 68be 31c7 94bd 43b1 4fbe 0cf9 4d3c
00000190: e399 ec3c 85f4 1abb 394f 013d af6c f43c
000001a0: 9c1e 443e 5f7e 25be 5270 0cbe 1bd9 e33c
000001b0: e3dc 083e 3275 05be f763 733e cc9d 3ebe
000001c0: e471 63be 48d7 3b3e cf86 513e 5a0d 5dbe
000001d0: 7c74 0bbe 98bf 4dbe 6008 85bc d413 15bd
000001e0: 6a67 43bd 5613 a7bc dd7d 8bbb e634 853d
000001f0: 95a6 de3d 0ac6 83bd 490a 65be ace8 c93d
00000200: a5a9 3f3e 18a6 86bc db32 33be 9605 c8bd
00000210: 2c20 bbbd 0594 ca3d 7e7c c0bc eb59 1bbe
00000220: 18e8 173e 6f75 68bd bf39 7e3d 3200 a3bd
00000230: 0a09 fc3d 8c95 03bd a890 89bd 6368 6abc
00000240: 59a1 4abe 4f79 10be 22bc e9bd c55c e93c
00000250: 750e 3cbe bc94 503e b51a 5a3e d589 28be
00000260: abbe 64bb 0dec ca3c 9ac9 f2bd 0145 84bd
00000270: eeb7 2fbe 1901 bc3b e5a4 5d3e 7cd6 f93c
00000280: 86a4 f73d b769 18bd e015 e5bd eefa b83d
00000290: aee4 343e 71e6 85bd 5324 cf3d 3833 2fbd
000002a0: ea0b 553d f36a c3bc 49ce 523e 924f 4e3e
000002b0: 1c47 533d 7398 d1bd bf13 82bd 5100 3a3e
000002c0: 70ba 6f3d e5d3 ac3d 6bd5 3c3e c26a cb3b
000002d0: 341a 35be 9760 323d 1adb af3d 3004 4abe
000002e0: 2357 04bd c1e2 4ebe b106 19be c852 46be
000002f0: e047 77be f74d fabc 25d0 f23d 0b03 0cbe
00000300: 88e8 47bd 07c6 15bc 0832 363e 96f6 433e
00000310: 2762 1d3d e9b4 bdbd 1b86 21be 3892 8cbc
00000320: c0f2 ea3d 727d 153e 7d95 053e 3236 a9bd
00000330: f5ea c43d a580 3d3e be60 b73d 5ad6 35be
00000340: 8115 c33d 851b e23d 28d6 2c3d 87ca 29bc
00000350: a1bb 423e 904a 443e da6a 90bd 64bd 1f3d
00000360: 994a 153e ae59 3f3e ba2b 0ebd 9885 1a3d
00000370: 3690 0abe 4be4 523e b4c1 3cbd 93fa c73d
00000380: 146d f43c 5161 7abd b4f8 dd3d eda3 6d3d
00000390: b80d c03d 405e 033e 47d8 533d a6d9 9abd
000003a0: 0223 2dbd 6dda 03bd 7f90 e63c 4ace 123e
000003b0: c934 3f3e 2d9b bd3c 8fd1 243e c80b 93bd
000003c0: 210c 373e 9fdf cfbd dd62 1d3e 74a8 afbc
000003d0: ef93 043d ad2d ea3d 5e3c 033b ed03 11be
000003e0: 88f8 353d fcd0 91be 866f 1dbe 2d38 37be
000003f0: 8b5e 4ebe 405c 853d f9bc 57bd 38e1 7cbe

layer1.0.bias f4 [64]
-0.048298515 -0.003261695 -0.122249305 0.15136823 0.16921027 -0.0925142 -0.05679292 0.11429265
-0.05108965 0.049394403 0.19020918 0.006292838 -0.05192001 -0.06601018 0.013455037 0.121890835
-0.20750889 0.07446549 0.18875766 -0.20690462 -0.04953578 0.07891121 0.06777833 -0.07341631
0.099050455 0.20183565 -0.15882425 -0.06584593 0.1644724 0.0071452535 -0.06047909 -0.014839427
0.19360715 -0.04464181 -0.14172582 0.19473986 0.09924443 -0.008326472 0.20101759 -0.08610539
0.053536315 -0.05034307 -0.062011085 0.21618542 0.10948752 0.089858726 -0.1627826 0.029414676
0.0374758 -0.0021519891 0.18030699 -0.003006889 0.012220626 0.044524893 -0.19804811 0.03407208
-0.19724105 -0.15746218 -0.0053369785 0.24174239 -0.16388673 -0.05106148 0.024285255 0.036409434
00000000: aad4 45bd 29c2 55bb d85d fabd 4600 1b3e
00000010: 7545 2d3e 1678 bdbd b19f 68bd 4412 ea3d
00000020: 6143 51bd c951 4a3d 32c6 423e 2734 ce3b
00000030: 14aa 54bd 5830 87bd 8472 5c3c e7a1 f93d
00000040: 367d 54be 5d81 983d b049 413e cede 53be
00000050: 08e6 4abd 339c a13d 5dcf 8a3d 4a5b 96bd
00000060: f7da ca3d 01ae 4e3e d3a2 22be 3bda 86bd
00000070: 746b 283e bb22 ea3b ecb8 77bd 1121 73bc
00000080: f440 463e 55da 36bd 9320 11be e369 473e
00000090: aa40 cb3d c16b 08bc 8ed7 4d3e 0658 b0bd
000000a0: e548 5b3d 8934 4ebd 56ff 7dbd b65f 5d3e
000000b0: fe3a e03d da07 b83d 7bb0 26be 0cf7 f03c
000000c0: 3980 193d 6308 0dbb 65a2 383e 3a0f 45bb
000000d0: 0539 483c bc5f 363d 20cd 4abe 2a8f 0b3d
000000e0: 8ff9 49be c43d 21be d2e1 aebb 518b 773e
000000f0: ecd1 27be d825 51bd dff1 c63c 0f22 153d

layer1.1.weight f4 [64]
1.0292497 1.0193603 1.0179818 1.0424623 1.082679 1.047253 1.045316 1.012343
1.0134519 1.1290599 1.1498919 1.0308244 1.0317978 1.07899 1.1478498 1.0928456
1.0247513 1.110459 1.1211736 1.1266434 1.0290821 1.0519142 1.0290097 1.0332066
1.1779861 1.0912582 1.1269891 1.0545406 1.1262825 1.0550846 1.2100213 1.1151698
1.1228709 1.0399283 1.0440912 1.0352519 1.0564561 1.0177878 1.0935347 1.0757937
1.0227679 1.025515 1.0393754 1.0275941 1.065425 1.0383042 1.0204121 1.0678107
1.0111159 1.1400144 1.0761933 1.0978609 1.0759186 1.0254638 1.0157268 1.0865626
1.0250143 1.078556 1.1202358 1.0848534 1.1026568 1.0247742 1.0553255 1.060895
00000000: 74be 833f 667a 823f 3a4d 823f 686f 853f
00000010: 3a95 8a3f 630c 863f eacc 853f 7594 813f
00000020: cbb8 813f 0985 903f a82f 933f 0ef2 833f
00000030: f311 843f 581c 8a3f beec 923f 5de2 8b3f
00000040: 0d2b 833f 8523 8e3f 9e82 8f3f da35 903f
00000050: f6b8 833f 20a5 863f 97b6 833f 1d40 843f
00000060: 40c8 963f 59ae 8b3f 2e41 903f 30fb 863f
00000070: 062a 903f 030d 873f fae1 9a3f e2bd 8e3f
00000080: 3cba 8f3f 5f1c 853f c8a4 853f 2283 843f
00000090: f439 873f df46 823f f2f8 8b3f 9cb3 893f
000000a0: 0fea 823f 1344 833f 410a 853f 3488 833f
000000b0: d95f 883f 27e7 843f dd9c 823f 05ae 883f
000000c0: 3f6c 813f feeb 913f b4c0 893f b586 8c3f
000000d0: b3b7 893f 6642 833f 5603 823f 7c14 8b3f
000000e0: ab33 833f 1f0e 8a3f e363 8f3f 7adc 8a3f
000000f0: dc23 8d3f cd2b 833f e814 873f 68cb 873f

layer1.1.bias f4 [64]
-0.008630786 0.0035772019 -0.004841425 -0.0012777724 0.007262347 0.0045587677 0.001092128 -0.00014055814
-0.0021826935 0.0032806967 0.0066013606 0.0053280653 0.006947769 0.012413267 0.00510211 0.007853093
-0.008175531 0.0063422145 0.009449121 -0.0013710976 0.0050364765 -0.0051584635 0.0017350303 0.002928142
0.0058204895 0.0038882177 0.0007663069 0.011684476 0.0007166282 0.008534171 0.0033175931 0.0019444728
0.0015854972 -0.0013307473 0.0044216695 0.008980056 0.006628927 0.005121705 0.013166997 0.00075280253
-0.0026625623 0.00020388492 0.0064923475 0.0046976553 0.0025201205 0.003133831 -0.00043450575 0.0070658466
0.013447897 0.0058726086 0.004597119 0.0028871805 -0.0028351273 -0.0028335897 -0.009177989 0.0114901485
-0.0076604583 0.0026837285 0.001439652 0.0058739525 0.00082265097 0.0063300463 0.0021485644 0.021743955
00000000: 2468 0dbc 7d6f 6a3b d1a4 9ebb ed7a a7ba
00000010: fbf8 ed3b b761 953b bc25 8f3a ca62 13b9
00000020: 850b 0fbb f500 573b 3a50 d83b 0d97 ae3b
00000030: 1caa e33b 0461 4b3c 9a2f a73b 42aa 003c
00000040: aaf2 05bc 5ad2 cf3b 7cd0 1a3c 67b6 b3ba
00000050: 0709 a53b 5408 a9bb f569 e33a 12e6 3f3b
00000060: ceb9 be3b 78d1 7e3b fce1 483a 3f70 3f3c
00000070: 1bdc 3b3a e8d2 0b3c fa6b 593b aedd fe3a
00000080: 75d0 cf3a 786c aeba a7e3 903b 1621 133c
00000090: 7837 d93b fad3 a73b 63ba 573c b957 453a
000000a0: 627e 2ebb f1c9 5539 c2bd d43b caee 993b
000000b0: 9b28 253b f660 4d3b 60ce e3b9 9e88 e73b
000000c0: 9154 5c3c 036f c03b 6ea3 963b da36 3d3b
000000d0: 8bcd 39bb bfb3 39bb 475f 16bc 2d41 3c3c
000000e0: 9504 fbbb 7ee1 2f3b b5b2 bc3a 497a c03b
000000f0: 2ca7 573a 476c cf3b eece 0c3b 6120 b23c

layer1.1.running_mean f4 [64]
0.4257911 0.15717906 0.2454876 -0.117105834 -0.061647356 -0.32239792 -0.1598083 0.57212174
0.536888 -0.029650573 0.03323765 -0.4616719 -0.3187079 -0.047931015 -0.11329621 0.11949506
0.24436302 0.061126336 0.081857026 -0.3044005 0.28872627 0.33337957 0.3366509 -0.3908327
0.07838633 0.12940705 -0.23860925 -0.028425105 0.07614474 -0.26019004 -0.16436173 -0.12612377
0.15691987 0.12138275 -0.5350209 -0.15767038 -0.309685 0.18720883 0.123057365 -0.27795306
0.34267676 0.11265771 -0.3778999 0.43087506 -0.04892001 0.23350216 0.15447648 -0.0026182556
0.00682824 -0.12591864 0.21169703 -0.15959598 0.14581276 0.44023946 0.30511275 0.059244573
0.15711796 -0.07962511 -0.10458362 0.27116495 -0.21360247 -0.3474944 -0.17467909 0.013226518
00000000: 4b01 da3e 8cf3 203e 1a61 7b3e 2fd5 efbd
00000010: f081 7cbd 5711 a5be c9a4 23be 9276 123f
00000020: 7e71 093f c2e5 f2bc 3424 083d 4260 ecbe
00000030: af2d a3be 5053 44bd d807 e8bd d3b9 f43d
00000040: 4d3a 7a3e 9c5f 7a3d a8a4 a73d 62da 9bbe
00000050: eed3 933e bab0 aa3e 825d ac3e 391b c8be
00000060: 0389 a03d 4883 043e fc55 74be c4db e8bc
00000070: c6f1 9b3d a137 85be 714e 28be 9726 01be
00000080: 9aaf 203e 8597 f83d 21f7 08bf 5874 21be
00000090: 088f 9ebe acb3 3f3e 8005 fc3d dd4f 8ebe
000000a0: 5473 af3e 16b9 e63d 187c c1be a89b dc3e
000000b0: 5960 48bd 311b 6f3e 152f 1e3e 0a97 2bbb
000000c0: 6ebf df3b d1f0 00be 1bc7 583e 216d 23be
000000d0: f14f 153e 1167 e13e bd37 9c3e 70aa 723d
000000e0: 88e3 203e 7d12 a3bd f02f d6bd 22d6 8a3e
000000f0: 9bba 5abe c9ea b1be 13df 32be 0ab4 583c

layer1.1.running_var f4 [64]
0.04683758 0.010504051 0.035635862 0.032842238 0.004858619 0.0107423635 0.015125062 0.05480658
0.08627151 0.0075124176 0.005925149 0.048389867 0.014231552 0.010656697 0.010316926 0.010249533
0.05074432 0.0054488108 0.008982101 0.008802109 0.0401758 0.017446928 0.024560971 0.029098153
0.0058276085 0.008989493 0.0080113 0.010888149 0.0059506884 0.025705058 0.006648302 0.011668774
0.010055942 0.010547686 0.033634163 0.026117176 0.04500412 0.01823467 0.017520988 0.010654882
0.021493364 0.009770758 0.022594549 0.023523264 0.004881264 0.018173091 0.033241667 0.005133726
0.012057136 0.0022634978 0.0139631815 0.005009602 0.007930016 0.04402844 0.05099759 0.016087424
0.033829294 0.013112142 0.0041549583 0.0057153706 0.015298019 0.01451494 0.012152356 0.016581655
00000000: c3d8 3f3d 2f19 2c3c e9f6 113d 9585 063d
00000010: 0d35 9f3b bd00 303c 1ccf 773c dd7c 603d
00000020: 1eaf b03d ba2a f63b c127 c23b 7434 463d
00000030: 752b 693c 6d99 2e3c 5308 293c a8ed 273c
00000040: 47d9 4f3d f08b b23b aa29 133c b936 103c
00000050: 618f 243d dcec 8e3c 1734 c93c 405f ee3c
00000060: 86f5 be3b ab48 133c d441 033c 3564 323c
00000070: fefd c23b 6a93 d23c 00da d93b 632e 3f3c
00000080: aec1 243c 34d0 2c3c fac3 093d b0f3 d53c
00000090: 3d56 383d e060 953c 2d88 8f3c d091 2e3c
000000a0: da12 b03c 8815 203c 3418 b93c dcb3 c03c
000000b0: 03f3 9f3b bcdf 943c 6a28 083d d138 a83b
000000c0: 4b8b 453c 3157 143b d4c5 643c 9627 a43b
000000d0: e6ec 013c 2a57 343d d9e2 503d c6c9 833c
000000e0: 9690 0a3d 4fd4 563c 5126 883b 0148 bb3b
000000f0: 8ba4 7a3c 12d0 6d3c ad1a 473c 40d6 873c

layer2.0.weight f4 [64, 64, 3, 3]
0.015555845 -0.0051828637 -0.023407502 -0.0049086493 -0.03384199 -0.03593482 0.035557408 -0.0033237727
-0.024085417 0.005623894 0.014512918 0.0019806696 0.0033263457 0.02689212 0.0005668484 -0.0001588118
-0.008620667 0.024167193 0.021170145 -0.035067637 0.0032587862 0.028527146 -0.0044081374 0.050347023
-0.012510141 0.049469374 0.032683708 -0.024469892 -0.025545327 -0.054355994 -0.019691227 0.00023045627
-0.01648274 -0.02341053 0.019923814 -0.021180063 0.009451894 -0.0017069158 0.015879262 0.045071095
0.0077395597 -0.038038693 -0.035908364 -0.018136848 -0.030775588 0.042383075 0.021183647 0.0282126
0.011896813 -0.010436458 0.021719981 -0.03857405 0.028316699 -0.0083227875 -0.009596693 -0.024055567
9.597922e-06 -0.030718738 -0.035849195 -0.017711915 -0.041304395 -0.03812063 0.04108624 -0.008188064
-0.031485524 -0.0024423553 0.031542145 -0.0006647649 0.030692626 0.041838616 -0.01591838 0.04639353
-0.034616854 -0.02293369 -0.04207013 0.03808472 0.00035644058 -0.011800236 0.013433653 0.02332002
0.008515533 0.0272526 -0.00035024612 0.016169185 -0.010594364 -0.0044489508 -0.012640833 0.07485347
0.068337664 0.06894348 0.0056608734 -0.03737701 -0.023857588 0.018718442 -0.017061237 0.0073728017
0.021347055 0.0030626988 -0.07457201 -0.014093308 0.026672922 0.05095563 -0.038026337 0.024888184
0.040898178 2.0035328e-05 -0.032832883 -0.007539789 -0.0023285942 0.014004942 -0.034588736 -0.017789727
-0.031444877 -0.055891387 -0.039328903 -0.05212737 -0.037252497 0.0003211197 0.013612052 0.0075045424
-0.05506626 -0.03297661 0.037398193 0.023092791 -0.00862849 -0.02295762 0.059323926 0.04642725
0.0198447 0.019895496 0.002501654 -0.04212784 -0.054831862 -0.0019440625 0.034272593 -0.040719975
0.0035807579 -0.021982608 -0.020285456 0.024617825 0.011552742 0.05295766 0.014006376 0.05586149
0.02001413 -0.0421622 -0.03587435 0.01664141 0.0006911628 0.01863443 -0.010982761 -0.0149234
0.022678217 -0.0066740215 -0.026753012 -0.027415168 0.01728227 -0.021609481 -0.03213375 0.03517877
-0.019772856 -0.018809624 0.008256589 -0.011120883 0.026137657 0.020144492 0.014179162 0.001704092
0.00294773 0.021773152 0.008724355 0.023096854 0.019175742 0.011148976 -0.04167402 -0.016365588
-0.040035125 0.0024178773 -0.0139207225 -0.05260309 -0.015645895 -0.027553938 -0.022067048 0.02516976
0.017754968 -0.013306842 0.044404753 0.032375038 0.0067771496 -0.029031765 -0.039474104 0.021963928
-0.009187587 0.018677277 -0.016367173 0.012455867 0.044014867 0.034874182 -0.032521863 -0.0041509722
-0.050108604 -0.023075636 -0.03748411 0.033716153 0.05106018 -0.017190335 0.03944571 0.004381402
-0.0041357563 -0.043855257 0.010111562 0.01708209 0.022877539 0.033113603 -0.044692285 0.027707132
0.026547449 0.0033328715 0.0003290673 0.020414026 -0.01962391 -0.020473639 0.0034512004 0.0011844253
0.039214347 0.039846253 -0.0022271771 0.022879727 -0.017046556 -0.018333402 -0.03334673 0.003774338
0.04597865 0.0445847 -0.05800662 -0.033629566 -0.036545336 -0.0500677 -0.028857727 0.007009435
-0.018766036 -0.010569969 -0.022195643 0.010669007 -0.03409768 0.02404546 0.027122676 -0.03070948
0.03959339 -0.003203938 0.069237575 -0.012742446 -0.035352387 -0.020507898 0.032069184 0.01258014
00000000: f1dd 7e3c 03d5 a9bb 17c1 bfbc bcd8 a0bb
00000010: e69d 0abd 6430 13bd a5a4 113d a7d3 59bb
00000020: c84e c5bc a448 b83b 97c7 6d3c 1fce 013b
00000030: d2fe 593b dd4c dc3c 8d98 143a b886 26b9
00000040: b33d 0dbc 47fa c53c 036d ad3c 15a3 0fbd
00000050: 5c91 553b c3b1 e93c 2372 90bb ae38 4e3d
00000060: 56f7 4cbc 66a0 4a3d 5adf 053d 1575 c8bc
00000070: 6f44 d1bc 64a4 5ebd 7f4f a1bc a2a6 7139
00000080: d006 87bc 71c7 bfbc 4437 a33c d081 adbc
00000090: 1edc 1a3c 97ba dfba 3a15 823c 789c 383d
000000a0: 229c fd3b 76ce 1bbd a614 13bd ba93 94bc
000000b0: 161d fcbc e099 2d3d 5489 ad3c 1c1e e73c
000000c0: daea 423c adfd 2abc 1aee b13c d3ff 1dbd
000000d0: 6cf8 e73c 4d5c 08bc 733b 1dbc 2e10 c5bc
000000e0: c306 2137 dda5 fbbc 9bd6 12bd 9418 91bc
000000f0: cc2e 29bd 6124 1cbd 0c4a 283d 3b27 06bc
00000100: f7f6 00bd ec0f 20bb 5632 013d 9e43 2eba
00000110: 1a6f fb3c f85e 2b3d 4367 82bc 2407 3e3d
00000120: 67ca 0dbd 6fdf bbbc bb51 2cbd b9fe 1b3d
00000130: a5e0 ba39 c755 41bc d318 5c3c a009 bf3c
00000140: bc84 0b3c d840 df3c 3da1 b7b9 3d75 843c
00000150: fc93 2dbc 81c8 91bb 7f1b 4fbc c74c 993d
00000160: 9ef4 8b3d 3d32 8d3d d97e b93b a318 19bd
00000170: fd70 c3bc 6b57 993c 02c4 8bbc 8b97 f13b
00000180: 05e0 ae3c 8fb7 483b 36b9 98bd 9ee7 66bc
00000190: 2c81 da3c dab6 503d 81c1 1bbd 4ee2 cb3c
000001a0: d984 273d 8a11 a837 c67b 06bd 5610 f7bb
000001b0: 549b 18bb fc74 653c ebac 0dbd c3bb 91bc
000001c0: 58cc 00bd 5eee 64bd 5817 21bd 8283 55bd
000001d0: 1396 18bd f55b a839 1605 5f3c aae8 f53b
000001e0: 298d 61bd 7b12 07bd d92e 193d 182d bd3c
000001f0: 835e 0dbc 9e11 bcbc a5fd 723d 802a 3e3d
00000200: 5a91 a23c e1fb a23c caf2 233b 3e8e 2cbd
00000210: 6097 60bd eacf feba 6b61 0c3d fdc9 26bd
00000220: 26ab 6a3b df14 b4bc af2d a6bc 52ab c93c
00000230: b647 3d3c 22ea 583d 007b 653c 05cf 643d
00000240: acf4 a33c 45b2 2cbd fcf0 12bd 9153 883c
00000250: 262f 353a 3ba7 983c 0af1 33bc 4781 74bc
00000260: abc7 b93c c0b1 dabb 2229 dbbc c695 e0bc
00000270: 8c93 8d3c 5e06 b1bc ae9e 03bd 9d17 103d
00000280: affa a1bc a416 9abc a546 073c 5d34 36bc
00000290: a41e d63c 1006 a53c b74f 683c d75b df3a
000002a0: b42e 413b 9c5d b23c 99f0 0e3c 9d35 bd3c
000002b0: 7216 9d3c 32aa 363c 61b2 2abd 2011 86bc
000002c0: dffb 23bd 4075 1e3b be13 64bc 5676 57bd
000002d0: d22b 80bc ccb8 e1bc f4c5 b4bc d030 ce3c
000002e0: de72 913c f104 5abc c2e1 353d b09b 043d
000002f0: da12 de3b 06d4 edbc 99af 21bd b2ed b33c
00000300: 8887 16bc 1701 993c 7314 86bc b113 4c3c
00000310: ef48 343d 3bd8 0e3d a535 05bd e104 88bb
00000320: ae3e 4dbd 1e09 bdbc f088 19bd f319 0a3d
00000330: 7b24 513d bfd2 8cbc d391 213d dd91 8f3b
00000340: 3d85 87bb 92a1 33bd f7aa 253c bdef 8b3c
00000350: ad69 bb3c 21a2 073d 420f 37bd 11fa e23c
00000360: 097a d93c 4e6c 5a3b aa86 ac39 513b a73c
00000370: 52c2 a0bc 55b8 a7bc 892d 623b b83e 9b3a
00000380: 399f 203d d335 233d d5f5 11bb 446e bb3c
00000390: 38a5 8bbc ee2f 96bc 9596 08bd e25a 773b
000003a0: 1c54 3c3d 729e 363d 5998 6dbd 28bf 09bd
000003b0: 90b0 15bd ca13 4dbd 0a67 ecbc 67af e53b
000003c0: 3bbb 99bc aa2d 2dbc a3d3 b5bc 0fcd 2e3c
000003d0: 02aa 0bbd fcfa c43c 6030 de3c 7392 fbbc
000003e0: ae2c 223d 29f9 51bb 6ecc 8d3d b1c5 50bc
000003f0: aacd 10bd 2e00 a8bc fa5a 033d ee1c 4e3c

layer2.0.bias f4 [64]
-0.017087607 0.03470308 -0.02247793 0.039708037 -0.01677273 0.018415827 -0.009253596 -0.028192919
-0.010064328 -0.019713603 -0.0052645765 0.0010985926 -0.048735876 -0.026612941 -0.02652697 0.039571524
-0.03955922 -0.017904414 -0.008919549 -0.04626649 0.014937059 0.050746176 -0.0007769349 0.043352686
0.008796031 0.017902343 0.00740001 0.013441225 0.0136175435 0.007279256 0.034857407 0.040517673
-0.019133268 0.0066390606 -0.012307506 -0.018592572 -0.0050179255 -0.022390941 0.045922663 -0.0057112235
0.028325405 0.02061411 0.05153981 0.008831168 -0.024399688 0.023938164 0.004494309 0.027581511
0.025178952 0.044620458 -0.02084416 -0.026436895 0.02742661 0.015331024 -0.018150978 -0.028848382
-0.016435442 0.0450803 -0.007958389 -0.004664835 -0.004200997 0.017459504 -0.005150635 -0.023661433
00000000: 4ffb 8bbc d124 0e3d a323 b8bc e5a4 223d
00000010: f766 89bc cadc 963c 659c 17bc d6f4 e6bc
00000020: dae4 24bc 6c7e a1bc 7882 acbb a7fe 8f3a
00000030: 459f 47bd 6203 dabc 174f d9bc c015 223d
00000040: d908 22bd 47ac 92bc 4d23 12bc ee81 3dbd
00000050: 91ba 743c 39db 4f3d 38ab 4bba 9692 313d
00000060: 3a1d 103c efa7 923c c87b f23b 9538 5c3c
00000070: 1e1c 5f3c d386 ee3b a4c6 0e3d dcf5 253d
00000080: 5fbd 9cbc 7a8c d93b 6ca5 49bc 734f 98bc
00000090: 696d a4bb 356d b7bc 6719 3c3d 3725 bbbb
000000a0: ae0a e83c ecde a83c 681b 533d 9ab0 103c
000000b0: dbe1 c7bc f819 c43c ff44 933b 9ff2 e13c
000000c0: 1744 ce3c f1c3 363d 5fc1 aabc 3092 d8bc
000000d0: c5ad e03c fa2e 7b3c 5cb1 94bc 7153 ecbc
000000e0: 9fa3 86bc 1fa6 383d e763 02bc 79db 98bb
000000f0: 84a8 89bb 3c07 8f3c a8c6 a8bb 9fd5 c1bc

layer2.1.weight f4 [64]
1.070906 1.0569658 1.0426201 1.0300093 1.1033306 1.0890642 1.0694728 1.076049
1.0999466 1.0030208 1.0235833 1.0529292 1.0601839 1.031146 1.0898168 1.0614606
1.0661923 1.081342 1.1029141 1.0265071 1.0597409 1.0958794 1.0593671 1.0311475
1.0777965 1.0695734 1.0586239 1.0649434 1.0831628 1.1222551 1.0479386 1.0820735
1.1257036 1.0673633 1.0709599 1.017685 1.0785717 1.0546905 1.0959098 1.0392214
1.096083 1.1424898 1.0994259 1.036939 1.0439733 1.0627639 1.1061244 1.0239418
1.0555698 1.1207086 1.104471 1.087091 1.0661594 1.0469656 1.0719439 1.0887833
1.1410785 1.0784768 1.0444359 1.0713156 1.0476559 1.0225222 1.0877594 1.0569881
00000000: 7313 893f a84a 873f 9374 853f 58d7 833f
00000010: f039 8d3f 7566 8b3f 7ce4 883f f9bb 893f
00000020: 0dcb 8c3f fc62 803f c704 833f 62c6 863f
00000030: 1bb4 873f 98fc 833f 1e7f 8b3f f1dd 873f
00000040: fd78 883f 6a69 8a3f 4a2c 8d3f 9664 833f
00000050: 97a5 873f c745 8c3f 5799 873f a4fc 833f
00000060: 3cf5 893f c8e7 883f fd80 873f 1150 883f
00000070: 14a5 8a3f 0ea6 8f3f da22 863f 6281 8a3f
00000080: 0e17 903f 5c9f 883f 3715 893f 8143 823f
00000090: a30e 8a3f 1900 873f c646 8c3f 3505 853f
000000a0: 734c 8c3f 1b3d 923f fdb9 8c3f 6bba 843f
000000b0: eba0 853f a608 883f 7c95 8d3f 8610 833f
000000c0: e91c 873f 6173 8f3f 4e5f 8d3f cc25 8b3f
000000d0: e977 883f f802 863f 7535 893f 405d 8b3f
000000e0: dc0e 923f 870b 8a3f 13b0 853f df20 893f
000000f0: 9719 863f 02e2 823f b33b 8b3f 634b 873f

layer2.1.bias f4 [64]
-0.0037957388 -0.0014863475 -6.435509e-05 0.0029931252 7.2617644e-05 0.00055472314 0.00067568396 -0.003729629
-0.002246725 0.0036386647 0.0031184005 -0.0011379718 -0.004028448 0.001157899 -0.0030073025 0.006212248
-0.001003824 0.0021330963 -0.0014249611 -0.0042479816 -0.00039115027 0.0063939015 -0.0009892794 0.0033409125
0.00039156244 0.0005255668 0.0009936906 0.001057561 0.0033057793 0.0031779928 0.0074963067 0.003125257
-0.0031806913 -0.002488751 0.00079099217 0.002126794 -0.0024363208 0.0028551586 0.005964174 0.00055026397
-0.0023695168 0.0013108447 0.0044659236 0.00023651091 0.0064825197 0.005266987 0.0013830871 -0.0029337106
-0.0014778647 0.0025541792 -0.0065977257 0.0012905371 0.003837224 -0.0018468053 -0.0028107623 -0.00038831917
-0.0049604955 0.0011390937 0.006033388 0.0018116273 0.00039493627 -0.0015556322 0.0017269831 -3.1978627e-05
00000000: eec1 78bb 8cd1 c2ba 60f6 86b8 4f28 443b
00000010: 4d4a 9838 d76a 113a 6220 313a cb6c 74bb
00000020: ca3d 13bb aa76 6e3b 145e 4c3b ff27 95ba
00000030: 1201 84bb a5c4 973a 2a16 45bb 1d90 cb3b
00000040: bf92 83ba 6bcb 0b3b c3c5 baba a732 8bbb
00000050: 4d13 cdb9 ef83 d13b b5aa 81ba 36f3 5a3b
00000060: 9f4a cd39 31c6 093a b93e 823a dc9d 8a3a
00000070: c6a5 583b df45 503b 94a3 f53b 1dd1 4c3b
00000080: 2573 50bb 501a 23bb 965a 4f3a af61 0b3b
00000090: aeaa 1fbb 9d1d 3b3b 1e6f c33b 973f 103a
000000a0: e549 1bbb a6d0 ab3a e256 923b eaff 7739
000000b0: 516b d43b b096 ac3b b448 b53a 7f43 40bb
000000c0: e9b4 c1ba 0464 273b bc31 d8bb 3d27 a93a
000000d0: f079 7b3b 8110 f2ba c434 38bb 5197 cbb9
000000e0: a78b a2bb a44d 953a bab3 c53b 2074 ed3a
000000f0: 730f cf39 5be6 cbba f05b e23a ca20 06b8

layer2.1.running_mean f4 [64]
0.45874068 -0.0038414376 0.21452451 -0.3760357 -0.040964805 -0.064868055 -0.18012424 0.32276303
-0.104350336 -0.011181164 0.1616973 -0.08255957 0.122242816 -0.17449479 0.34303626 -0.25380924
0.10061885 -0.13631596 -0.1044611 0.2750879 -0.2580669 -0.2702457 0.1412346 -0.1902611
0.29920766 0.056512192 -0.17202699 0.26942 -0.24363673 -0.121721245 -0.36482042 0.3187891
0.20322783 0.33589533 0.09379009 -0.20347795 0.17691962 0.061813176 0.11736241 -0.27021533
0.15073398 0.22271942 -0.16617157 0.18620676 -0.5754095 -0.13449398 -0.096068114 0.38870928
0.19690049 -0.050749574 0.10513879 -0.04845656 -0.21259342 -0.23020384 0.03206392 -0.113843136
0.19747707 0.079858854 -0.33368215 0.09083745 -0.1684134 0.040103376 -0.079591155 0.19877133
00000000: 0fe0 ea3e a1c0 7bbb 50ac 5b3e c087 c0be
00000010: b6ca 27bd 8bd9 84bd 7d72 38be 3241 a53e
00000020: a1b5 d5bd 3331 37bc fa93 253e fe14 a9bd
00000030: 715a fa3d c3ae 32be 73a2 af3e 49f3 81be
00000040: 4111 ce3d 6996 0bbe b4ef d5bd 52d8 8c3e
00000050: 5821 84be a55d 8abe ce9f 103e ced3 42be
00000060: bf31 993e 5479 673d d827 30be 6bf1 893e
00000070: e87b 79be fd48 f9bd bec9 babe 5338 a33e
00000080: f51a 503e 79fa ab3e 0515 c03d 865c 50be
00000090: 6b2a 353e d02f 7d3d b45b f03d aa59 8abe
000000a0: 025a 1a3e 8f10 643e e128 2abe fcac 3e3e
000000b0: 094e 13bf cab8 09be 5cbf c4bd e704 c73e
000000c0: 48a0 493e c9de 4fbd 0253 d73d 637a 46bd
000000d0: 17b2 59be 8eba 6bbe 7555 033d 9726 e9bd
000000e0: 6e37 4a3e 0a8d a33d 63d8 aabe fc08 ba3d
000000f0: 9074 2cbe 7043 243d b000 a3bd b68a 4b3e

layer2.1.running_var f4 [64]
0.10367859 0.07648611 0.23781832 0.11222301 0.070887715 0.06682584 0.09580292 0.1400352
0.05671196 0.24034403 0.1023386 0.08264502 0.17344603 0.10867062 0.06808198 0.08159041
0.069795564 0.07240282 0.06616303 0.29946965 0.113057144 0.09194669 0.07509346 0.10789085
0.0981069 0.10759191 0.082620494 0.1423895 0.08496374 0.07040293 0.1206194 0.06799671
0.050451733 0.15659666 0.067720845 0.3534352 0.098611325 0.14152567 0.06848593 0.10431509
0.11162538 0.06899964 0.105177656 0.15507466 0.19680436 0.10727673 0.05016087 0.23376037
0.1097285 0.055323087 0.07865373 0.09316739 0.09771453 0.1737817 0.06565484 0.06564408
0.06841951 0.093050845 0.042016454 0.071236506 0.06120493 0.108883046 0.10035569 0.060158245
00000000: 7155 d43d c0a4 9c3d a586 733e 2dd5 e53d
00000010: 942d 913d fcdb 883d 5234 c43d 6365 0f3e
00000020: cd4a 683d bf1c 763e e696 d13d cb41 a93d
00000030: d69b 313e b48e de3d 916e 8b3d df18 a73d
00000040: faf0 8e3d ee47 943d 7c80 873d 1654 993e
00000050: 818a e73d 8c4e bc3d 9aca 993d e1f5 dc3d
00000060: 45ec c83d 2659 dc3d ef34 a93d 8ece 113e
00000070: 7801 ae3d 692f 903d 4e07 f73d dc41 8b3d
00000080: 7aa6 4e3d e05a 203e 3ab1 8a3d 75f5 b43e
00000090: bcf4 c93d 1bec 103e 5a42 8c3d 26a3 d53d
000000a0: d99b e43d af4f 8d3d 6267 d73d e4cb 1e3e
000000b0: 1587 493e e7b3 db3d 7c75 4d3d e15e 6f3e
000000c0: 56b9 e03d 769a 623d 3515 a13d 8bce be3d
000000d0: 8e1e c83d d4f3 313e 0b76 863d 6770 863d
000000e0: 871f 8c3d 7191 be3d 7219 2c3d 72e4 913d
000000f0: 05b2 7a3d 13fe de3d 4987 cd3d 7e68 763d

layer3.0.weight f4 [128, 64, 3, 3]
0.023455407 -0.028397895 -0.019519452 0.03228788 -0.031359408 -0.01581588 -0.041710757 0.017906811
0.016038217 -0.017794898 0.021543939 0.032690555 0.049969368 0.007266547 -0.01259043 0.02255802
0.044953 0.014742379 -0.013252056 0.03158829 0.0008577777 -0.02227708 0.0067835427 0.03890352
0.023447013 -0.02000975 0.020631881 -0.029926632 -0.04491041 0.020071045 0.03262858 0.027915994
-0.04333613 0.016181206 -0.02599457 0.03142222 0.035036955 0.013461251 -0.053276643 0.013655094
-0.03629431 -0.024290139 -0.0015896902 -0.025247125 -0.027553923 0.030438066 -0.025152182 -0.0063426136
0.0338836 -0.03213574 0.021119991 -0.045591142 -0.02016741 -0.011578372 0.005639792 -0.01981789
-0.004529782 -0.057237003 -0.02421806 -0.039986536 0.01610335 0.051886477 0.02033042 0.0390338
0.04335132 0.04158775 0.04067498 0.03335079 0.034358818 0.033433948 0.012296446 -0.021831311
0.03547647 -0.015919603 0.032960698 0.07501785 -0.008917031 -0.03224593 -0.029189875 0.006626723
0.016403604 -0.0424127 0.01609339 -0.03623098 0.039497778 0.01340569 0.018411221 0.009697653
0.031190852 0.0016728648 0.009728176 0.023120936 0.0011009135 -0.017885141 0.03810095 0.036481135
-0.0060647097 0.010360262 -0.016572582 -0.013932077 0.025983619 -0.0016863998 0.0030213783 0.01439485
0.034685172 0.020872436 -0.020605888 0.0271881 0.03244556 0.029880129 -0.01882196 0.0036389816
-0.04074617 0.034327757 0.04188545 0.037298243 0.040254444 -0.033052955 -0.003308629 0.03463173
0.035110272 0.057761714 0.012715849 0.021361679 0.044966135 -0.0021467085 0.0017251804 0.028223302
0.04253503 -0.033485968 -0.0038183855 -0.03241001 -0.00040014603 -0.0040449384 0.0064210407 0.008922545
0.009380009 -0.006352867 -0.0356046 -0.008976384 0.025798375 -0.0054158433 0.025851088 -0.023138592
-0.031692203 0.02846326 -0.029113032 -0.009926987 0.0008181756 0.02862382 -0.027093904 0.013972822
-0.019587277 -0.025543544 0.04531081 0.01176494 -0.035643607 -0.019887373 0.059161607 0.0069484836
0.036976285 -0.012631336 0.019326223 0.025303476 0.0032974107 -0.018070519 -0.03439244 0.039074183
0.029016154 0.00054391986 0.03408771 -0.04600965 -0.0069269966 -0.047288444 -0.029975047 0.035881322
0.018115606 0.02366843 0.045954116 0.044490658 0.010191068 0.04704088 -0.0034409221 0.04682594
-0.008239995 0.03693446 0.015204965 0.042545594 0.016668413 -0.020486318 -0.027888732 0.0075721294
-0.0028765686 -0.013678141 -0.010456218 -0.00931622 -0.0227915 0.0044589425 0.005505978 0.006846239
-0.0028633813 -0.0030912485 -0.00037620586 -0.039368156 0.012944071 -0.024875836 -0.038557094 -0.0030944047
-0.014877447 -0.03469844 -0.030803254 -0.046298314 0.02315643 -0.0369407 -0.04268633 -0.018546365
0.016518665 -0.003337411 0.004468455 -0.033201065 -0.064483486 -0.022945203 -0.0036478424 -0.0011809189
0.03379281 -0.03518238 0.024736 -0.028603576 -0.044199992 0.029795853 -0.02137759 0.018901503
0.022818405 -0.030128224 0.0018269598 -0.0039444263 -0.007065259 0.038351353 0.0038938194 -0.03917148
0.0142049985 0.010822433 -0.0038474868 -0.025698617 0.029067121 0.0021934155 0.03402474 -0.031761657
-0.030048637 -0.04812884 -0.021629382 -0.024510575 -0.020994008 0.023844576 -0.0023341903 0.012651143
00000000: 8e25 c03c b4a2 e8bc 42e7 9fbc 4c40 043d
00000010: b972 00bd 4e90 81bc e6d8 2abd 4eb1 923c
00000020: 9462 833c 9bc6 91bc ea7c b03c 88e6 053d
00000030: aeac 4c3d 371c ee3b 1748 4ebc 99cb b83c
00000040: a320 383d 058a 713c 271f 59bc b962 013d
00000050: 7ddc 603a 6c7e b6bc 7b48 de3b 4c59 1f3d
00000060: f313 c03c 7deb a3bc 3104 a93c b228 f5bc
00000070: faf3 37bd 086c a43c 8ca5 053d 15b0 e43c
00000080: 3a81 31bd 738e 843c 91f2 d4bc 96b4 003d
00000090: e982 0f3d 948c 5c3c 9c38 5abd 9eb9 5f3c
000000a0: 58a9 14bd 1dfc c6bc 275d d0ba 0fd3 cebc
000000b0: c4b8 e1bc 4059 f93c f30b cebc b3d5 cfbb
000000c0: 88c9 0a3d c4a0 03bd d503 ad3c c7bd 3abd
000000d0: 2036 a5bc 36b3 3dbc 01ce b83b 2159 a2bc
000000e0: 916e 94bb 5971 6abd f464 c6bc ecc8 23bd
000000f0: 2ceb 833c ea86 543d fb8b a63c e8e1 1f3d
00000100: 2791 313d eb57 2a3d cf9a 263d d79a 083d
00000110: d5bb 0c3d 09f2 083d 0877 493c 94d7 b2bc
00000120: c64f 113d d469 82bc cc01 073d f5a2 993d
00000130: bd18 12bc 4f14 04bd 9b1f efbc fb24 d93b
00000140: da60 863c f0b8 2dbd 49d6 833c f066 14bd
00000150: 6cc8 213d 8aa3 5b3c 21d3 963c e8e2 1e3c
00000160: f583 ff3c 0744 db3a ed62 1f3c 1e68 bd3c
00000170: 874c 903a dc83 92bc be0f 1c3d 3e6d 153d
00000180: 79ba c6bb 17be 293c 39c3 87bc 5e43 64bc
00000190: 99db d43c 300a ddba 5102 463b 60d8 6b3c
000001a0: 0a12 0e3d acfc aa3c aecd a8bc 94b9 de3c
000001b0: a3e5 043d 2cc7 f43c 8330 9abc fb7b 6e3b
000001c0: 75e5 26bd 439b 0c3d 1490 2b3d 0bc6 183d
000001d0: d8e1 243d 8962 07bd 95d5 58bb 00da 0d3d
000001e0: cacf 0f3d 8c97 6c3d 2356 503c b0fe ae3c
000001f0: 692e 383d cbaf 0cbb 731f e23a 8e34 e73c
00000200: 3639 2e3d 9528 09bd e13d 7abb 5cc0 04bd
00000210: b1ca d1b9 678b 84bb 9867 d23b de2f 123c
00000220: 9cae 193c b62b d0bb 21d6 11bd af11 13bc
00000230: 1d57 d33c 6377 b1bb a9c5 d33c 258d bdbc
00000240: afcf 01bd c82b e93c 747e eebc cda4 22bc
00000250: d67a 563a 807c ea3c 09f4 ddbc 43ee 643c
00000260: 7f75 a0bc b240 d1bc d497 393d bcc1 403c
00000270: 08ff 11bd d8ea a2bc 7153 723d 1bb0 e33b
00000280: 7274 173d aaf3 4ebc 0752 9e3c 3c49 cf3c
00000290: 5f19 583b a008 94bc 16df 0cbd 400c 203d
000002a0: 49b3 ed3c d895 0e3a 8e9f 0b3d 9d74 3cbd
000002b0: dcfb e2bb 87b1 41bd 3b8e f5bc 4bf8 123d
000002c0: 2e67 943c 4ce4 c13c 623a 3c3d d63b 363d
000002d0: 70f8 263c f0ad 403d 1881 61bb 8fcc 3f3d
000002e0: 0b01 07bc 9748 173d 3f1e 793c 4a44 2e3d
000002f0: 328c 883c ecd2 a7bc e976 e4bc a01f f83b
00000300: d084 3cbb 481a 60bc 8f50 2bbc 0fa3 18bc
00000310: 3db5 babc 521c 923b 7e6b b43b 6a56 e03b
00000320: 91a7 3bbb 8b96 4abb 7f3d c5b9 8140 21bd
00000330: 5e13 543c 69c8 cbbc 0bee 1dbd 7fcb 4abb
00000340: 89c0 73bc f41f 0ebd 1b57 fcbc 4da3 3dbd
00000350: 8eb2 bd3c 224f 17bd dcd7 2ebd 8cee 97bc
00000360: 2752 873c 77b8 5abb 1e6c 923b d7fd 07bd
00000370: eb0f 84bd 94f7 bbbc a410 6fbb 10c9 9aba
00000380: 546a 0a3d 661b 10bd 27a3 ca3c 0c52 eabc
00000390: 0d0b 35bd 6f16 f43c 0e20 afbc 53d7 9a3c
000003a0: aaed ba3c 77cf f6bc 9976 ef3a 3f40 81bb
000003b0: b083 e7bb 4f16 1d3d 732f 7f3b 4672 20bd
000003c0: 15bc 683c 9350 313c 1e26 7cbb e885 d2bc
000003d0: 2c1e ee3c 68bf 0f3b 875d 0b3d 8318 02bd
000003e0: 8f28 f6bc bf22 45bd 1a30 b1bc 67ca c8bc
000003f0: a0fb abbc b355 c33c 37f9 18bb bd46 4f3c

layer3.0.bias f4 [128]
0.016749956 -0.0339459 0.03468736 0.029049903 0.03986308 -0.01764878 0.0032414026 0.034226555
-0.03202552 0.0269512 -0.027641956 0.04445998 -0.009966535 0.02771263 -0.026607146 -0.03725619
0.035802297 -0.005348602 -0.036751334 -0.010533 -0.009890226 0.036388982 0.017942673 0.030058092
-0.025244568 -0.027586514 0.0394013 0.03232374 -0.024918783 -0.04276008 0.0017579518 -0.012425265
-0.027243424 0.009431091 0.023310771 0.01521337 -0.033330537 -0.033732828 0.012802066 -0.034281496
0.02467832 -0.01065443 -0.019933362 -0.032025404 -0.006596822 0.009948432 0.02972715 0.011224984
0.025601638 0.032049302 0.0006102008 0.013485199 0.026927646 -0.007117703 0.01315364 -0.005644374
-0.0136379 0.019945852 -0.019644272 -0.004713308 -0.0045819054 0.042372983 -0.017144743 -0.011808003
0.026475657 -0.039497033 0.0031901705 0.023933286 -0.009453216 -0.0012270998 -0.041500792 -0.037050012
0.0043583442 -0.032675393 0.026867783 0.0027606555 0.04644278 -0.00021988647 -0.023582138 0.02110669
0.010559143 -0.02993485 0.015274347 -0.042931356 0.024335923 -0.01738052 -0.022564767 -0.012872505
0.032400634 0.0077668964 -0.024982605 0.01466724 0.04292652 0.026591558 0.032961726 0.006307287
0.023695895 -0.017543772 -0.003775078 -0.021853177 0.008595682 0.023442281 0.010835694 0.003773387
-0.035783533 -0.0385245 0.007605976 -0.022869717 0.026195895 0.011307468 0.013051713 -0.012714932
0.0063820183 -0.0023933423 -0.013142613 0.030751934 0.0051877988 -0.01730237 0.00081230793 0.04288358
0.02659835 0.018923894 -0.040105436 0.044401962 0.01132415 0.005596895 -0.00030103503 0.036083512
00000000: 3437 893c db0a 0bbd 5514 0e3d 10fa ed3c
00000010: 7847 233d 2d94 90bc b66d 543b 2531 0c3d
00000020: 312d 03bd c3c8 dc3c 6271 e2bc ab1b 363d
00000030: ad4a 23bc 9905 e33c 3bf7 d9bc f299 18bd
00000040: 6ea5 123d 5343 afbb 9188 16bd 9b92 2cbc
00000050: 9d0a 22bc 9d0c 153d 83fc 923c 633c f63c
00000060: b2cd cebc 1dfd e1bc 4263 213d e665 043d
00000070: 7a22 ccbc 3225 2fbd 136b e63a 5793 4bbc
00000080: 9a2d dfbc dd84 1a3c 3bf6 be3c 8041 793c
00000090: 9a85 08bd 6f2b 0abd c2bf 513c c16a 0cbd
000000a0: 302a ca3c eb8f 2ebc 4a4b a3bc 122d 03bd
000000b0: 272a d8bb c0fe 223c 5a86 f33c ffe8 373c
000000c0: 87ba d13c 2146 033d e2f5 1f3a 06f1 5c3c
000000d0: 5e97 dc3c 9f3b e9bb 5d82 573c 71f4 b8bb
000000e0: 8071 5fbc 7c65 a33c 06ed a0bc 1872 9abb
000000f0: cf23 96bb 4b8f 2d3d 2273 8cbc 5b76 41bc
00000100: 7ae3 d83c a4c7 21bd 2e12 513b bd0f c43c
00000110: a9e1 1abc a3d6 a0ba bcfc 29bd c1c1 17bd
00000120: 71d0 8e3b a2d6 05bd d319 dc3c 1dec 343b
00000130: c93a 3e3d 5391 66b9 542f c1bc f0e7 ac3c
00000140: 4100 2d3c ee39 f5bc 4141 7a3c cad8 2fbd
00000150: 215c c73c 9861 8ebc bfd9 b8bc 33e7 52bc
00000160: 87b6 043d 7381 fe3b 52a8 ccbc dd4e 703c
00000170: b8d3 2f3d 8ad6 d93c e002 073d 5cad ce3b
00000180: e51d c23c f5b7 8fbc 4d67 77bb 6f05 b3bc
00000190: e7d4 0c3c 070a c03c 3288 313c ee4a 773b
000001a0: c191 12bd decb 1dbd 8d3b f93b 4659 bbbc
000001b0: c698 d63c f542 393c dad6 553c 4a52 50bc
000001c0: 4020 d13b 9fd9 1cbb 1d54 57bc 7beb fb3c
000001d0: 69fe a93b b3bd 8dbc 10f1 543a b1a6 2f3d
000001e0: c8e4 d93c 4806 9b3c 9945 24bd d5de 353d
000001f0: ed88 393c 2866 b73b 3dd4 9db9 4ecc 133d

layer3.1.weight f4 [128]
1.0334045 1.0247506 1.0266285 1.0536394 1.0352635 1.0377772 1.0405763 1.0291653
1.0213042 1.0481541 1.0903279 1.0498626 1.0299035 1.030762 1.004489 1.0177644
1.0247909 0.99662423 1.0578563 1.0242853 1.0778322 1.0400811 1.0277553 1.0524346
1.048254 1.0417353 1.0394404 1.022069 1.0371858 1.0393461 0.9965584 1.0426896
1.0485517 0.99999344 1.0373496 1.0360663 1.0281427 1.0455979 1.0519663 1.0454264
1.0341604 1.0441406 1.0322485 1.0029496 1.0769261 1.0283252 1.0341474 1.0600462
1.0496455 1.023435 1.0468732 1.0515525 1.0441931 1.0413194 1.05577 1.0289798
1.0438513 0.9949903 1.0407722 1.03881 1.0259124 1.0552307 1.0268561 1.0337993
1.021709 1.043447 1.0552306 1.0246574 1.0559814 1.0358516 1.0379348 1.0119834
1.0556321 1.0097768 1.0383065 1.0583422 1.0621305 1.0384438 1.0020891 1.0360314
1.037261 1.0475196 1.0219275 1.0396441 1.0340731 1.0562309 1.0385209 1.0219443
1.0385866 1.0549139 1.0303572 1.0248661 1.0219932 1.0250916 1.0177163 1.0466164
1.006846 1.0350144 1.0085943 1.0342144 1.0292022 1.0330381 1.0191315 1.0492742
1.0471224 1.0408909 1.0305861 1.0328475 1.0357474 1.055379 1.0616435 1.0362854
1.0453731 0.9982153 1.0252221 1.0237474 1.0312061 1.0473717 1.0371823 1.0415564
1.0368221 1.047305 1.0463489 1.0487063 1.0290633 1.0080265 1.0346378 1.042324
00000000: 9946 843f 072b 833f 9068 833f a8dd 863f
00000010: 8483 843f e2d5 843f 9b31 853f b0bb 833f
00000020: 19ba 823f ea29 863f dd8f 8b3f e661 863f
00000030: e1d3 833f 02f0 833f 1893 803f 1b46 823f
00000040: 592c 833f c422 7f3f d667 873f c81b 833f
00000050: 68f6 893f 6121 853f 7c8d 833f 2db6 863f
00000060: 302d 863f 9557 853f 620c 853f 28d3 823f
00000070: 81c2 843f 4b09 853f 741e 7f3f da76 853f
00000080: f136 863f 92ff 7f3f dfc7 843f d29d 843f
00000090: 2e9a 833f 27d6 853f d5a6 863f 88d0 853f
000000a0: 5e5f 843f 66a6 853f b820 843f a760 803f
000000b0: b7d8 893f 29a0 833f f15e 843f 98af 873f
000000c0: c95a 863f ebff 823f f1ff 853f 4699 863f
000000d0: 1fa8 853f f449 853f 7923 873f 9cb5 833f
000000e0: eb9c 853f afb7 7e3f 0638 853f baf7 843f
000000f0: 1951 833f cd11 873f 0570 833f 8953 843f
00000100: 5cc7 823f ac8f 853f cc11 873f f927 833f
00000110: 662a 873f c996 843f 0cdb 843f ac88 813f
00000120: f41e 873f 5e40 813f 3ae7 843f c277 873f
00000130: e4f3 873f baeb 843f 7544 803f ad9c 843f
00000140: f8c4 843f 1f15 863f 85ce 823f 0f13 853f
00000150: 825c 843f 9332 873f 41ee 843f 12cf 823f
00000160: 68f0 843f 6b07 873f bfe2 833f d02e 833f
00000170: acd0 823f 3436 833f 8744 823f 87f7 853f
00000180: 54e0 803f 5a7b 843f 9e19 813f 2361 843f
00000190: e6bc 833f 983a 843f e772 823f 9e4e 863f
000001a0: 1b08 863f ea3b 853f 3fea 833f 5934 843f
000001b0: 5f93 843f a916 873f efe3 873f 00a5 843f
000001c0: c9ce 853f 0a8b 7f3f 7a3a 833f 280a 833f
000001d0: 90fe 833f 4710 863f 64c2 843f b851 853f
000001e0: 96b6 843f 170e 863f c3ee 853f 023c 863f
000001f0: 59b8 833f 0307 813f 036f 843f df6a 853f

layer3.1.bias f4 [128]
-0.0012078478 -0.0010954052 -0.00036988867 0.000836577 0.001032508 0.00012389779 -4.2703664e-07 0.0026332394
0.0015556979 -0.0010496587 0.0033087847 0.0037299478 0.0003742416 -0.00057988183 -0.0026517287 -0.0029024868
-0.0027196629 -0.002261296 -0.0027489767 -0.002348763 0.0031920716 -0.0007298096 -0.001963974 -0.0023356797
-0.00040398576 -0.0021275666 -0.00013346363 -0.0010742764 0.0038786398 -0.0026801946 -0.002234279 -0.00032199651
0.0015799123 0.0018115134 -0.0015466064 1.2237123e-05 -0.0012253171 0.0007218222 -0.006048267 0.0016898131
-0.0002443252 0.00056420086 -0.0010307317 0.0014663766 -0.0030067565 -0.0012165663 0.0009388151 0.0016390069
0.0029493833 -0.000836562 0.0006578184 0.0023259227 0.0004899824 -0.001361944 -0.002855323 0.00028820478
-0.002049554 -0.0055471156 -0.002323475 -0.0012042894 -0.004005681 0.0011573856 -0.00018744418 -0.0012938662
-0.00175128 -0.0024357617 1.8730261e-05 -0.0017633509 -0.0031946173 -0.0018297549 -0.00055990403 0.000140417
-0.00047554486 0.00046444978 0.0015509187 -0.002042381 0.0047638356 -0.0035636278 0.0004138959 -0.0017891037
-0.004119637 -0.0019384861 -0.00030809117 -0.0021293368 -0.003999189 0.0011795465 0.0018599463 -0.0013935294
0.00011801197 -0.0018308216 -0.001883938 -0.0015788331 0.0017518313 0.0019093136 0.0005750078 0.00032889855
0.0009996832 0.0024137942 0.0016317923 0.0007978931 0.00016221026 -0.00082721276 -0.00054424204 0.0029613944
-0.0014807879 -0.004872232 -0.001497066 -0.0031759278 -0.0011116806 -0.000720662 -0.00040903673 0.0023572783
-0.0023380814 -0.00053454086 -0.0024191434 0.00044240302 -0.00017593111 -0.0039851335 -0.0029583704 0.0009309445
-0.0027840144 -0.0026028913 -0.0012060642 0.0017569714 -0.0010783442 0.0021990102 0.00057002273 -0.00132132
00000000: a650 9eba b393 8fba 9eed c1b9 bb4d 5b3a
00000010: 3855 873a 8fea 0139 7843 e5b4 6d92 2c3b
00000020: 8fe8 cb3a b494 89ba 32d8 583b 2472 743b
00000030: db35 c439 3603 18ba a0c8 2dbb a637 3ebb
00000040: 5f3c 32bb 4032 14bb 2d28 34bb b4ed 19bb
00000050: 1332 513b b150 3fba 04b6 00bb 3412 19bb
00000060: 0dce d3b9 a56e 0bbb 5ff2 0bb9 bcce 8cba
00000070: c730 7e3b 34a6 2fbb fb6c 12bb a4d1 a8b9
00000080: 0f15 cf3a 4e70 ed3a 80b7 caba 0b4e 4d37
00000090: d29a a0ba ab38 3d3a 8a30 c6bb b87c dd3a
000000a0: c618 80b9 e1e6 133a 9e19 87ba 6f33 c03a
000000b0: 010d 45bb 3175 9fba d11a 763a f2d3 d63a
000000c0: 714a 413b ba4c 5bba 7271 2c3a 826e 183b
000000d0: 2a72 003a 4283 b2ba 5f20 3bbb 311a 9739
000000e0: cf51 06bb 94c4 b5bb 7145 18bb 3fd9 9dba
000000f0: 1642 83bb 6bb3 973a aa8c 44b9 f296 a9ba
00000100: 358b e5ba 4da1 1fbb ee1e 9d37 3d20 e7ba
00000110: c95c 51bb 63d4 efba 86c6 12ba e73c 1339
00000120: 8d52 f9b9 6581 f339 3248 cb3a 78d9 05bb
00000130: f319 9c3b c18b 69bb 2b00 d939 5c80 eaba
00000140: 05fe 86bb cd14 feba 4c87 a1b9 588c 0bbb
00000150: a10b 83bb 039b 9a3a 71c9 f33a 16a7 b6ba
00000160: 327d f738 2ef8 efba 78ee f6ba d9f0 ceba
00000170: b49d e53a ef41 fa3a 1fbc 163a 0470 ac39
00000180: cd07 833a bf30 1e3b dde1 d53a b329 513a
00000190: fc16 2a39 4fd9 58ba 77ab 0eba f413 423b
000001a0: ff16 c2ba 3fa7 9fbb 3339 c4ba 3a23 50bb
000001b0: d0b5 91ba cfea 3cba fb73 d6b9 917c 1a3b
000001c0: 7f3a 19bb 6e20 0cba 7e8a 1ebb 54f2 e739
000001d0: 267a 38b9 b995 82bb 38e1 41bb a10a 743a
000001e0: 0374 36bb 4595 2abb cd14 9eba 2d4a e63a
000001f0: 3a57 8dba 451d 103b 946d 153a 2430 adba

layer3.1.running_mean f4 [128]
0.23988093 0.25333017 0.25265828 0.27654743 -0.2723908 -0.20473674 -0.17643914 0.28718358
0.4444946 -0.030389361 -0.63916904 -0.090836994 0.3819611 -0.26214752 0.4756751 0.13330564
-0.059054963 0.2016934 -0.10109424 0.9187831 0.1274338 -0.18433045 0.012364909 0.05423161
0.30580974 -0.3769627 0.22042857 0.27366954 -0.14457965 0.58203435 0.21527226 -0.06962276
-0.33341205 0.09138423 0.11473062 -0.14935467 0.3965865 -0.32282975 0.5152715 -0.50527316
0.060878336 0.07077735 0.30903128 0.28424817 -0.28921258 -0.07517445 0.2846511 0.36371037
0.08848312 0.7150965 -0.59815407 -0.092233524 0.023025965 0.11666582 0.21997611 -0.30064327
0.29115587 -0.04510064 0.27548975 0.17122096 0.052435994 -0.53317505 -0.29180816 0.009535073
-0.041262034 0.11415789 0.1425747 -0.008094147 -0.39411697 -0.16756527 0.21433246 -0.21257219
0.12943305 0.18292183 0.13660613 -0.20706981 0.27043924 -0.20493959 -0.30481505 0.06453723
0.42462802 0.5104014 0.52395004 -0.16862588 0.24717452 0.0020955512 -0.040451862 0.35869697
-0.31739905 -0.15985602 0.11657518 -0.30731162 -0.1463421 0.47391108 -0.21760665 -0.31192723
0.14562201 -0.18092178 0.50117785 -0.13976754 0.11904072 0.17853715 0.042928685 -0.67690516
-0.37451863 -0.349714 -0.56558317 0.33434945 -0.30831727 0.3205284 0.20477432 0.19815558
0.4074796 0.1210026 -0.22993475 -0.30126825 -0.014916029 0.25722727 0.14866002 0.07080043
-0.15103409 0.07149181 0.2566537 0.14368877 0.39148054 0.06193023 -0.037992086 -0.12019406
00000000: 59a3 753e 7eb4 813e 6d5c 813e a097 8d3e
00000010: cf76 8bbe 82a6 51be 76ac 34be ba09 933e
00000020: cc94 e33e 1cf3 f8bc 95a0 23bf bf08 babd
00000030: 6890 c33e 3338 86be b08b f33e 4681 083e
00000040: 9ee3 71bd b788 4e3e 7f0a cfbd 5f35 6b3f
00000050: 027e 023e 1fc1 3cbe 3096 4a3c f721 5e3d
00000060: 1893 9c3e 4101 c1be 07b8 613e 6a1e 8c3e
00000070: b00c 14be 3400 153f 5570 5c3e 6196 8ebd
00000080: fcb4 aabe a827 bb3d e3f7 ea3d 6ef0 18be
00000090: 630d cb3e f149 a5be d5e8 033f 9559 01bf
000000a0: 905b 793d b7f3 903d 5939 9e3e fa88 913e
000000b0: ac13 94be 10f5 99bd cabd 913e 3f38 ba3e
000000c0: a336 b53d 9010 373f a020 19bf eee4 bcbd
000000d0: f3a0 bc3c 7dee ee3d 6b41 613e eaed 99be
000000e0: 6212 953e 73bb 38bd fe0c 8d3e 8c54 2f3e
000000f0: 20c7 563d 297e 08bf e167 95be ff38 1c3c
00000100: 6102 29bd 9dcb e93d 1aff 113e 509d 04bc
00000110: b3c9 c9be 3b96 2bbe f879 5b3e 86ac 59be
00000120: 198a 043e dc4f 3b3e 7ae2 0b3e 1c0a 54be
00000130: 0377 8a3e afdb 51be b810 9cbe 182c 843d
00000140: d868 d93e aba9 023f 9721 063f 43ac 2cbe
00000150: 511b 7d3e 8455 093b dab0 25bd 21a7 b73e
00000160: 2182 a2be 4cb1 23be f8be ee3d f357 9dbe
00000170: b4da 15be 79a4 f23e 47d4 5ebe edb4 9fbe
00000180: f01d 153e 8f43 39be 314d 003f 391f 0fbe
00000190: 9fcb f33d 71d2 363e fdd5 2f3d a849 2dbf
000001a0: e8c0 bfbe b70d b3be 0fca 10bf da2f ab3e
000001b0: c3db 9dbe 4c1c a43e 5cb0 513e 4ce9 4a3e
000001c0: 2ba1 d03e 36d0 f73d 0474 6bbe d53f 9abe
000001d0: 5c62 74bc 4bb3 833e 553a 183e d1ff 903d
000001e0: aea8 1abe 4c6a 923d 1d68 833e 2623 133e
000001f0: 2370 c83e 8eaa 7d3d 979d 1bbd 4e28 f6bd

layer3.1.running_var f4 [128]
0.34876913 0.16670312 0.25902975 0.12084155 0.14345787 0.1438731 0.10041575 0.2107433
0.13465036 0.16290066 0.21593419 0.12824467 0.15136868 0.13038951 0.13146527 0.2131519
0.35568354 0.09547414 0.11989537 0.447509 0.22313339 0.08469281 0.23934904 0.23820701
0.27381688 0.1865575 0.11329295 0.16925305 0.16011658 0.13375825 0.14025423 0.12661043
0.15281153 0.08581826 0.1966154 0.15312761 0.20913924 0.1606167 0.12481502 0.25357437
0.18346082 0.27850795 0.16139735 0.15167944 0.17004834 0.17586909 0.14436413 0.122185946
0.14334066 0.19760834 0.1526364 0.11231299 0.10955027 0.19377637 0.116303794 0.1738952
0.106900394 0.108621545 0.104547195 0.1773855 0.1242054 0.24711107 0.10840519 0.20402974
0.10555794 0.16399977 0.11053457 0.41084945 0.17693856 0.21151496 0.12784725 0.09979636
0.16801153 0.10441061 0.14009818 0.17104948 0.1546256 0.122261226 0.22680943 0.25705096
0.17656647 0.20283759 0.13590686 0.12924057 0.12838511 0.1536592 0.13358514 0.17962949
0.16543517 0.18333562 0.18910205 0.12955353 0.12385647 0.14955506 0.13798995 0.0783073
0.13155824 0.13099936 0.21355021 0.122394994 0.14184399 0.22941768 0.19192658 0.14167342
0.12311664 0.17243993 0.1494415 0.11107397 0.16264684 0.15864246 0.2389493 0.15695646
0.16288769 0.18769377 0.21736938 0.13780376 0.11320131 0.15507498 0.14384508 0.10653328
0.12628217 0.20889805 0.13767543 0.13391538 0.22293614 0.14177589 0.120513454 0.12814464
00000000: de91 b23e 39b4 2a3e 8c9f 843e c67b f73d
00000010: 9fe6 123e 7853 133e c6a6 cd3d 17cd 573e
00000020: c9e1 093e 6ecf 263e da1d 5d3e 9252 033e
00000030: 6400 1b3e d484 053e d59e 063e 7e44 5a3e
00000040: 271c b63e f287 c33d b48b f53d e61f e53e
00000050: 147d 643e 6d73 ad3d ea17 753e 8aec 733e
00000060: ba31 8c3e ee08 3f3e 2206 e83d ac50 2d3e
00000070: 9af5 233e ecf7 083e ce9e 0f3e 2aa6 013e
00000080: a07a 1c3e 7cc1 af3d 8c55 493e 7ccd 1c3e
00000090: 9928 563e b478 243e 049f ff3d 80d4 813e
000000a0: 27dd 3b3e 9898 8e3e 5945 253e db51 1b3e
000000b0: 2721 2e3e 0717 343e 31d4 133e a03c fa3d
000000c0: e5c7 123e d759 4a3e b74c 1c3e 5a04 e63d
000000d0: e45b e03d 506d 463e af30 ee3d 9511 323e
000000e0: 98ee da3d f974 de3d d71c d63d 8ba4 353e
000000f0: 675f fe3d af0a 7d3e 8a03 de3d 2ced 503e
00000100: c32e d83d 8eef 273e f35f e23d dc5a d23e
00000110: 622f 353e 6197 583e 64ea 023e 0962 cc3d
00000120: 370b 2c3e 3bd5 d53d e675 0f3e 9827 2f3e
00000130: 2c56 1e3e 1864 fa3d bb40 683e 2f9c 833e
00000140: d7cd 343e a8b4 4f3e 2b2b 0b3e a457 043e
00000150: 6377 033e d658 1d3e 8bca 083e cbf0 373e
00000160: d667 293e 55bc 3b3e f8a3 413e aea9 043e
00000170: 76a8 fd3d f624 193e 3d4d 0d3e 945f a03d
00000180: 34b7 063e b224 063e e8ac 5a3e 3aaa fa3d
00000190: 8d3f 113e 78ec 6a3e 6788 443e d612 113e
000001a0: 9424 fc3d 1894 303e 3107 193e c07a e33d
000001b0: e58c 263e 2b73 223e 20af 743e 32b9 203e
000001c0: 08cc 263e cc32 403e 1496 5e3e 6e1c 0d3e
000001d0: 17d6 e73d facb 1e3e 204c 133e 1f2e da3d
000001e0: 1d50 013e 5fe9 553e cafa 0c3e 1d21 093e
000001f0: 5f49 643e b32d 113e c2cf f63d 5938 033e
