Phase2/Code/Checkpoints/Train/0a0model.ckpt (torch, 747507 bytes, 22 tensors)

layer1.0.weight f4 [64, 3, 3, 3]
0	0x3e0d1797	0.1377853
1	0xbdd6b791	-0.10484231
2	0x3da7a575	0.08185855
3	0xbe2d4498	-0.16920698
4	0x3e38b52a	0.18037859
5	0xbdb60f2a	-0.08889611
6	0xbe2c1bd1	-0.16807486
7	0x3d360f46	0.04444816
8	0xbe228b56	-0.15873465
9	0x3dd60490	0.10450089
10	0xbdc98149	-0.09839112
11	0xbcde1293	-0.027108466
12	0xbda522a6	-0.08063249
13	0x3ccb094f	0.024784712
14	0xbdb18858	-0.08668584
15	0x3e28c1ae	0.16480133
16	0xbde99905	-0.11406139
17	0x3db421c6	0.08795504
18	0xbdf2cb64	-0.118552
19	0x3e15e60d	0.14638539
20	0x3da9bf8d	0.082884885
21	0x3d5d7ac6	0.054072164
22	0xbe072284	-0.1319676
23	0xbe099f93	-0.13439779
24	0xbdd7a51a	-0.105295375
25	0x3d7edbec	0.062221453
26	0xbdc2b010	-0.095062375
27	0xbc7901b9	-0.015198165
28	0xbe0c94df	-0.13728665
29	0xbd69a46e	-0.057041578
30	0xbdcafc9c	-0.09911463
31	0x3d0c0141	0.034180883
32	0x3e019b5a	0.12656918
33	0xbde71086	-0.112824485
34	0xbd5ed30a	-0.05440048
35	0xbdb9ccf0	-0.09072292
36	0x3dc9d971	0.09855927
37	0x3e3f6bbb	0.1869344
38	0x3db4402f	0.088013045
39	0xbd1c7f77	-0.038207497
40	0x3deef947	0.1166864
41	0x3e408ad6	0.18802962
42	0x3e3e13ab	0.1856219
43	0x3df783c0	0.12085676
44	0xbd80b4ad	-0.06284461
45	0x3dee1781	0.11625577
46	0x3e060a7f	0.13089941
47	0xbe358cec	-0.17729539
48	0xbe03cd2e	-0.12871239
49	0xbc88fb4e	-0.016721394
50	0xbd7cb2f1	-0.06169409
51	0x3d8856c6	0.06657176
52	0xbe1f07aa	-0.15530267
53	0x3d950bf3	0.0727767
54	0x3e08cc30	0.13359141
55	0x3db6fcee	0.08934961
56	0x3d7383d9	0.05945191
57	0x3e1ab65f	0.15108632
58	0xbd01c474	-0.031681493
59	0xbd3778d5	-0.04479297
60	0x3ddda931	0.10823286
61	0xbe130d59	-0.1436056
62	0x3d299975	0.041406114
63	0x3d37c8da	0.04486928
64	0x3dae293a	0.08503957
65	0xbce22f6b	-0.027610501
66	0xbe41cb23	-0.18925147
67	0xbd4eeb49	-0.050517354
68	0x3dd20d57	0.102564506
69	0xbcb28194	-0.021790303
70	0xbd0f42c3	-0.03497578
71	0x3cd5bfbf	0.026092408
72	0x3d6fc428	0.05853668
73	0x3dd641e6	0.10461788
74	0xbc717cd0	-0.01473923
75	0x3c9c147e	0.01905274
76	0xbcc15c1d	-0.023603493
77	0x3e17f523	0.14839606
78	0xbd772136	-0.060334407
79	0xbdea0678	-0.11427015
80	0xbe1d6694	-0.15371162
81	0x3bbb284e	0.005711592
82	0x3d9f86fa	0.077894166
83	0x3d047761	0.03234041
84	0x3dd8feed	0.10595498
85	0x3d05c10d	0.03265481
86	0xbe07c9c5	-0.13260563
87	0x3dcb8ebe	0.09939335
88	0xbddf6cf9	-0.10909457
89	0x3e141d2f	0.14464258
90	0xbcd106b4	-0.025515892
91	0x3e40bcd0	0.18822026
92	0x3df4d4a2	0.11954619
93	0xbe2f9594	-0.17146903
94	0x3cec2ba2	0.0288294
95	0x3c296cc6	0.010340875
96	0x3d476116	0.048676573
97	0x3e2459c0	0.16049862
98	0xbe1600d5	-0.14648755
99	0xbdca4452	-0.09876312
100	0xbddf6603	-0.10908129
101	0xbe380ad4	-0.1797288
102	0xbe41ef9c	-0.1893906
103	0x3e1b8a13	0.1518939
104	0xbd9ba9d5	-0.07600752
105	0xbe1fa55e	-0.15590426
106	0xbe104aab	-0.14090984
107	0xbe09d3ec	-0.13459748
108	0x3ddcb484	0.10776618
109	0x3e0194ae	0.12654373
110	0xbd856d64	-0.06515005
111	0xbe20c4f6	-0.15700135
112	0xbe0795f6	-0.132408
113	0x3e178bec	0.1479947
114	0x3da7830b	0.08179291
115	0x3e39b0db	0.18133871
116	0xbe2c1cfe	-0.16807935
117	0xbc4feed6	-0.01269122
118	0xbc93ec52	-0.018057022
119	0x3dd91e3c	0.1060147
120	0xbc05d390	-0.008168116
121	0x3df2e1d6	0.11859481
122	0xbbb046f6	-0.005379553
123	0x3e274736	0.16335759
124	0xbd8c9f05	-0.06866268
125	0x3d7df940	0.06200528
126	0x3a95e68f	0.001143651
127	0x3dc4bda7	0.09606486
128	0xbe12e261	-0.14344169
129	0xbe2d463c	-0.16921324
130	0x3cd0b244	0.025475629
131	0xbdc675eb	-0.0969046
132	0xbdfb50fb	-0.12271305
133	0x3df4cf5b	0.119536124
134	0x3dd032b7	0.10165923
135	0x3bb5be2a	0.005546351
136	0xbd1905e8	-0.03735915
137	0x3dfffc75	0.12499324
138	0x3cbad6d4	0.022807516
139	0xbe070eb7	-0.13189207
140	0x3cf5db1f	0.030011712
141	0x3dff53a1	0.12467123
142	0xbd3e99c9	-0.04653338
143	0x3dab8d31	0.083765395
144	0x3e0fc815	0.14041169
145	0xbd4f803b	-0.0506594
146	0xbe39caa4	-0.18143708
147	0x3e382695	0.17983468
148	0xbe2c7ad1	-0.16843726
149	0xbd99e319	-0.075140186
150	0x3debd879	0.11515898
151	0xbd0d575a	-0.034507133
152	0xbc311cd4	-0.010810096
153	0xbdabca0f	-0.08388149
154	0xbd048385	-0.03235199
155	0x3e32a269	0.17444767
156	0x3d2d77c9	0.042350564
157	0xbe0b7ea7	-0.13622533
158	0xbce13758	-0.02749221
159	0x3b985112	0.004648336
160	0xbe238d09	-0.1597177
161	0xbd5eb2d5	-0.054369766
162	0x3e0cb002	0.13739017
163	0xbbcf715d	-0.0063306526
164	0x3cc7b2bd	0.024377221
165	0x3d89156b	0.06693538
166	0xbde35796	-0.1110069
167	0xbe1a6d95	-0.15080865
168	0x3d2205f6	0.039556466
169	0x3dd62aae	0.10457359
170	0xbcfc0e3e	-0.03076851
171	0x3d058208	0.03259471
172	0x3d912f08	0.070890486
173	0x3e2c08c4	0.16800219
174	0xbe3ae69a	-0.1825203
175	0xbe2464fd	-0.16054149
176	0x3e0c16a9	0.13680519
177	0xbd85b2db	-0.065282546
178	0xbe3585b9	-0.17726792
179	0x3cebba26	0.028775286
180	0xbd7db9fe	-0.061944954
181	0x3def664d	0.11689434
182	0x3bcd7dcf	0.006271101
183	0x3e28fc75	0.16502555
184	0x3d4059e9	0.046960745
185	0x3dae52b7	0.0851187
186	0x3e3bf31f	0.18354462
187	0x3e358723	0.17727332
188	0xbe1cb433	-0.15303116
189	0x3d678b91	0.056529585
190	0x3e12aec0	0.14324474
191	0xbc961f0e	-0.018325355
192	0x3dc2de38	0.09515041
193	0x3d8a37ce	0.06748925
194	0xbc360cb2	-0.011111425
195	0xbe06d969	-0.13168873
196	0xbe03f0c9	-0.12884821
197	0x3e25d5de	0.16194865
198	0x3deeaa95	0.1165363
199	0x3da9d62d	0.08292804
200	0xbce86cb0	-0.028372139
201	0xbe29a6c5	-0.16567524
202	0xbdca6c4f	-0.098839395
203	0x3de6a3f7	0.112617426
204	0xbd35b230	-0.044359386
205	0xbe215ae9	-0.15757336
206	0x3b05df72	0.0020427373
207	0x3df32deb	0.118739925
208	0xbe135c29	-0.14390625
209	0xbe41dbde	-0.18931529
210	0xbb41b317	-0.0029556209
211	0xbe42533a	-0.18977061
212	0x3df1759c	0.1179001
213	0xbe1b06b7	-0.1513928
214	0x3e0b2e35	0.13591845
215	0x3e1ab510	0.15108132
216	0x3ded5632	0.11588706
217	0xbe3af557	-0.18257652
218	0x3e38d3b8	0.18049514
219	0xbd9aa55c	-0.07551071
220	0x3e2dc0ce	0.1696808
221	0x3dc6288e	0.09675704
222	0xbe064508	-0.13112271
223	0x3e205479	0.15657224
224	0x3d4a0dd3	0.04932959
225	0xbc99f61d	-0.018794114
226	0xbd0572af	-0.032580074
227	0x3e41aedb	0.18914358
228	0xbd8af90b	-0.067857824
229	0xbe2c31f0	-0.16815925
230	0xbe029b44	-0.12754542
231	0x3c99713f	0.018730758
232	0xbdc0c56f	-0.094126575
233	0xbd3bd58f	-0.045857962
234	0x3e023163	0.12714152
235	0x3dc6ec42	0.09713031
236	0x3e37df67	0.17956315
237	0x3da32feb	0.07968124
238	0x3cf996ba	0.03046738
239	0xbd42b129	-0.047532234
240	0x3d284da4	0.04108967
241	0x3dd1b069	0.10238726
242	0xbd8214b8	-0.06351608
243	0x3dedc2af	0.116093986
244	0xbcf7c19a	-0.030243684
245	0xbe05c31b	-0.13062708
246	0x3dd779be	0.10521267
247	0xbe1cb079	-0.15301694
248	0x3d34b0c6	0.044113897
249	0xbddc5d5e	-0.10759996
250	0x3e398ec2	0.18120864
251	0x3c59d924	0.013296399
252	0xbdc3e65a	-0.095654204
253	0x3e32e23b	0.17469113
254	0xbe2a96b7	-0.16659056
255	0x3df3f87d	0.1191263

layer1.0.bias f4 [64]
0	0xbe13425b	-0.14380781
1	0xbddbe11a	-0.10736294
2	0xbdfc6f65	-0.12325934
3	0x3e0b9a30	0.13633037
4	0xbd9c00fa	-0.07617374
5	0x3e225ebf	0.15856455
6	0xbe32d46a	-0.17463842
7	0x3c6b5b50	0.014365032
8	0xbda14281	-0.07874013
9	0x3e17668c	0.14785212
10	0xbe14ac02	-0.14518741
11	0xbc98dc46	-0.018659722
12	0x3e039e47	0.12853347
13	0xbdf9a61a	-0.121898845
14	0x3e3cd861	0.18441917
15	0x3e25f4d0	0.1620667
16	0x3e14664b	0.14492147
17	0xbd31a26b	-0.043367784
18	0x3d2879e5	0.041131873
19	0xbddadfad	-0.10687194
20	0x3dd69625	0.104778565
21	0xbdcc3af4	-0.09972182
22	0x3cf4fe54	0.02990643
23	0xbe116d6c	-0.14201897
24	0x3db9762c	0.090557426
25	0x3e33e122	0.1756635
26	0x3e11cefd	0.14239116
27	0x3c0f0bca	0.008730838
28	0xbd585d6c	-0.05282347
29	0x3b6c13df	0.0036022586
30	0x3e149ecb	0.145137
31	0xbe29d3bc	-0.16584677
32	0xbdbad17f	-0.091219895
33	0x3e0e6847	0.13906966
34	0xbe1cd6a1	-0.1531625
35	0x3da8b522	0.08237673
36	0x3cbde908	0.023182407
37	0x3dac0d64	0.084009916
38	0xbd0bfaee	-0.034174852
39	0xbd97208b	-0.07379254
40	0x3e0735eb	0.13204162
41	0xbe0e149c	-0.1387505
42	0xbd94e267	-0.07269745
43	0xbdccd587	-0.100016646
44	0x3c97fe6d	0.018553937
45	0xbdc0ff47	-0.0942369
46	0xbe12d63c	-0.14339536
47	0x3e16a48b	0.14711206
48	0x3e36d0dc	0.17853111
49	0xbdce1d32	-0.10064162
50	0xbe2024a0	-0.15638971
51	0x3df1766a	0.11790164
52	0x3d872f13	0.066007756
53	0x3dd96c45	0.10616354
54	0x3e3b3719	0.18282737
55	0x3e1d9850	0.15390134
56	0xbe3def65	-0.18548353
57	0x3e29f118	0.16595876
58	0xbdae6695	-0.0851566
59	0xbe39bb83	-0.18137936
60	0xbb906de5	-0.0044076317
61	0xbdff9a42	-0.12480594
62	0xbe2df00b	-0.169861
63	0x3e128c4d	0.14311333

layer1.1.weight f4 [64]
0	0x3f7ffff9	0.9999996
1	0x3f7ffff8	0.9999995
2	0x3f80000c	1.0000014
3	0x3f7fffc5	0.9999965
4	0x3f7fffca	0.9999968
5	0x3f7fffdf	0.99999803
6	0x3f800007	1.0000008
7	0x3f800029	1.0000049
8	0x3f7fffc4	0.9999964
9	0x3f7fff99	0.99999386
10	0x3f7ffff4	0.9999993
11	0x3f7fffda	0.99999774
12	0x3f7fffdf	0.99999803
13	0x3f800018	1.0000029
14	0x3f7fffe5	0.9999984
15	0x3f7ffffd	0.9999998
16	0x3f7fffde	0.999998
17	0x3f7ffffc	0.99999976
18	0x3f800017	1.0000027
19	0x3f7fffd7	0.99999756
20	0x3f7ffff5	0.99999934
21	0x3f800009	1.0000011
22	0x3f800015	1.0000025
23	0x3f800003	1.0000004
24	0x3f7ffff2	0.99999917
25	0x3f800021	1.0000039
26	0x3f7fffb1	0.9999953
27	0x3f800013	1.0000023
28	0x3f7ffff5	0.99999934
29	0x3f800012	1.0000021
30	0x3f7fffe6	0.99999845
31	0x3f7fffdf	0.99999803
32	0x3f800004	1.0000005
33	0x3f80000f	1.0000018
34	0x3f7ffff3	0.9999992
35	0x3f7fff8b	0.999993
36	0x3f80000e	1.0000017
37	0x3f80000d	1.0000015
38	0x3f800013	1.0000023
39	0x3f800010	1.0000019
40	0x3f800033	1.0000061
41	0x3f7fffe1	0.99999815
42	0x3f7fffd6	0.9999975
43	0x3f800014	1.0000024
44	0x3f7ffff2	0.99999917
45	0x3f800001	1.0000001
46	0x3f800002	1.0000002
47	0x3f7fffe7	0.9999985
48	0x3f7fffe6	0.99999845
49	0x3f800011	1.000002
50	0x3f800014	1.0000024
51	0x3f800023	1.0000042
52	0x3f800004	1.0000005
53	0x3f80000d	1.0000015
54	0x3f7fffc3	0.99999636
55	0x3f80001f	1.0000037
56	0x3f800022	1.000004
57	0x3f800029	1.0000049
58	0x3f800017	1.0000027
59	0x3f800012	1.0000021
60	0x3f7fffea	0.9999987
61	0x3f7fffc4	0.9999964
62	0x3f7fffcb	0.99999684
63	0x3f7fffcf	0.9999971

layer1.1.bias f4 [64]
0	0x35d8e5a1	1.6160085e-06
1	0xb61944c9	-2.2838815e-06
2	0x3631b46a	2.648007e-06
3	0xb67f804f	-3.8072646e-06
4	0xb63b882f	-2.794444e-06
5	0xb6903a27	-4.2983042e-06
6	0xb5327812	-6.648489e-07
7	0x361f50d7	2.3739901e-06
8	0xb63ad902	-2.7842475e-06
9	0xb581688e	-9.641678e-07
10	0xb606f5e9	-2.0110695e-06
11	0x35f226b4	1.8041669e-06
12	0xb5144b07	-5.5243476e-07
13	0x35f1ab1e	1.8005701e-06
14	0x361ebdfc	2.365442e-06
15	0xb5229459	-6.0565577e-07
16	0xb65a36ea	-3.2516496e-06
17	0xb57d87dd	-9.444755e-07
18	0x36c2acca	5.801766e-06
19	0xb61f3594	-2.3724033e-06
20	0x36074827	2.0158566e-06
21	0xb41b8d5a	-1.4486923e-07
22	0x368d6406	4.2137717e-06
23	0x354fdc7d	7.743436e-07
24	0x35a11dcd	1.2004108e-06
25	0xb21145f0	-8.456013e-09
26	0xb5729813	-9.037332e-07
27	0x35d04433	1.5517056e-06
28	0x362cacd2	2.5730592e-06
29	0x35cdcbee	1.5333042e-06
30	0xb548cb8e	-7.4802017e-07
31	0xb60223cc	-1.9392346e-06
32	0xb51caf6e	-5.836981e-07
33	0x36102df2	2.1484416e-06
34	0xb3b9ef9e	-8.65832e-08
35	0xb592091f	-1.0880502e-06
36	0x3682459d	3.882406e-06
37	0xb597d54c	-1.1312454e-06
38	0x34912709	2.7036756e-07
39	0x35958539	1.1140138e-06
40	0x36de805e	6.6310595e-06
41	0xb5901c84	-1.0737135e-06
42	0xb59076a7	-1.0763368e-06
43	0x361ec73e	2.365981e-06
44	0xb5884016	-1.0151441e-06
45	0x3481556f	2.4090284e-07
46	0x35c7b526	1.4879377e-06
47	0x352109d7	5.999149e-07
48	0x348b65a8	2.5964732e-07
49	0x3626fb40	2.4882174e-06
50	0x3582b36a	9.737971e-07
51	0x3641e80f	2.8894317e-06
52	0x356d4e79	8.840357e-07
53	0xb3238857	-3.8075395e-08
54	0xb5b02d33	-1.3126177e-06
55	0x35c2bae2	1.4508516e-06
56	0x365a6385	3.254246e-06
57	0x36a728b9	4.9817286e-06
58	0x352f0a81	6.5207865e-07
59	0x36488075	2.9877094e-06
60	0xb5598829	-8.103694e-07
61	0xb505d537	-4.985663e-07
62	0xb5681754	-8.646068e-07
63	0xb5fcc477	-1.8832642e-06

layer1.1.running_mean f4 [64]
0	0xbd1aca82	-0.037790783
1	0x3b955563	0.004557298
2	0x39597dc5	0.00020741585
3	0xbb7f6803	-0.0038971908
4	0x3bbc89fe	0.0057537546
5	0x3be996ef	0.0071285884
6	0x3b450907	0.0030065195
7	0xbb396f15	-0.002829497
8	0x3c8cc4c4	0.017183669
9	0x3cb2a511	0.021807225
10	0x3d211f81	0.039336685
11	0x3b7984f5	0.0038073633
12	0xbccb3b23	-0.024808472
13	0xbcb93d7b	-0.022612324
14	0x3c606a67	0.013697243
15	0x3b5a490b	0.0033307697
16	0xbc8300eb	-0.015991649
17	0xbd18df18	-0.037322134
18	0xbcd414f3	-0.025888896
19	0xbd91d81a	-0.07121296
20	0x3d347949	0.04406098
21	0xbc059906	-0.008154159
22	0x3c881b61	0.016614618
23	0xbca2dc1a	-0.019880343
24	0xbd06dbb3	-0.032924365
25	0x3ce4d3df	0.02793306
26	0x3c223689	0.0099006975
27	0x3c6212fd	0.0137984725
28	0xbc8e9e13	-0.01740936
29	0x3cab072f	0.020877449
30	0xbb46fad0	-0.0030361898
31	0x3ae5b17d	0.0017524209
32	0xbd1ffced	-0.03905957
33	0x3d1ce01d	0.03829967
34	0xbc7fc783	-0.015611532
35	0x3d20e12c	0.03927724
36	0x3d10d88d	0.03536277
37	0xbc9a64f7	-0.018846972
38	0xbc067055	-0.008205493
39	0x3b939fb3	0.0045051216
40	0xbcbf52e6	-0.023354959
41	0xbc48789b	-0.012235786
42	0x3ca94ec3	0.02066744
43	0xbcfb2d7f	-0.030661343
44	0x3d26e0df	0.040741798
45	0x3d790142	0.060792215
46	0x3cb8c12f	0.022553055
47	0x3c69ded8	0.0142743215
48	0x3d0162eb	0.031588476
49	0xbc58caed	-0.013231975
50	0xbc9f27c3	-0.01942814
51	0x3bb0033d	0.00537148
52	0xbc84cf17	-0.01621203
53	0x3b9ad1ed	0.004724732
54	0x3d235ecf	0.03988534
55	0x3c8fabb7	0.017537935
56	0xbc6a90ab	-0.014316718
57	0x3c795063	0.01521692
58	0xbca47333	-0.020074463
59	0xbc186bfd	-0.00930309
60	0xbc2e40f9	-0.010635608
61	0xbc6e20bd	-0.014534173
62	0x39ac4d21	0.00032863862
63	0x3c123e1f	0.008925944

layer1.1.running_var f4 [64]
0	0x3f66d120	0.9016285
1	0x3f66a1bb	0.9009053
2	0x3f66b74d	0.90123445
3	0x3f66f980	0.90224457
4	0x3f669001	0.9006348
5	0x3f66a6c8	0.9009824
6	0x3f66d547	0.90169185
7	0x3f6693c1	0.90069205
8	0x3f66fead	0.90232354
9	0x3f6688e5	0.90052634
10	0x3f68777d	0.90807325
11	0x3f668c94	0.90058255
12	0x3f676c1e	0.9039935
13	0x3f66c150	0.9013872
14	0x3f667c50	0.90033436
15	0x3f6690a5	0.9006446
16	0x3f671238	0.90262175
17	0x3f671747	0.90269893
18	0x3f6750ca	0.9035765
19	0x3f68b471	0.9090033
20	0x3f6738ad	0.90320855
21	0x3f66b60a	0.9012152
22	0x3f669965	0.9007781
23	0x3f6692aa	0.9006754
24	0x3f67aaea	0.9049517
25	0x3f66c1e1	0.90139586
26	0x3f667f24	0.9003775
27	0x3f66a079	0.9008861
28	0x3f66c4d8	0.9014411
29	0x3f66cbf4	0.9015496
30	0x3f66ced1	0.90159327
31	0x3f66cbf3	0.9015495
32	0x3f673460	0.9031429
33	0x3f66d835	0.90173656
34	0x3f6686cd	0.9004944
35	0x3f671216	0.9026197
36	0x3f67a667	0.90488285
37	0x3f671015	0.90258914
38	0x3f6687c2	0.900509
39	0x3f6698d4	0.9007695
40	0x3f674449	0.9033857
41	0x3f66914b	0.9006545
42	0x3f6702f5	0.9023889
43	0x3f66e540	0.9019356
44	0x3f6787e8	0.9044175
45	0x3f6981b2	0.91213524
46	0x3f6760a4	0.90381837
47	0x3f666caf	0.9000959
48	0x3f668c35	0.9005769
49	0x3f66838d	0.9004448
50	0x3f66dd32	0.9018127
51	0x3f668d59	0.9005943
52	0x3f66c215	0.90139896
53	0x3f667daa	0.900355
54	0x3f66e192	0.90187943
55	0x3f6695e5	0.9007247
56	0x3f667f9b	0.9003846
57	0x3f668a0f	0.9005441
58	0x3f669373	0.9006874
59	0x3f66fbff	0.90228266
60	0x3f668799	0.90050656
61	0x3f669f62	0.9008695
62	0x3f66c911	0.90150553
63	0x3f66819e	0.9004153

layer2.0.weight f4 [64, 64, 3, 3]
0	0x3cdae4b5	0.026720384
1	0x3cd459a5	0.025921652
2	0xbca12942	-0.019672994
3	0xbcbc3b5f	-0.02297753
4	0x3b8970a9	0.0041943383
5	0x3cc29b41	0.023755671
6	0x3d0d95db	0.03456674
7	0xbc0d15b0	-0.008611128
8	0xbbb7dac8	-0.0056107976
9	0x3cb7d16e	0.022438731
10	0xbcb910ef	-0.022591082
11	0x3cf54584	0.029940374
12	0xbc1b6414	-0.00948431
13	0xbc110ee9	-0.0088536525
14	0x3bb7b06b	0.0056057475
15	0xbc0fe415	-0.008782406
16	0x3c34f6da	0.011045182
17	0x3cd798a3	0.0263179
18	0x3c5bb8ba	0.013410741
19	0xbcbddddb	-0.023177078
20	0xbc859281	-0.01630521
21	0x3d169814	0.036766127
22	0x3c74d5d0	0.014943555
23	0x3c13e29b	0.009026195
24	0x3bdc0631	0.0067146053
25	0x3cee395c	0.029080085
26	0xbbee1e6e	-0.007266811
27	0x3a8aa91c	0.0010578963
28	0xbba269b0	-0.0049564466
29	0x3cb4df18	0.022079036
30	0xbcff363e	-0.031153794
31	0x3c95d6ab	0.018290838
32	0xbd175ec9	-0.03695563
33	0x3d1f8ec6	0.03895452
34	0xbb06a97c	-0.0020547798
35	0xbcc048b4	-0.023472168
36	0x3c2dac4f	0.010600164
37	0xbb7a1c72	-0.0038163927
38	0xbc6f9a46	-0.014624184
39	0x3d1a2335	0.037631232
40	0xbc967110	-0.01836446
41	0x3c3c49d1	0.011492209
42	0x3c061da2	0.008185776
43	0xbc6c0bd3	-0.014407116
44	0x3b851627	0.0040614787
45	0x3bac6b8f	0.0052618454
46	0xbca4f5fa	-0.020136822
47	0xbce760fa	-0.028244484
48	0xbc52bbfa	-0.0128622
49	0x3d0c94c9	0.03432158
50	0x3c413402	0.011792185
51	0x3c32fd21	0.010924608
52	0x3d11aef4	0.03556724
53	0x3c418941	0.011812509
54	0xbcf4d5f4	-0.029887177
55	0x3c89fa49	0.016842978
56	0x3bd69b03	0.0065492406
57	0xbcb628bc	-0.02223622
58	0x3c64304a	0.013927529
59	0xbd1c06ff	-0.03809261
60	0x3c5ec455	0.013596614
61	0x3aad543c	0.0013223956
62	0xbca0db0a	-0.019635696
63	0x3c6ea6a4	0.014566097
64	0x3d0dec2e	0.034649067
65	0xbb103ccf	-0.00220089
66	0xbcae7ba8	-0.021299198
67	0xbd0fa553	-0.035069775
68	0xbcf70a00	-0.030156136
69	0xbc0e8b15	-0.008700152
70	0xbae06508	-0.0017119953
71	0xbc704331	-0.014664457
72	0xbc3b74a0	-0.01144138
73	0xbd29d02b	-0.04145829
74	0xbd045fea	-0.032318033
75	0x3b8f9b3d	0.0043825195
76	0x3d1dc635	0.038519103
77	0x3cd9549b	0.0265296
78	0xbcae459f	-0.021273432
79	0xbd001c81	-0.031277183
80	0xbc2c0dc7	-0.010501332
81	0x3d089bd4	0.033351734
82	0x3c98a349	0.018632548
83	0x3c37d4f5	0.0112202065
84	0x3c4e2b1a	0.012583518
85	0x3bc53968	0.0060188062
86	0xbd2594b9	-0.040425036
87	0xbc802f53	-0.015647566
88	0xbcab72f3	-0.020928835
89	0x3c738f15	0.014865656
90	0x3c39db14	0.011343736
91	0xbc197940	-0.009367287
92	0x3d02e9b9	0.031961177
93	0x3c79ed55	0.015254338
94	0x3bf1b4bd	0.007376282
95	0x3c8737bf	0.016506074
96	0x3cd881f7	0.02642916
97	0x3c66d3fc	0.014088627
98	0x3ca4307e	0.020042654
99	0x3cbbf77d	0.02294516
100	0xbcfcc94a	-0.0308577
101	0xbcf1e49a	-0.029527951
102	0xbcca49b9	-0.024693357
103	0x3c534250	0.012894228
104	0x3d27a308	0.040926963
105	0x3cf9975a	0.030467678
106	0x3ce5e1cc	0.02806177
107	0xbc2bf8cb	-0.010496329
108	0xbd1c74f7	-0.038197484
109	0x3ba5b620	0.0050571114
110	0xbd2836d2	-0.041067906
111	0x3c66f75e	0.014097063
112	0xbcd1bf8f	-0.025604038
113	0x394d473d	0.00019576862
114	0xbc5e5b20	-0.013571531
115	0x3c6b4d82	0.014361741
116	0x3c3a01ae	0.0113529395
117	0xbcab7062	-0.020927612
118	0xba7c609e	-0.0009627434
119	0xbc888f34	-0.016669847
120	0x3b34a3ee	0.002756353
121	0xbc89c9cf	-0.016819863
122	0xbcd84f64	-0.026405044
123	0x3b24d8e6	0.0025153696
124	0xbc166014	-0.00917818
125	0xbd13fd6b	-0.03613035
126	0xbd27e85b	-0.040993076
127	0xbbfd1701	-0.0077236895
128	0x3c3081ca	0.010773132
129	0xbd0f463a	-0.034979083
130	0x3cb2eb41	0.021840693
131	0xbd054459	-0.032535885
132	0xbce6ecab	-0.028189024
133	0xbcf8b98f	-0.030361919
134	0x3d236896	0.039894663
135	0x3d0502bf	0.032473322
136	0xbce9f97c	-0.028561346
137	0x3c8fd5f9	0.017558085
138	0x3c60671f	0.013696461
139	0x3caf01e0	0.021363199
140	0x3b0573f1	0.0020363296
141	0x3c0d0c97	0.008608959
142	0x3d273a2c	0.04082696
143	0x3ca60229	0.020264702
144	0xbbf892e6	-0.007585871
145	0xbcad4f7b	-0.021156063
146	0xbc4acd55	-0.0123780565
147	0x3d06364b	0.03276662
148	0x3be0081d	0.0068369047
149	0xbd28c275	-0.041201074
150	0xbceaaed5	-0.02864782
151	0xbaf5d1c2	-0.0018754529
152	0x3cb20f4d	0.021735812
153	0x3c82713d	0.015923137
154	0x3c6a3644	0.0142951645
155	0xbc5c9181	-0.013462425
156	0x39e54a7c	0.0004373378
157	0xbd15e300	-0.036593437
158	0x3c0b7047	0.008510656
159	0x3ab60754	0.0013887682
160	0xbbf99cf8	-0.007617589
161	0xbd075fcf	-0.033050355
162	0xbc9824f2	-0.018572304
163	0x3c3d2f4d	0.011546922
164	0xba022aaa	-0.0004965464
165	0x3be0baa8	0.0068581887
166	0x3d180727	0.037116196
167	0x3bb6ca75	0.005578334
168	0xbc9b02b8	-0.018922195
169	0x3c2f9a48	0.010717936
170	0x3ce86e6c	0.028372966
171	0xbbce7868	-0.0063009746
172	0x3ca1b70a	0.0197406
173	0x3d287e53	0.041136097
174	0xbb81ec74	-0.003964955
175	0xbd0ce931	-0.034402076
176	0xbcd4f6c5	-0.025996575
177	0xbcd1f5dd	-0.025629932
178	0x3cdb0bb2	0.026738975
179	0x3cc53498	0.02407293
180	0x3cbd0743	0.023074752
181	0xbd04a9ff	-0.032388683
182	0xbc327f86	-0.010894662
183	0x3c733f88	0.01484669
184	0x3c999de9	0.018752055
185	0x3b16f657	0.0023035014
186	0x3ce8fa04	0.02843953
187	0x3cbaecbd	0.022817964
188	0x3d257e94	0.040403917
189	0x3cf3e227	0.029770924
190	0x3cc840db	0.024444988
191	0x3c61b5f3	0.01377629
192	0x3cf3f902	0.029781822
193	0xbb45c535	-0.003017736
194	0x3c77fa92	0.015135424
195	0xbc9c3bf7	-0.019071562
196	0xbc77fb16	-0.015135547
197	0x3cd62a03	0.02614308
198	0xbc3d2cb8	-0.011546306
199	0x3cfbbca2	0.030729596
200	0xbc7e2151	-0.015510873
201	0xbd159504	-0.036519065
202	0xbba9dab0	-0.0051835403
203	0xbcb6452f	-0.022249786
204	0xbd2239c8	-0.039605886
205	0xbcbb8a23	-0.022893017
206	0x3cbb5a5f	0.02287024
207	0x3c160b4d	0.009157968
208	0x3cc3dc21	0.023908677
209	0xbc0f0380	-0.008728862
210	0xbcc36f04	-0.023856647
211	0x3d211515	0.039326746
212	0x3a520a6d	0.0008012418
213	0x3cdfb139	0.027306186
214	0xbc445d17	-0.011985085
215	0x3cd5a9c3	0.026081925
216	0x3bb95d0c	0.005656844
217	0xbc510fa6	-0.012760079
218	0xba800e90	-0.0009769965
219	0x3c9c823d	0.019105071
220	0x3ae2088c	0.0017244979
221	0xbbd023cf	-0.006351925
222	0xbccc1092	-0.024910245
223	0x3cd6f3cc	0.026239298
224	0x3d15539f	0.0364567
225	0xbced45cf	-0.028963951
226	0x3afe9603	0.0019423369
227	0xbd214116	-0.03936871
228	0x3d0e5af7	0.03475472
229	0x3d252b26	0.040324353
230	0x3cd4af37	0.025962455
231	0x3d27b70b	0.040946048
232	0xbd1646c6	-0.03668859
233	0xbbb6699e	-0.00556679
234	0xbc8557f2	-0.016277287
235	0xbcde9ab4	-0.027173378
236	0xbaf29d0c	-0.0018509938
237	0x3c069da4	0.008216295
238	0xbd0e9b93	-0.034816336
239	0xba4fbb6b	-0.0007924351
240	0xbcec5447	-0.02884878
241	0x3d1c2a7b	0.03812645
242	0x3cef0257	0.02917592
243	0x3af47c22	0.0018652717
244	0x3bcc7585	0.0062395954
245	0xbcba4385	-0.022737274
246	0x3cd96968	0.02653952
247	0x3c8aaef2	0.016929124
248	0xbc5285e0	-0.012849301
249	0xbd27a50c	-0.040928885
250	0x3c001f0c	0.007819902
251	0x3c15ceea	0.00914357
252	0x3ca493a6	0.020089936
253	0x3d0ec7af	0.034858402
254	0xbca3629e	-0.019944485
255	0xbc8be4ae	-0.017076816

layer2.0.bias f4 [64]
0	0x3ca697ab	0.020335993
1	0x3bb84af6	0.0056241704
2	0x3d281d77	0.041043725
3	0x3b5b4856	0.0033459864
4	0xbd289536	-0.041157924
5	0xbbde0bb6	-0.0067762984
6	0xbc316d2b	-0.01082925
7	0x3cb5e3fe	0.022203442
8	0xbcb0e353	-0.021592772
9	0x3b05ec40	0.0020435005
10	0x3d050c9f	0.03248274
11	0x3d031326	0.032000683
12	0x3d1e0cc0	0.038586378
13	0x3c82f550	0.015986115
14	0xbcaed5aa	-0.021342117
15	0xbcc5d150	-0.02414766
16	0x3d27c98b	0.04096369
17	0x3cff25eb	0.03114601
18	0x3d218420	0.039432645
19	0x3c805f43	0.015670424
20	0xbcf531c6	-0.02993096
21	0xbd24bc40	-0.04021859
22	0xbc013760	-0.007886738
23	0xbce45f0c	-0.027877353
24	0x3b9e1b40	0.004825026
25	0xbc51b550	-0.012799576
26	0xbbd7d140	-0.006586224
27	0xbd256f34	-0.040389255
28	0x3d03bcf4	0.03216262
29	0xbc4af980	-0.012388587
30	0xb9722eae	-0.00023096308
31	0xbcf21218	-0.029549643
32	0xbcd76cde	-0.02629703
33	0x3c68c12b	0.014206211
34	0x3cf9eb9b	0.030507853
35	0xbc9d82ae	-0.019227352
36	0x3cdb01ab	0.026734194
37	0xbd04228a	-0.0322595
38	0xbc46d9c6	-0.012136882
39	0x3cfbc276	0.030732375
40	0xbd0b85ea	-0.034063257
41	0x3c95d066	0.018287849
42	0x3a26c4aa	0.00063617027
43	0xbd1c5b17	-0.038172808
44	0xbd1c77f0	-0.03820032
45	0xbd1d3cda	-0.03838811
46	0xbc1d25a6	-0.009591496
47	0xbd0f3234	-0.034959987
48	0x3c8e7008	0.017387405
49	0xbcfcb100	-0.030846119
50	0x3c93b008	0.018028274
51	0x3c806658	0.015673801
52	0xbd1698d6	-0.03676685
53	0xbc4cb0db	-0.0124933375
54	0xbd18928f	-0.037249144
55	0xbd279dc3	-0.040921938
56	0xbbaffa36	-0.0053704036
57	0x3b6a2816	0.003572946
58	0xbcd3fec0	-0.02587831
59	0x3d08ab27	0.03336635
60	0x3d1183eb	0.035526197
61	0xbd105958	-0.035241455
62	0xbd0331eb	-0.032030027
63	0x3c787f5b	0.015167083

layer2.1.weight f4 [64]
0	0x3f7ffffe	0.9999999
1	0x3f7fffe4	0.99999833
2	0x3f800001	1.0000001
3	0x3f7ffff1	0.9999991
4	0x3f80000e	1.0000017
5	0x3f800013	1.0000023
6	0x3f800016	1.0000026
7	0x3f80001f	1.0000037
8	0x3f7ffffc	0.99999976
9	0x3f800029	1.0000049
10	0x3f7fffaa	0.9999949
11	0x3f800009	1.0000011
12	0x3f80000a	1.0000012
13	0x3f7fffe9	0.9999986
14	0x3f800000	1.0
15	0x3f800017	1.0000027
16	0x3f800014	1.0000024
17	0x3f7fffc2	0.9999963
18	0x3f7fffd6	0.9999975
19	0x3f7fffc9	0.9999967
20	0x3f7ffff8	0.9999995
21	0x3f800017	1.0000027
22	0x3f7ffff5	0.99999934
23	0x3f800000	1.0
24	0x3f7fffca	0.9999968
25	0x3f7ffff4	0.9999993
26	0x3f800027	1.0000046
27	0x3f80000f	1.0000018
28	0x3f7fffde	0.999998
29	0x3f7fffeb	0.99999875
30	0x3f80001e	1.0000036
31	0x3f7ffff4	0.9999993
32	0x3f80000d	1.0000015
33	0x3f7fffea	0.9999987
34	0x3f7fffae	0.9999951
35	0x3f7fffc8	0.99999666
36	0x3f80000a	1.0000012
37	0x3f80001f	1.0000037
38	0x3f7fffbe	0.99999607
39	0x3f7fffb1	0.9999953
40	0x3f800005	1.0000006
41	0x3f80000b	1.0000013
42	0x3f7fff90	0.9999933
43	0x3f7fffa1	0.99999434
44	0x3f7ffff7	0.99999946
45	0x3f7fffe1	0.99999815
46	0x3f800004	1.0000005
47	0x3f800013	1.0000023
48	0x3f800015	1.0000025
49	0x3f80000f	1.0000018
50	0x3f800011	1.000002
51	0x3f80000c	1.0000014
52	0x3f7ffff4	0.9999993
53	0x3f800005	1.0000006
54	0x3f800015	1.0000025
55	0x3f800017	1.0000027
56	0x3f800006	1.0000007
57	0x3f800005	1.0000006
58	0x3f7fffcb	0.99999684
59	0x3f800006	1.0000007
60	0x3f7fffeb	0.99999875
61	0x3f7fffe3	0.9999983
62	0x3f800026	1.0000045
63	0x3f800008	1.000001

layer2.1.bias f4 [64]
0	0x3567ffe0	8.6426553e-07
1	0xb580bbc4	-9.59139e-07
2	0xb488b750	-2.5465351e-07
3	0xb62065db	-2.3901146e-06
4	0xb4dd0be4	-4.117311e-07
5	0x359c29f0	1.1635111e-06
6	0x35c2e681	1.4521212e-06
7	0x366415d3	3.398735e-06
8	0xb5530209	-7.8606587e-07
9	0x360f4df8	2.1354044e-06
10	0xb60158b6	-1.9274135e-06
11	0x35fccaa1	1.8834436e-06
12	0x362488bd	2.4517497e-06
13	0xb5815d95	-9.638485e-07
14	0x343d4434	1.7626809e-07
15	0x361f191f	2.3707469e-06
16	0x3362f2f3	5.2840686e-08
17	0x35f18461	1.7994427e-06
18	0xb5ac60fe	-1.2843227e-06
19	0xb62a292e	-2.5355944e-06
20	0x350558e2	4.96757e-07
21	0x3624f2be	2.45792e-06
22	0xb3f6a6e2	-1.14856235e-07
23	0x36a4061e	4.888293e-06
24	0xb5d91d6f	-1.6176326e-06
25	0xb4991d74	-2.85199e-07
26	0x34b3d50a	3.3496354e-07
27	0x357c0de6	9.389754e-07
28	0x346d40fc	2.2095986e-07
29	0x34c863be	3.7325475e-07
30	0x365ab4f9	3.2589871e-06
31	0xb5bae0f5	-1.3923551e-06
32	0x3597d2d4	1.1311736e-06
33	0xb41cdf99	-1.4609977e-07
34	0xb610fbc7	-2.1604226e-06
35	0xb679ff03	-3.7252328e-06
36	0x35785f42	9.252582e-07
37	0xb3ea28bb	-1.0903883e-07
38	0xb465d304	-2.1404054e-07
39	0xb6564e62	-3.193411e-06
40	0x359e59b6	1.1798027e-06
41	0xb47e4bae	-2.3683126e-07
42	0xb5d04752	-1.5517965e-06
43	0x34bb2fc9	3.4866233e-07
44	0xb6174ca4	-2.2545364e-06
45	0xb604b44e	-1.9774484e-06
46	0xb3d81540	-1.0062149e-07
47	0x35ff8449	1.9037481e-06
48	0xb4429025	-1.8120097e-07
49	0x360b5fd9	2.0768405e-06
50	0xb48ba168	-2.6008206e-07
51	0x35dc12d7	1.639676e-06
52	0x34b8b717	3.4405886e-07
53	0x35944a3f	1.1048468e-06
54	0xb4fd6fbb	-4.7206217e-07
55	0x35ef243e	1.7817435e-06
56	0x35f7a3be	1.8450589e-06
57	0xb415f0bc	-1.3964285e-07
58	0xb634c10b	-2.6934456e-06
59	0xb597e2c6	-1.1316376e-06
60	0x35a927d7	1.2603076e-06
61	0xb61d021e	-2.3396055e-06
62	0x3671f4af	3.6054223e-06
63	0x343a8339	1.7370338e-07

layer2.1.running_mean f4 [64]
0	0x3d2c2e53	0.042036366
1	0x3c317d9b	0.010833169
2	0xbbce4252	-0.006294527
3	0xbc04e3a3	-0.008110913
4	0xbc07e7ef	-0.008295043
5	0xbc1ebae2	-0.009688111
6	0xbcea9970	-0.028637618
7	0xbcb48498	-0.022035882
8	0x3b9ce307	0.004787806
9	0xbd0389e9	-0.032113943
10	0x3cef5e3f	0.029219745
11	0x3d0d3a69	0.034479532
12	0xbcc5b5d3	-0.024134552
13	0xbb395850	-0.0028281398
14	0x3ca8a530	0.02058658
15	0x3d0b7ca4	0.034054413
16	0xbabee9de	-0.0014565547
17	0x3c300c64	0.010745142
18	0xb8119a96	-3.4714663e-05
19	0x3c9eedfd	0.019400591
20	0xbc3e50e9	-0.01161597
21	0xbc26ec8f	-0.010188236
22	0xbadd5dda	-0.0016888932
23	0x3caea1dd	0.021317417
24	0xbc7bbc15	-0.0153646665
25	0x3d0dbf9c	0.03460656
26	0x3c1f2b31	0.0097148875
27	0xbce08ce7	-0.027410937
28	0x3bf95020	0.0076084286
29	0xbb952471	-0.0045514633
30	0x3d164429	0.036686096
31	0x3c80b9b7	0.015713556
32	0x3cc602d0	0.024171263
33	0x3c79a973	0.015238154
34	0x3c11c45d	0.008896914
35	0xbd2a6a2b	-0.041605156
36	0x3ca36799	0.01994686
37	0xbc8f096d	-0.01746055
38	0x3c122178	0.008919112
39	0x3b67d685	0.0035375666
40	0xbc6abe95	-0.014327665
41	0x3c11c7a1	0.008897693
42	0x3cb147cb	0.021640679
43	0xbb471031	-0.003037464
44	0xba2175c7	-0.0006159213
45	0xbcc613f3	-0.024179434
46	0xbbbb0159	-0.0057069478
47	0xbb4e0e68	-0.0031441692
48	0xbc9e273b	-0.019305816
49	0xbd044cc3	-0.03229977
50	0x3bcce773	0.006253177
51	0xbc81fc77	-0.015867455
52	0xbcd95918	-0.026531741
53	0xbc127e77	-0.008941284
54	0x3c94858c	0.018130086
55	0xbce409b2	-0.027836654
56	0xbae74d30	-0.0017646905
57	0x3ce3602a	0.027755816
58	0xbd4c90f9	-0.049942944
59	0x3d087c05	0.0333214
60	0xbbd51d28	-0.00650372
61	0xbca47822	-0.020076815
62	0x3bfc440d	0.007698542
63	0x37b11d07	2.1113561e-05

layer2.1.running_var f4 [64]
0	0x3f687166	0.9079803
1	0x3f6972bd	0.911907
2	0x3f687248	0.9079938
3	0x3f6bb791	0.92076975
4	0x3f68cd80	0.9093857
5	0x3f697da6	0.9120735
6	0x3f6927be	0.91076267
7	0x3f68a2e2	0.9087354
8	0x3f6806bf	0.90635294
9	0x3f6946d0	0.91123676
10	0x3f6c5431	0.92315966
11	0x3f6969e9	0.9117723
12	0x3f69bcf4	0.91303945
13	0x3f6c8375	0.9238809
14	0x3f6a3651	0.9148913
15	0x3f68c4da	0.9092537
16	0x3f677645	0.9041484
17	0x3f679f9a	0.9047791
18	0x3f6a44cf	0.91511244
19	0x3f69f437	0.9138827
20	0x3f683c13	0.90716666
21	0x3f680388	0.9063039
22	0x3f681c42	0.9066812
23	0x3f68921c	0.90847945
24	0x3f679cc3	0.90473574
25	0x3f6859f5	0.90762264
26	0x3f67ffab	0.90624493
27	0x3f699c78	0.9125438
28	0x3f685869	0.90759903
29	0x3f67d931	0.9056578
30	0x3f69f100	0.9138336
31	0x3f68567a	0.9075695
32	0x3f6986bf	0.9122123
33	0x3f682cba	0.9069325
34	0x3f6813cb	0.906552
35	0x3f6838a9	0.90711457
36	0x3f6c94c6	0.9241451
37	0x3f6938c6	0.91102254
38	0x3f6833eb	0.9070422
39	0x3f6822eb	0.9067828
40	0x3f67eccf	0.90595716
41	0x3f6d135b	0.9260766
42	0x3f689c1b	0.908632
43	0x3f68d092	0.90943253
44	0x3f681ca1	0.90668684
45	0x3f68236c	0.9067905
46	0x3f68e09d	0.9096773
47	0x3f68172f	0.90660375
48	0x3f682bc7	0.906918
49	0x3f6809e7	0.9064011
50	0x3f68013b	0.9062688
51	0x3f696d94	0.9118283
52	0x3f680f6d	0.9064854
53	0x3f6aa663	0.91660136
54	0x3f67e037	0.905765
55	0x3f67c807	0.9053959
56	0x3f699998	0.9124999
57	0x3f6b5a49	0.9193464
58	0x3f6a3334	0.9148438
59	0x3f6a4d58	0.9152427
60	0x3f6786f7	0.90440315
61	0x3f6aa670	0.91660213
62	0x3f67fc22	0.906191
63	0x3f6d5de9	0.9272142

layer3.0.weight f4 [128, 64, 3, 3]
0	0x3a346aec	0.00068823877
1	0xbbe27f78	-0.006912168
2	0x3a34bc04	0.00068944716
3	0xbcb6a22d	-0.022294128
4	0x3c471c04	0.012152676
5	0x3c0e2206	0.008675104
6	0x3d26b7f7	0.040702786
7	0xbc123d73	-0.008925783
8	0xbd143591	-0.036183897
9	0xbcadad43	-0.021200782
10	0xbd1cfca7	-0.038326886
11	0xbaeb0182	-0.0017929527
12	0xbc1e345e	-0.00965604
13	0xbc639268	-0.013889886
14	0x3c8bb407	0.017053617
15	0xbcb34159	-0.021881746
16	0xbcf9c827	-0.030490948
17	0xbb7a2f15	-0.0038175036
18	0xbd2286c3	-0.0396793
19	0xbce56dc3	-0.02800644
20	0x3ce82ff8	0.028343186
21	0x39b88f37	0.00035201918
22	0xbced8afb	-0.028996935
23	0xbc2505e0	-0.0100722015
24	0xbce1d1f7	-0.02756594
25	0x3d1d6e0c	0.038435027
26	0xbc74e042	-0.014946045
27	0xb9df44d6	-0.0004258516
28	0x3c704c51	0.014666633
29	0x3a3b9ade	0.0007156561
30	0xbc7166a3	-0.014733943
31	0x3c9e88dd	0.01935237
32	0x3d1885f2	0.037237115
33	0x3c27f8d9	0.010252201
34	0x3bc4c323	0.0060047074
35	0x3c60135e	0.0136764925
36	0x3cd7ba41	0.02633393
37	0xbcc00c11	-0.023443254
38	0x3cd84f05	0.026404867
39	0x3c9f4fed	0.019447291
40	0xbd26f751	-0.040763203
41	0x3cb74e5c	0.022376232
42	0x3d0637d9	0.032768104
43	0xbc8a4398	-0.016877934
44	0x3c928348	0.017884865
45	0xbce3d67a	-0.027812231
46	0x3d0014b7	0.031269755
47	0x3cbe78ca	0.023250956
48	0x3ce4e6a5	0.027942011
49	0x3cb54c67	0.022131158
50	0x3c4b070c	0.012391817
51	0xbcac339c	-0.021020703
52	0xbbc7f9ff	-0.0061028
53	0x3c80eb7a	0.015737284
54	0x3d26d255	0.040727932
55	0xbbce4749	-0.006295119
56	0xbc2100a9	-0.009826818
57	0x3cd01312	0.025399718
58	0xbd065e43	-0.03280474
59	0x3c6211e0	0.013798207
60	0xbbb8bedc	-0.0056379866
61	0xbbd0050f	-0.0063482593
62	0x3c70267c	0.014657613
63	0x3d124982	0.035714634
64	0xbcfb3477	-0.030664666
65	0x3c99c3db	0.018770149
66	0xbc55363b	-0.013013418
67	0x3c55907b	0.013034935
68	0x3cbeb1e1	0.023278179
69	0x3b6e9a83	0.0036408014
70	0x3cf2c8a4	0.029636689
71	0xbccde93f	-0.025135634
72	0x3cdd7c22	0.02703673
73	0x3c524e24	0.012836013
74	0xbd062e28	-0.03275886
75	0xbc8039d7	-0.01565258
76	0x3c3bb495	0.011456628
77	0xbd26521f	-0.04060566
78	0xbbf86b72	-0.007581168
79	0xbccc4753	-0.024936354
80	0xbcb30dc6	-0.021857154
81	0x3d002f2c	0.031294987
82	0x3cacdd2c	0.021101557
83	0x3d1e4c45	0.038646955
84	0x3c6bcc54	0.014391977
85	0xbbc93bcd	-0.006141162
86	0x3c4dd805	0.01256371
87	0x3c00ca09	0.007860669
88	0xbcbfa15e	-0.023392376
89	0xbd0d5dbf	-0.03451323
90	0x3cae9621	0.021311821
91	0x3c279a95	0.010229726
92	0x3cf181a1	0.029480757
93	0x3d228a0a	0.039682426
94	0xbd1262db	-0.035738807
95	0xbcb714b5	-0.022348741
96	0x3cb97565	0.022638986
97	0x3c87b73c	0.016566865
98	0xbce339fa	-0.027737606
99	0xbce4d278	-0.02793239
100	0x3a586d09	0.00082559936
101	0x3d0f8ec2	0.035048254
102	0x3cd9195a	0.026501346
103	0x3c96ee56	0.018424194
104	0xbbf34f90	-0.007425256
105	0x3b9ea70a	0.00484169
106	0x3d0cc736	0.03436967
107	0xbcf8ed02	-0.030386452
108	0xba5cba2e	-0.0008420077
109	0x3c8e586b	0.017376145
110	0xbc89ce6c	-0.016822062
111	0x3ce2afbc	0.027671687
112	0x3d0a603c	0.033783183
113	0x3cd9c709	0.026584165
114	0x3b808ad8	0.0039228015
115	0xbd2a23bf	-0.041537996
116	0x3d226154	0.0396436
117	0x3d1c64b5	0.03818198
118	0x3d03482c	0.03205125
119	0x3c2410a7	0.010013736
120	0x3bf80ba1	0.0075697456
121	0x3d1501b7	0.03637859
122	0x3d175f36	0.036956035
123	0xbc6a6afc	-0.014307734
124	0x3cf68a00	0.0300951
125	0x3c008f33	0.007846641
126	0x3c71442d	0.014725727
127	0xbcad1db7	-0.021132333
128	0xbb78baad	-0.0037953064
129	0x3d212fea	0.039352335
130	0xbd261b00	-0.040553093
131	0xbd0f6249	-0.03500584
132	0x3d0896ed	0.03334706
133	0x3caeb306	0.0213256
134	0xbcaeaf4f	-0.021323828
135	0xbd2a0018	-0.041503996
136	0xbce07116	-0.027397674
137	0xbb322999	-0.0027185439
138	0x3cccf7ef	0.025020568
139	0x3c53de75	0.012931456
140	0xbc9f1eb7	-0.019423826
141	0xbcb5e4ee	-0.022203889
142	0xbcb66318	-0.022264048
143	0xbcd9327c	-0.02651333
144	0xbc8af2fb	-0.016961565
145	0xbcafbe37	-0.021453006
146	0x3c3c4f72	0.011493551
147	0x3d0fbb48	0.035090715
148	0xbd0d6aff	-0.034525868
149	0x3ba8eabd	0.005154936
150	0x3b940fac	0.00451847
151	0xbcb1f42f	-0.021722881
152	0x3cf05092	0.029335294
153	0x3c90d80a	0.01768114
154	0xb95905bf	-0.00020696873
155	0xbb80ce6e	-0.0039308583
156	0x3c227fc4	0.009918157
157	0x3ccdab93	0.025106227
158	0xbcb8318c	-0.022484563
159	0x3c89c459	0.016817259
160	0x3d073bf6	0.033016168
161	0xbac067a3	-0.0014679324
162	0xba6c31b2	-0.0009010091
163	0xbcce1065	-0.025154302
164	0x3c132ae4	0.008982394
165	0x3cae7d95	0.021300117
166	0xbd149501	-0.036274914
167	0xbce7f622	-0.028315607
168	0x3d11c1f4	0.03558536
169	0x3d1f16b7	0.038840022
170	0x3c397ae3	0.011320802
171	0xbc545dd1	-0.012961821
172	0xbca82c89	-0.020529049
173	0xbd04d903	-0.03243352
174	0xbd28e5ab	-0.041234653
175	0x3d07db04	0.033167854
176	0xbbfe8b91	-0.0077681025
177	0x3c098c77	0.008395306
178	0xbc23f1bf	-0.010006367
179	0xbc9d6513	-0.019213235
180	0x3d17deff	0.0370779
181	0xbca0fd75	-0.019652108
182	0xbd267adc	-0.04064451
183	0x3c0708ff	0.008241891
184	0xbca964ef	-0.020678012
185	0x3ad732fa	0.001641839
186	0x3cbe558d	0.023234153
187	0x3c0ca10f	0.008583321
188	0x3cac15e4	0.021006532
189	0xbd142890	-0.036171496
190	0x3cf34395	0.029695312
191	0xbb0aab79	-0.0021159335
192	0x3cf89a77	0.030347092
193	0x3d1d11ba	0.038346983
194	0x3d145852	0.03621704
195	0x3b3ffdd4	0.002929558
196	0x3cd93ffc	0.026519768
197	0xbbb8b5f8	-0.0056369267
198	0xbca2d588	-0.01987721
199	0xbd1660f1	-0.036713544
200	0xba705e26	-0.00091693026
201	0x3bf2ecea	0.0074134963
202	0xbc98bc07	-0.018644346
203	0x3cebc9ac	0.028782688
204	0xbca91a57	-0.020642443
205	0xbc8cc505	-0.01718379
206	0xbcb52f44	-0.022117265
207	0xbbeb0685	-0.007172408
208	0x3aed700b	0.0018115056
209	0xbc8ffea3	-0.017577475
210	0xbc0b966e	-0.008519752
211	0x3d0acb1d	0.03388511
212	0x3c9da857	0.01924531
213	0x3d0b3320	0.033984303
214	0x3c96ab0a	0.018392105
215	0x3c762bea	0.015025118
216	0x3bbbe051	0.0057335277
217	0x3d0869cd	0.033304024
218	0x3d257a48	0.04039982
219	0x3c624b41	0.013811887
220	0xbc9b3704	-0.018947132
221	0x3d0e572a	0.034751095
222	0x3cf40264	0.029786296
223	0x3c8fd748	0.017558709
224	0x3d28058a	0.041020907
225	0x3ca34859	0.019931959
226	0xbcf6c8ff	-0.03012514
227	0x3bc39503	0.0059686913
228	0xbc588649	-0.01321561
229	0x3d0580f9	0.0325937
230	0xbd2433c2	-0.040088423
231	0xb9c5d0d1	-0.00037730348
232	0xbd0035da	-0.031301357
233	0xbc7af9e6	-0.0153183695
234	0xbcbd19f8	-0.023083672
235	0xbd1d56d1	-0.038412873
236	0xbca2dfb5	-0.019882062
237	0xbc1753f1	-0.009236322
238	0x3cd7a1de	0.026322301
239	0x3cdc921b	0.026925137
240	0x3d1b8b80	0.037974834
241	0xbc8b9e1b	-0.017043164
242	0x3ce85128	0.02835901
243	0xbc8a1c2e	-0.01685914
244	0x3cd1dd37	0.025618179
245	0x3ca63b57	0.020291967
246	0xbb54541a	-0.0032398761
247	0x3d15e974	0.03659959
248	0x3bf7cc03	0.007562162
249	0x3d184470	0.037174642
250	0xbcca16b1	-0.024669023
251	0x3c1642f1	0.0091712335
252	0xbd22c486	-0.0397382
253	0xbcd41c82	-0.0258925
254	0xbd0e2d5d	-0.03471123
255	0x3c6658aa	0.014059225

layer3.0.bias f4 [128]
0	0xbc7d6080	-0.015464902
1	0xbb94f476	-0.0045457436
2	0xbbfdc600	-0.0077445507
3	0x3c8b9fe6	0.017044019
4	0xbc98f0f8	-0.01866959
5	0x3c291576	0.010320058
6	0x3d0512e7	0.03248873
7	0x3cfcdfde	0.030868467
8	0x3ae60700	0.0017549694
9	0x3c9b6360	0.018968284
10	0x3ccef2f3	0.025262332
11	0xbc65c32b	-0.014023582
12	0x3d00d00a	0.0314484
13	0x3c10e3ab	0.008843343
14	0x3cab39a0	0.020901501
15	0x3ca95fe3	0.020675605
16	0xbaf7c4ab	-0.0018903216
17	0x3b9f46ab	0.004860719
18	0xbd252ac8	-0.040324003
19	0xbd1d462b	-0.038396996
20	0xbc6ce7f0	-0.014459595
21	0xbd169ce8	-0.03677073
22	0x39fb3556	0.0004791419
23	0x3c46b380	0.012127757
24	0xbc973d4b	-0.018461844
25	0xbd1a607c	-0.03768967
26	0xbd26647a	-0.040623166
27	0x3d132c18	0.035930723
28	0xbcdc65d3	-0.026904022
29	0xbd0fcdd6	-0.03510841
30	0xbc4cfb86	-0.01251114
31	0xbd1dd072	-0.038528867
32	0x3c928d90	0.017889768
33	0x3cc2df76	0.023788195
34	0xbca45ce0	-0.020063818
35	0x3d004caf	0.03132313
36	0x3cfa9e2e	0.030593004
37	0xbaa3cf2b	-0.0012497654
38	0x3ceda3e8	0.02900882
39	0x3cb6b12b	0.022301277
40	0x3cfc7706	0.030818474
41	0xbc1de89b	-0.009637977
42	0xbd22bb13	-0.03972919
43	0xbbe5ea4b	-0.0070164553
44	0x3d264e80	0.040602207
45	0x3cd16770	0.025562018
46	0x3ba14436	0.0049214615
47	0xbce859a0	-0.028363049
48	0x3c103ba0	0.008803278
49	0xbb89c636	-0.004204537
50	0x3d13a5df	0.03604686
51	0x3d2712d2	0.040789433
52	0xbc1f127b	-0.009708996
53	0xbbaacc8b	-0.0052123717
54	0xbc025c36	-0.007956555
55	0xbd03d834	-0.03218861
56	0xbbc6e0f6	-0.006069298
57	0xbcef5636	-0.029215913
58	0x3ce1a8ae	0.027546253
59	0xbcf36343	-0.029710418
60	0xbd01b01f	-0.031662103
61	0x3cb266b3	0.021777486
62	0xbd27112a	-0.040787853
63	0xbcdc649e	-0.026903447
64	0x3d29d0ea	0.041459
65	0xbc16aeb6	-0.009196928
66	0x3d123e5c	0.035704
67	0xbbfc13ab	-0.0076927743
68	0xbb38efc0	-0.0028219074
69	0x3d03351e	0.03203308
70	0x3b5b8b6b	0.0033499848
71	0x3cb75300	0.022378445
72	0xbc8949e8	-0.016758874
73	0xbd08e1ac	-0.033418342
74	0xbc841663	-0.016123956
75	0x3c574edb	0.013141359
76	0xba4c8c00	-0.0007802844
77	0x3ca4c210	0.020112067
78	0xbc072bc0	-0.008250177
79	0xbc4b95d0	-0.012425855
80	0x3cbfc903	0.02341128
81	0xbc8577de	-0.016292509
82	0xbd1ffa0a	-0.039056815
83	0xbbbc7a0b	-0.0057518533
84	0xbc01e546	-0.007928198
85	0x3cb89153	0.022530233
86	0x3cd45ee8	0.025924161
87	0x3cefbf98	0.029266164
88	0x3c74286b	0.0149022145
89	0x3c7a5960	0.015280098
90	0xbac7c3d6	-0.0015240859
91	0xbc9456f8	-0.018107876
92	0x3ba614f6	0.0050684167
93	0x3cfef606	0.031123172
94	0xbc99af60	-0.018760383
95	0x3bc7c7f6	0.0060968352
96	0x3d04012b	0.032227676
97	0xbd26bdf2	-0.04070849
98	0x3c468fe6	0.012119269
99	0xbbdba880	-0.0067034364
100	0x3c5de22b	0.013542692
101	0xbd22bf07	-0.03973296
102	0x3c5cc626	0.013474977
103	0x3c7bb2a6	0.015362417
104	0x3d2795bb	0.04091428
105	0xbcf7b4a8	-0.03023751
106	0xbcf2525b	-0.029580286
107	0x3c03213b	0.008003528
108	0x3d1014db	0.03517614
109	0x3c0cf8eb	0.008604269
110	0xbbfee060	-0.0077782124
111	0x3bce092b	0.006287714
112	0x3cfa0720	0.030520976
113	0xbcc961c0	-0.024582744
114	0x3d1b5317	0.037921038
115	0xbcf1cf36	-0.029517751
116	0x3c8f4130	0.017487139
117	0xbd07fb12	-0.033198424
118	0xbcaf756e	-0.0214183
119	0xbb2f926b	-0.0026790153
120	0xbb687440	-0.003546968
121	0xbd038b7a	-0.032115437
122	0xbcda8f5e	-0.02667969
123	0x3d07c12c	0.033143207
124	0x3d18ba53	0.037287068
125	0x3c370ff6	0.011173239
126	0xbca3f813	-0.020015752
127	0xbcb1b07b	-0.021690598

layer3.1.weight f4 [128]
0	0x3f800005	1.0000006
1	0x3f800016	1.0000026
2	0x3f7fffd3	0.9999973
3	0x3f80001a	1.0000031
4	0x3f7fffff	0.99999994
5	0x3f7fffd7	0.99999756
6	0x3f7fffd9	0.9999977
7	0x3f7fffca	0.9999968
8	0x3f800007	1.0000008
9	0x3f80000a	1.0000012
10	0x3f800026	1.0000045
11	0x3f7fffc1	0.99999624
12	0x3f7fffbd	0.999996
13	0x3f800015	1.0000025
14	0x3f7ffffb	0.9999997
15	0x3f800000	1.0
16	0x3f7fffe0	0.9999981
17	0x3f7ffffb	0.9999997
18	0x3f7ffff6	0.9999994
19	0x3f7fffc5	0.9999965
20	0x3f800018	1.0000029
21	0x3f800022	1.000004
22	0x3f800001	1.0000001
23	0x3f800016	1.0000026
24	0x3f7fffe9	0.9999986
25	0x3f7fffea	0.9999987
26	0x3f800006	1.0000007
27	0x3f80000c	1.0000014
28	0x3f800012	1.0000021
29	0x3f7ffffa	0.99999964
30	0x3f80000c	1.0000014
31	0x3f80000a	1.0000012
32	0x3f7fffbb	0.9999959
33	0x3f7ffffb	0.9999997
34	0x3f80001d	1.0000035
35	0x3f800004	1.0000005
36	0x3f7fffcf	0.9999971
37	0x3f800006	1.0000007
38	0x3f800009	1.0000011
39	0x3f7fffea	0.9999987
40	0x3f7fffe6	0.99999845
41	0x3f800033	1.0000061
42	0x3f80000b	1.0000013
43	0x3f7fff81	0.99999243
44	0x3f800002	1.0000002
45	0x3f7fffce	0.999997
46	0x3f7fffbf	0.9999961
47	0x3f800013	1.0000023
48	0x3f7fffc5	0.9999965
49	0x3f800021	1.0000039
50	0x3f7ffff8	0.9999995
51	0x3f7fffd1	0.9999972
52	0x3f7fff2a	0.99998724
53	0x3f800012	1.0000021
54	0x3f800003	1.0000004
55	0x3f7fffe0	0.9999981
56	0x3f800009	1.0000011
57	0x3f7fffd0	0.99999714
58	0x3f80001c	1.0000033
59	0x3f7fffee	0.9999989
60	0x3f7fffba	0.9999958
61	0x3f7fffef	0.999999
62	0x3f7fffcf	0.9999971
63	0x3f80000c	1.0000014
64	0x3f80001b	1.0000032
65	0x3f7fffbd	0.999996
66	0x3f7fffec	0.9999988
67	0x3f800006	1.0000007
68	0x3f7ffff1	0.9999991
69	0x3f7fffd4	0.9999974
70	0x3f800005	1.0000006
71	0x3f800012	1.0000021
72	0x3f800006	1.0000007
73	0x3f7fffb2	0.99999535
74	0x3f7fffa9	0.9999948
75	0x3f7fffb8	0.9999957
76	0x3f80000f	1.0000018
77	0x3f7fffe4	0.99999833
78	0x3f7fffdd	0.9999979
79	0x3f7fffef	0.999999
80	0x3f800013	1.0000023
81	0x3f800005	1.0000006
82	0x3f7ffff2	0.99999917
83	0x3f800002	1.0000002
84	0x3f80000a	1.0000012
85	0x3f7ffff4	0.9999993
86	0x3f800023	1.0000042
87	0x3f7fffe4	0.99999833
88	0x3f800008	1.000001
89	0x3f800027	1.0000046
90	0x3f7ffff6	0.9999994
91	0x3f800004	1.0000005
92	0x3f80000a	1.0000012
93	0x3f800020	1.0000038
94	0x3f800006	1.0000007
95	0x3f7ffff4	0.9999993
96	0x3f800009	1.0000011
97	0x3f800017	1.0000027
98	0x3f7ffff9	0.9999996
99	0x3f800019	1.000003
100	0x3f7fffda	0.99999774
101	0x3f800028	1.0000048
102	0x3f7fff9d	0.9999941
103	0x3f800009	1.0000011
104	0x3f7fffbf	0.9999961
105	0x3f7ffffe	0.9999999
106	0x3f80000b	1.0000013
107	0x3f800001	1.0000001
108	0x3f7ffff9	0.9999996
109	0x3f7fffdc	0.99999785
110	0x3f800006	1.0000007
111	0x3f800010	1.0000019
112	0x3f800006	1.0000007
113	0x3f7ffff3	0.9999992
114	0x3f800013	1.0000023
115	0x3f800006	1.0000007
116	0x3f80000c	1.0000014
117	0x3f800006	1.0000007
118	0x3f800010	1.0000019
119	0x3f800014	1.0000024
120	0x3f80002b	1.0000051
121	0x3f800000	1.0
122	0x3f800013	1.0000023
123	0x3f80001b	1.0000032
124	0x3f7fffdc	0.99999785
125	0x3f7fffd6	0.9999975
126	0x3f800004	1.0000005
127	0x3f7ffff7	0.99999946

layer3.1.bias f4 [128]
0	0x35f6986f	1.8372792e-06
1	0x359e9b27	1.1817073e-06
2	0xb554838e	-7.916759e-07
3	0x36261140	2.4745968e-06
4	0x33a6989d	7.7577376e-08
5	0xb5225a57	-6.0481165e-07
6	0xb5c3d886	-1.4591649e-06
7	0xb50f3b84	-5.335826e-07
8	0x358683df	1.0022158e-06
9	0x34a7ba41	3.1241692e-07
10	0x35ade07d	1.2954839e-06
11	0xb6010637	-1.9226115e-06
12	0x35e62b95	1.7149019e-06
13	0xb4dd11ac	-4.1177316e-07
14	0x35942355	1.1037142e-06
15	0x35265e36	6.1976914e-07
16	0x35a6993c	1.2412561e-06
17	0x338146bf	6.019899e-08
18	0x3561ad60	8.4071326e-07
19	0xb61ad18d	-2.3069763e-06
20	0x35b57b45	1.3521427e-06
21	0x363f99ab	2.8550664e-06
22	0xb55c1e6e	-8.200067e-07
23	0x35d36f17	1.5753056e-06
24	0xb51736ec	-5.6331805e-07
25	0xb5b3c9bc	-1.3395252e-06
26	0x35f58c32	1.8294725e-06
27	0x3545f1ef	7.374028e-07
28	0xb59708be	-1.1252921e-06
29	0xb5a1aa68	-1.204503e-06
30	0x352b359c	6.3780476e-07
31	0x34b70cb7	3.4095657e-07
32	0xb58db2b4	-1.0557328e-06
33	0xb461a8a9	-2.1016116e-07
34	0xb51acb17	-5.7665005e-07
35	0x355b2be4	8.1647727e-07
36	0xb56aa58c	-8.7412695e-07
37	0x3502a56d	4.86695e-07
38	0x352fc556	6.547974e-07
39	0x351d9a59	5.8711663e-07
40	0xb5aaca2d	-1.2724828e-06
41	0x345c07e4	2.0491967e-07
42	0xb4a0f866	-2.9983056e-07
43	0xb514b231	-5.53936e-07
44	0x3338bfae	4.301517e-08
45	0xb541f6de	-7.225734e-07
46	0xb420fc6f	-1.4992996e-07
47	0x35fbcd06	1.8760627e-06
48	0x34c856c9	3.7316047e-07
49	0x35f68a23	1.8368631e-06
50	0x35a2d3db	1.2131599e-06
51	0xb556e18a	-8.0049415e-07
52	0xb59e87bb	-1.181142e-06
53	0x361852e0	2.2698005e-06
54	0x33e5da93	1.0703402e-07
55	0xb5415132	-7.201626e-07
56	0xb5e1ad09	-1.6814166e-06
57	0xb5c6ed5c	-1.482123e-06
58	0x349a50dd	2.874357e-07
59	0xb52a08dc	-6.334283e-07
60	0xb41f01b0	-1.4808643e-07
61	0xb55aec01	-8.155476e-07
62	0xb5bdd61e	-1.4143914e-06
63	0x3554fdfc	7.934575e-07
64	0xb5387839	-6.872029e-07
65	0xb6221a9d	-2.4155372e-06
66	0x34225166	1.5117038e-07
67	0xb59dcb55	-1.1756589e-06
68	0x3442e266	1.8150021e-07
69	0xb5e8d165	-1.7346289e-06
70	0xb5577984	-8.027057e-07
71	0xb5abd5f4	-1.2802761e-06
72	0x353e914d	7.0991956e-07
73	0x342558f7	1.5399188e-07
74	0xb47c1425	-2.3476657e-07
75	0x340ca58f	1.3098746e-07
76	0x34df9cb8	4.1651015e-07
77	0xb5591d8c	-8.0881796e-07
78	0xb57b895e	-9.370468e-07
79	0xb41ad0db	-1.4418349e-07
80	0xb1eec8b4	-6.949529e-09
81	0x359fa678	1.1894872e-06
82	0xb45762b3	-2.0059342e-07
83	0x35684173	8.6521976e-07
84	0x34c9d4f7	3.759412e-07
85	0x35293a8d	6.304261e-07
86	0x3607499f	2.015942e-06
87	0xb5302477	-6.561817e-07
88	0x342bd31b	1.6002416e-07
89	0x35958ba7	1.1142009e-06
90	0xb39b7292	-7.23859e-08
91	0x3400ce79	1.1996043e-07
92	0xb5e4655c	-1.7016823e-06
93	0x346145b3	2.0980114e-07
94	0x35074617	5.0393413e-07
95	0xb50e413f	-5.299407e-07
96	0xb4146e00	-1.3823592e-07
97	0x35d603c2	1.5945336e-06
98	0xb4d55892	-3.9738785e-07
99	0x33a53e61	7.694758e-08
100	0xb26e70fb	-1.3879112e-08
101	0x359b08d5	1.155097e-06
102	0xb630d033	-2.6347232e-06
103	0xb558fe4a	-8.083631e-07
104	0xb505e5f2	-4.9880975e-07
105	0x35c0d9e6	1.4368532e-06
106	0x35ccd56c	1.5261298e-06
107	0x35567ca4	7.990259e-07
108	0xb4f97be1	-4.6469998e-07
109	0xb5614373	-8.3917183e-07
110	0x35704a7d	8.951536e-07
111	0xb579c760	-9.304986e-07
112	0x35af1a40	1.3046156e-06
113	0xb58668fd	-1.0014334e-06
114	0xb554fefe	-7.9347217e-07
115	0xb3ab6f56	-7.98306e-08
116	0x35466b41	7.3916823e-07
117	0x34210632	1.4996547e-07
118	0x353a7f69	6.9475806e-07
119	0xb52cbf5e	-6.435347e-07
120	0x3435971e	1.6911915e-07
121	0x35948fdb	1.1068727e-06
122	0x339b2f14	7.2263134e-08
123	0xb4011edb	-1.2025286e-07
124	0x346e1835	2.2174284e-07
125	0xb4bf7302	-3.5660202e-07
126	0x34702e17	2.2368509e-07
127	0xb413853b	-1.3738911e-07
