Phase2/Code/Checkpoints/Train/0model.ckpt (torch, 746107 bytes, 22 tensors)

layer1.0.weight f4 [64, 3, 3, 3]
0.13771239 -0.10470382 0.081778735 -0.16916609 0.18056117 -0.08901072 -0.16797669 0.044669423
-0.1588075 0.1044183 -0.0983192 -0.027230434 -0.080610685 0.02489233 -0.0868408 0.16488306
-0.11389468 0.087865524 -0.118506 0.14649127 0.082830295 0.054201875 -0.13184907 -0.1344931
-0.10509132 0.06242041 -0.09506935 -0.015043378 -0.1372754 -0.05715978 -0.098901935 0.034205474
0.12649766 -0.112661995 -0.05443679 -0.09086743 0.0987146 0.18697113 0.08793244 -0.038007136
0.11671587 0.1879606 0.1857684 0.120814905 -0.0630039 0.116718344 0.13116562 -0.1771708
-0.1282227 -0.016493132 -0.061581705 0.06699065 -0.15514217 0.07282472 0.13390747 0.08945932
0.05953975 0.15151654 -0.03140862 -0.044520687 0.10884044 -0.14311928 0.041850623 0.04512254
0.08509902 -0.02754624 -0.1889257 -0.05032928 0.102800265 -0.021283675 -0.03459726 0.026454058
0.058856692 0.10476154 -0.014582971 0.019420454 -0.023353154 0.14869982 -0.059796866 -0.11383513
-0.1532856 0.005364891 0.07774799 0.032172408 0.1055401 0.03246338 -0.13272057 0.098935425
-0.10941823 0.14447765 -0.025649713 0.18831271 0.1196121 -0.17165226 0.028886624 0.010474528
0.04845228 0.16042851 -0.1464066 -0.09889982 -0.109005116 -0.17966565 -0.18957268 0.1519445
-0.07589078 -0.15611292 -0.14096999 -0.13452338 0.10790512 0.12658724 -0.06504632 -0.15685102
-0.13265477 0.14779632 0.08214448 0.18135244 -0.16813844 -0.012309383 -0.0177074 0.106439866
-0.007782846 0.11864094 -0.0052786865 0.16396484 -0.06833392 0.062269453 0.0018876742 0.09687297
-0.1425392 -0.16847838 0.02596822 -0.09630072 -0.12174139 0.12031462 0.10245345 0.005810082
-0.037299752 0.12503798 0.022714108 -0.13217995 0.029632198 0.124537654 -0.046810847 0.08347163
0.1408097 -0.050474823 -0.18127754 0.17986691 -0.16861643 -0.07540371 0.11515655 -0.034653887
-0.010980489 -0.08301778 -0.031735513 0.17501098 0.04286903 -0.13593487 -0.027304225 0.0051240036
-0.15939176 -0.054075267 0.13735399 -0.006504916 0.024080224 0.06688321 -0.11115874 -0.15109685
0.03969068 0.10464538 -0.030810624 0.032595027 0.07074339 0.16773221 -0.18252455 -0.16064796
0.13656783 -0.06509713 -0.17715491 0.028775308 -0.06185886 0.116797194 0.0060590925 0.16510515
0.046906814 0.08494778 0.18379992 0.17743587 -0.1529578 0.056380294 0.14283991 -0.01880601
0.09494161 0.06695375 -0.011578144 -0.13165292 -0.12899804 0.16174494 0.11647084 0.082578294
-0.028783668 -0.16584538 -0.09934194 0.11221871 -0.044262398 -0.15766254 0.0019216315 0.118815705
-0.14410329 -0.18955536 -0.0030165864 -0.19010429 0.11768508 -0.15123034 0.13596366 0.15112218
0.11581453 -0.18256268 0.1805127 -0.07563957 0.16965908 0.09676088 -0.13127644 0.15654273
0.04932569 -0.018746316 -0.032385558 0.18936728 -0.0677999 -0.16793641 -0.1272807 0.018811708
-0.09387842 -0.045584552 0.12714756 0.097305134 0.17976406 0.07970528 0.030683221 -0.047276877
0.041140478 0.10263572 -0.06323815 0.116247326 -0.030111805 -0.13057847 0.105295956 -0.15304647
0.044021282 -0.10737988 0.1813506 0.013359115 -0.09532243 0.1750215 -0.16633539 0.11934131
00000000: 7a04 0d3e f56e d6bd 9c7b a73d e039 2dbe
00000010: 07e5 383e 414b b6bd 1502 2cbe 49f7 363d
00000020: 6f9e 22be 43d9 d53d 945b c9bd 5c12 dfbc
00000030: 3717 a5bd 00eb cb3c 97d9 b1bd 1bd7 283e
00000040: 9d41 e9bd d7f2 b33d 46b3 f2bd cf01 163e
00000050: eea2 a93d c902 5e3d 7103 07be 8fb8 09be
00000060: 1e3a d7bd 8bac 7f3d b8b3 c2bd 8078 76bc
00000070: ec91 0cbe 6020 6abd 198d cabd 0a1b 0c3d
00000080: 9a88 013e 55bb e6bd 1df9 5ebd b418 babd
00000090: e12a ca3d 5c75 3f3e ec15 b43d 5fad 1bbd
000000a0: bb08 ef3d be78 403e 123a 3e3e ce6d f73d
000000b0: 3008 81bd 070a ef3d 4850 063e 436c 35be
000000c0: d04c 03be 9b1c 87bc 193d 7cbd 6532 893d
000000d0: 97dd 1ebe 2025 953d 0a1f 093e 7336 b73d
000000e0: f4df 733d 2727 1b3e 53a6 00bd 535b 36bd
000000f0: bde7 de3d dc8d 12be 8f6b 2b3d 6ad2 383d
00000100: 6548 ae3d a7a8 e1bc bd75 41be 1326 4ebd
00000110: f288 d23d 1a5b aebc dbb5 0dbd 2eb6 d83c
00000120: b713 713d 388d d63d 6aed 6ebc a517 9f3c
00000130: 1d4f bfbc c444 183e 8fed 74bd 6522 e9bd
00000140: e6f6 1cbe f8cb af3b 573a 9f3d 37c7 033d
00000150: 6825 d83d 52f8 043d e7e7 07be a89e ca3d
00000160: aa16 e0bd f3f1 133e 591f d2bc 0cd5 403e
00000170: 30f7 f43d 9cc5 2fbe a4a3 ec3c 5b9d 2b3c
00000180: e675 463d 5f47 243e 9deb 15be fd8b cabd
00000190: 133e dfbd 46fa 37be 571f 42be 5797 1b3e
000001a0: a06c 9bbd 11dc 1fbe 705a 10be 7fc0 09be
000001b0: 5cfd dc3d 16a0 013e 0137 85bd 8e9d 20be
000001c0: a7d6 07be eb57 173e 5d3b a83d 74b4 393e
000001d0: 7c2c 2cbe 4bad 49bc 1c0f 91bc 25fd d93d
000001e0: 3f07 ffbb 05fa f23d d5f8 acbb 66e6 273e
000001f0: a7f2 8bbd 410e 7f3d d66b f73a 5665 c63d
00000200: ccf5 11be 9985 2cbe 4ebb d43c 5039 c5bd
00000210: 8d53 f9bd 8367 f63d 1dd3 d13d 8062 be3b
00000220: a0c7 18bd f509 003e f012 ba3c 2e5a 07be
00000230: 39bf f23c 990d ff3d bbbc 3fbd 2df3 aa3d
00000240: 6b30 103e b0be 4ebd d2a0 39be 082f 383e
00000250: c9a9 2cbe 436d 9abd 33d7 eb3d 3cf1 0dbd
00000260: 82e7 33bc 3a05 aabd 19fd 01bd 1436 333e
00000270: 7097 2f3d 8332 0bbe 1cad dfbc 42e7 a73b
00000280: 9837 23be 077e 5dbd 86a6 0c3e 3127 d5bb
00000290: e443 c53c 10fa 883d 32a7 e3bd 22b9 1abe
000002a0: b292 223d 5150 d63d 9066 fcbc 5d82 053d
000002b0: e9e1 903d fec1 2b3e b7e7 3abe e680 24be
000002c0: 70d8 0b3e a551 85bd 1968 35be 32ba eb3c
000002d0: b75f 7dbd 5e33 ef3d 5a8b c63b 5311 293e
000002e0: 5c21 403d 1af9 ad3d 0c36 3c3e c0b1 353e
000002f0: f8a0 1cbe 06ef 663d a044 123e 100f 9abc
00000300: bf70 c23d 0c1f 893d 41b2 3dbc 06d0 06be
00000310: 1018 04be 77a0 253e 4488 ee3d cf1e a93d
00000320: bacb ebbc 5fd3 29be c973 cbbd ecd2 e53d
00000330: 7d4c 35bd 4a72 21be 41df fb3a a655 f33d
00000340: d08f 13be cd1a 42be ecb1 45bb b3aa 42be
00000350: e004 f13d 20dc 1abe 0f3a 0b3e c6bf 1a3e
00000360: 2b30 ed3d b6f1 3abe 52d8 383e ebe8 9abd
00000370: 1cbb 2d3e 912a c63d 556d 06be bd4c 203e
00000380: bc09 4a3d e091 99bc b8a6 04bd 7fe9 413e
00000390: adda 8abd 86f7 2bbe df55 02be 031b 9a3c
000003a0: 5443 c0bd deb6 3abd f832 023e ea47 c73d
000003b0: 1214 383e 863c a33d 615b fb3c 66a5 41bd
000003c0: eb82 283d ad32 d23d 0183 81bd 1413 ee3d
000003d0: 08ad f6bc 5db6 05be 68a5 d73d 37b8 1cbe
000003e0: a94f 343d fce9 dbbd f9b3 393e 31e0 5a3c
000003f0: 6838 c3bd d638 333e d353 2abe 3769 f43d

layer1.0.bias f4 [64]
-0.14380781 -0.10736294 -0.12325936 0.13633038 -0.07617372 0.15856455 -0.17463842 0.014365015
-0.07874013 0.14785212 -0.14518741 -0.018659722 0.12853345 -0.121898845 0.18441917 0.1620667
0.14492147 -0.043367784 0.041131873 -0.10687194 0.104778565 -0.09972182 0.029906424 -0.14201897
0.090557426 0.1756635 0.14239116 0.008730835 -0.05282347 0.003602261 0.145137 -0.16584677
-0.091219895 0.13906966 -0.15316251 0.08237674 0.023182403 0.084009916 -0.034174856 -0.07379253
0.13204162 -0.13875048 -0.07269745 -0.100016646 0.018553937 -0.0942369 -0.14339536 0.1471121
0.17853111 -0.10064164 -0.1563897 0.11790164 0.066007756 0.10616354 0.18282737 0.15390134
-0.18548353 0.16595876 -0.085156605 -0.18137936 -0.0044075632 -0.124805935 -0.169861 0.14311333
00000000: 5b42 13be 1ae1 dbbd 676f fcbd 319a 0b3e
00000010: f800 9cbd bf5e 223e 6ad4 32be 3d5b 6b3c
00000020: 8142 a1bd 8c66 173e 02ac 14be 46dc 98bc
00000030: 469e 033e 1aa6 f9bd 61d8 3c3e d0f4 253e
00000040: 4b66 143e 6ba2 31bd e579 283d addf dabd
00000050: 2596 d63d f43a ccbd 51fe f43c 6c6d 11be
00000060: 2c76 b93d 22e1 333e fdce 113e c70b 0f3c
00000070: 6c5d 58bd e913 6c3b cb9e 143e bcd3 29be
00000080: 7fd1 babd 4768 0e3e a2d6 1cbe 23b5 a83d
00000090: 06e9 bd3c 640d ac3d effa 0bbd 8a20 97bd
000000a0: eb35 073e 9b14 0ebe 67e2 94bd 87d5 ccbd
000000b0: 6dfe 973c 47ff c0bd 3cd6 12be 8ea4 163e
000000c0: dcd0 363e 341d cebd 9f24 20be 6a76 f13d
000000d0: 132f 873d 456c d93d 1937 3b3e 5098 1d3e
000000e0: 65ef 3dbe 18f1 293e 9666 aebd 83bb 39be
000000f0: 526d 90bb 419a ffbd 0bf0 2dbe 4d8c 123e

layer1.1.weight f4 [64]
0.999931 1.0000188 1.000104 0.9998883 0.99990946 0.999648 1.0002055 1.0001922
0.9997813 0.999916 0.9998638 0.9999834 0.99996144 0.99987155 0.9999976 0.99980736
0.9995986 1.0001959 1.0002583 0.9999671 0.9998392 1.0001928 1.0001556 0.9999242
1.0001767 0.99999875 0.9998723 0.9999846 0.9998905 1.000068 0.99994934 0.9998885
1.0000324 1.000048 0.99987906 0.9997915 1.0001042 0.9998738 1.0003757 1.0000645
1.0001392 0.99987596 0.99989927 1.0000219 1.0000868 0.99994546 0.99983245 1.0000314
1.0001048 1.000169 0.99998784 1.0000746 1.0000886 1.0001287 0.99999464 0.9999136
1.0001901 1.0001088 1.000104 0.9999706 0.999989 1.0000256 0.99998903 1.000119
00000000: 7afb 7f3f 9e00 803f 6803 803f aef8 7f3f
00000010: 11fa 7f3f eee8 7f3f bc06 803f 4c06 803f
00000020: abf1 7f3f 7ffa 7f3f 13f7 7f3f e9fe 7f3f
00000030: 79fd 7f3f 95f7 7f3f d8ff 7f3f 60f3 7f3f
00000040: b2e5 7f3f 6b06 803f 7708 803f d8fd 7f3f
00000050: 76f5 7f3f 5106 803f 1905 803f 08fb 7f3f
00000060: ca05 803f ebff 7f3f a2f7 7f3f fefe 7f3f
00000070: d3f8 7f3f 3a02 803f aefc 7f3f b1f8 7f3f
00000080: 1001 803f 9301 803f 13f8 7f3f 56f2 7f3f
00000090: 6a03 803f bbf7 7f3f 500c 803f 1d02 803f
000000a0: 9004 803f dff7 7f3f 66f9 7f3f b800 803f
000000b0: d802 803f 6dfc 7f3f 05f5 7f3f 0701 803f
000000c0: 6f03 803f 8a05 803f 34ff 7f3f 7202 803f
000000d0: e702 803f 3804 803f a6ff 7f3f 56fa 7f3f
000000e0: 3b06 803f 9103 803f 6803 803f 13fe 7f3f
000000f0: 47ff 7f3f d700 803f 48ff 7f3f e603 803f

layer1.1.bias f4 [64]
-9.5318945e-05 -1.7801101e-06 0.00010806362 -9.583226e-05 -2.4767255e-06 -0.00034244967 0.00016404055 0.00016392021
-0.0002504872 -5.669055e-05 -0.0001811661 9.447716e-05 3.8504764e-05 -9.3057526e-05 -1.7753911e-06 -9.649873e-05
-0.0003808375 0.00016691619 0.000287908 -5.818102e-05 -3.455796e-05 0.00011270627 6.780797e-05 -4.4193002e-05
0.0002477167 1.7990864e-05 1.2933551e-05 6.604558e-05 -1.7123917e-05 -5.307954e-06 4.8180736e-06 -9.814962e-05
1.3285655e-05 3.0213932e-05 6.9869952e-06 -0.00016259616 0.00010948448 -5.2404324e-05 0.00019718571 7.162195e-05
9.5329575e-05 -4.8049344e-05 -4.3537195e-05 4.562671e-05 -6.9862675e-05 -3.884925e-05 -0.00016347194 0.000104916966
1.4275101e-05 9.043012e-05 0.000115302 0.00020980075 5.5627243e-06 9.011171e-05 -2.213631e-05 -1.6327815e-05
0.00014590986 0.00020217407 -2.897405e-05 3.4740926e-05 -3.6425277e-05 -2.5408759e-05 6.3965046e-05 1.932795e-05
00000000: f8e5 c7b8 1eec eeb5 37a0 e238 8ef9 c8b8
00000010: d235 26b6 d18a b3b9 4d02 2c39 ffe1 2b39
00000020: d353 83b9 04c7 6db8 68f7 3db9 0a22 c638
00000030: 2d80 2138 e127 c3b8 f949 eeb5 5c5f cab8
00000040: 25ab c7b9 3906 2f39 5cf2 9639 6507 74b8
00000050: 54f2 10b8 b85c ec38 2034 8e38 e05b 39b8
00000060: f9df 8139 16eb 9637 2efd 5837 f381 8a38
00000070: 55a5 8fb7 fa1a b2b6 f0aa a136 add5 cdb8
00000080: 74e5 5e37 ed73 fd37 d571 ea36 937e 2ab9
00000090: 089b e538 b7cc 5bb8 a3c3 4e39 be33 9638
000000a0: adeb c738 9788 49b8 b59b 36b8 4f5f 3f38
000000b0: 3d83 92b8 11f2 22b8 aa69 2bb9 de06 dc38
000000c0: 187f 6f37 4da5 bd38 4ace f138 f6fd 5b39
000000d0: 70a7 ba36 5bfa bc38 5db1 b9b7 b7f7 88b7
000000e0: 61ff 1839 b0fe 5339 4c0d f3b7 c9b6 1138
000000f0: 58c7 18b8 e524 d5b7 f924 8638 7522 a237

layer1.1.running_mean f4 [64]
-0.37381458 0.047443207 0.002820662 -0.039215542 0.059480995 0.072512195 0.027366662 -0.03101266
0.1686814 0.21963152 0.38648865 0.045257594 -0.24402471 -0.2306681 0.13616925 0.03727013
-0.15633252 -0.36785823 -0.25551736 -0.7050366 0.43460765 -0.08112623 0.16264488 -0.19927526
-0.3250246 0.27445018 0.088806026 0.13679825 -0.17123301 0.2000442 -0.028204348 0.015772358
-0.3862974 0.37626427 -0.15793616 0.3894227 0.35073042 -0.1865295 -0.07728773 0.04916954
-0.22606193 -0.13386318 0.2023416 -0.30423722 0.40341228 0.59731036 0.22118606 0.1285024
0.3135998 -0.13425648 -0.19419315 0.050726995 -0.15976259 0.048648544 0.39330614 0.17585866
-0.14889628 0.15220514 -0.1974665 -0.09452296 -0.08953971 -0.142612 0.002322437 0.09190561
00000000: a064 bfbe cf53 423d dbda 383b 7aa0 20bd
00000010: 58a2 733d 4681 943d 0d30 e03c 430e febc
00000020: d1ba 2c3e 16e7 603e d7e1 c53e 0760 393d
00000030: 9de1 79be 4234 6cbe f46f 0b3e 90a8 183d
00000040: a215 20be ea57 bcbe 2cd3 82be 477d 34bf
00000050: e584 de3e 8225 a6bd 618c 263e d00e 4cbe
00000060: a069 a6be bc84 8c3e efdf b53d d714 0c3e
00000070: b557 2fbe 63d8 4c3e ce0c e7bc 0835 813c
00000080: c6c8 c5be b6a5 c03e 04ba 21be 6a62 c73e
00000090: f092 b33e 9701 3fbe 0849 9ebd 0066 493d
000000a0: c77c 67be 6e13 09be a332 4f3e fbc4 9bbe
000000b0: 0e8c ce3e 55e9 183f 997e 623e 2296 033e
000000c0: 2790 a03e 887a 09be 92da 46be 1cc7 4f3d
000000d0: ce98 23be b243 473d 6c5f c93e 4b14 343e
000000e0: 4478 18be aadb 1b3e a834 4abe 4195 c1bd
000000f0: 9860 b7bd e108 12be 0734 183b 0239 bc3d

layer1.1.running_var f4 [64]
0.015995258 0.009376937 0.012285626 0.023024786 0.0064124344 0.00993643 0.016878366 0.006995148
0.023129197 0.0054664356 0.0776293 0.006240523 0.039249454 0.013811736 0.0035154943 0.006295115
0.025674906 0.026100125 0.035369687 0.0877928 0.031163888 0.012377734 0.0076947846 0.006814436
0.0489207 0.013819788 0.004033881 0.00894192 0.014104279 0.015058999 0.016137123 0.0154616
0.030524973 0.016256928 0.0050571943 0.025822794 0.0484567 0.025358066 0.0051054973 0.008045918
0.03299958 0.00661415 0.023165852 0.019371994 0.04386225 0.1167994 0.036812205 0.0011857768
0.0057876217 0.0044523138 0.018034266 0.006179994 0.013894512 0.0035761553 0.018310653 0.0072426316
0.003880958 0.0055054575 0.0069021555 0.02265225 0.0045656003 0.009128834 0.015251224 0.004105424
00000000: 7d08 833c b9a1 193c a649 493c 7a9e bc3c
00000010: 661f d23b 68cc 223c 8044 8a3c 8e37 e53b
00000020: 7179 bd3c c91f b33b 1cfc 9e3d 4d7d cc3b
00000030: 09c4 203d 9f4a 623c 3564 663b 4147 ce3b
00000040: 2e54 d23c eecf d53c cedf 103d b6cc b33d
00000050: 694b ff3c fbcb 4a3c 8824 fc3b a24b df3b
00000060: 1261 483d 646c 623c a52e 843b 2181 123c
00000070: a215 673c 05ba 763c 0032 843c a752 7d3c
00000080: 820f fa3c 402d 853c d2b6 a53b 538a d33c
00000090: 887a 463d b8bb cf3c 044c a73b 07d3 033c
000000a0: 912a 073d 83bb d83b 50c6 bd3c 04b2 9e3c
000000b0: e7a8 333d 8634 ef3d 65c8 163d 116c 9b3a
000000c0: 17a6 bd3b b7e4 913b 99bc 933c 8c81 ca3b
000000d0: cfa5 633c ee5d 6a3b 3900 963c 9953 ed3b
000000e0: ac57 7e3b 2067 b43b 7a2b e23b 3691 b93c
000000f0: 089b 953b 1b91 153c 45e0 793c cb86 863b

layer2.0.weight f4 [64, 64, 3, 3]
0.026895575 0.026123693 -0.019497879 -0.022851584 0.0043114033 0.023833862 0.034639195 -0.00853879
-0.005584851 0.022055121 -0.02297836 0.029654779 -0.009824407 -0.009178425 0.0054057036 -0.009166051
0.010790446 0.026193226 0.013090719 -0.02352563 -0.016743531 0.036392283 0.014447955 0.008461669
0.006201609 0.02857316 -0.0077746822 0.0012583673 -0.004663929 0.022323532 -0.03095505 0.018543225
-0.036699284 0.03923042 -0.0018008802 -0.023159293 0.010229927 -0.0041278983 -0.014885056 0.037536386
-0.01851993 0.011352725 0.00814972 -0.014532809 0.0038606278 0.0055950764 -0.019970475 -0.028220328
-0.012519963 0.034581006 0.011800215 0.011156615 0.035771377 0.011835589 -0.030403199 0.016374508
0.0061886343 -0.022755584 0.013454527 -0.03844719 0.0129130725 0.00088221877 -0.019907227 0.014592319
0.03479023 -0.001961358 -0.021152673 -0.034931175 -0.030086411 -0.008604942 -0.0016520247 -0.014722449
-0.011869043 -0.041881967 -0.03273256 0.0038829825 0.038056284 0.02610716 -0.021857698 -0.03170024
-0.0108601805 0.03295447 0.018240593 0.010848301 0.012306269 0.005995626 -0.04036627 -0.015749931
-0.021002004 0.014768739 0.010827612 -0.009822631 0.03153323 0.014780133 0.0069906353 0.016158104
0.025855305 0.013714757 0.019749712 0.02264969 -0.031151706 -0.02981345 -0.025028516 0.012875711
0.041015115 0.030406553 0.02801724 -0.010579213 -0.03788757 0.0053215884 -0.04087684 0.014369261
-0.025289737 0.00044296053 -0.013333561 0.014615165 0.011512346 -0.020879017 -0.0010857347 -0.016645933
0.002978405 -0.01677981 -0.026240053 0.0026703512 -0.009234607 -0.03613113 -0.0411407 -0.0077003962
0.010845139 -0.034822077 0.02206564 -0.032361954 -0.02824014 -0.030288048 0.039839536 0.032558724
-0.028401006 0.017579107 0.0140772695 0.021871649 0.0024558005 0.008747226 0.041129205 0.020443257
-0.0073935445 -0.020890225 -0.012294299 0.033347603 0.0074968655 -0.04069779 -0.028337931 -0.001489901
0.022002963 0.016148238 0.014616827 -0.013239465 0.0008458555 -0.036177054 0.008746537 0.0016749986
-0.007304236 -0.03291463 -0.018342175 0.01188605 -0.00028995404 0.0075789886 0.037785355 0.0061130137
-0.018432213 0.011227402 0.028733527 -0.0060305847 0.019982165 0.041284837 -0.0035442568 -0.033961367
-0.025637053 -0.025404122 0.0269844 0.02426984 0.022736974 -0.032773785 -0.011222657 0.014513357
0.018360473 0.0019812086 0.027988298 0.022463515 0.04013486 0.029512309 0.024366252 0.013686146
0.029563304 -0.0031101664 0.01501156 -0.019376507 -0.0151912905 0.026082499 -0.011943607 0.03045859
-0.01578809 -0.036879405 -0.00545236 -0.022439871 -0.039915252 -0.02310064 0.022760727 0.009244137
0.024097215 -0.008675156 -0.023431338 0.039836302 0.001132978 0.027562935 -0.011553726 0.026343947
0.005974055 -0.012292896 -0.0007194261 0.019576896 0.0022797168 -0.005979654 -0.024514249 0.026693586
0.036727857 -0.029106135 0.0018247128 -0.03951036 0.03505823 0.040545944 0.026120225 0.041436393
-0.036482234 -0.0054950994 -0.016309349 -0.027277915 -0.001707176 0.008445437 -0.03471717 -0.0005064352
-0.028748736 0.03802251 0.02930457 0.0014221038 0.0058373907 -0.023081034 0.02605222 0.016482597
-0.01323682 -0.041589737 0.0074032354 0.008870204 0.02011815 0.034996163 -0.019982532 -0.01658959
00000000: 1c54 dc3c 5b01 d63c 04ba 9fbc 3f33 bbbc
00000010: ac46 8d3b 3b3f c33c d4e1 0d3d 48e6 0bbc
00000020: 2001 b7bb f1ac b43c 1d3d bcbc 94ee f23c
00000030: 8df6 20bc 1b61 16bc 5422 b13b 342d 16bc
00000040: 69ca 303c 2d93 d63c 747a 563c d2b8 c0bc
00000050: bb29 89bc 1310 153d 1eb7 6c3c d0a2 0a3c
00000060: de36 cb3b 4212 ea3c c3c2 febb cdef a43a
00000070: dfd3 98bb d7df b63c 7295 fdbc f6e7 973c
00000080: fd51 16bd 14b0 203d 830b ecba 8fb8 bdbc
00000090: 6c9b 273c 5243 87bb 73e0 73bc c1bf 193d
000000a0: 1cb7 97bc c800 3a3c 6786 053c 051b 6ebc
000000b0: 9602 7d3b e756 b73b 1f99 a3bc 512e e7bc
000000c0: 8820 4dbc d0a4 0d3d b055 413c 3cca 363c
000000d0: 0285 123d 0fea 413c 2110 f9bc d523 863c
000000e0: 07ca ca3b eb69 babc 6070 5c3c cd7a 1dbd
000000f0: 5a91 533c b344 673a 7b14 a3bc 9f14 6f3c
00000100: 3380 0e3d 208a 00bb 5f48 adbc fe13 0fbd
00000110: c777 f6bc befb 0cbc c088 d8ba 6d36 71bc
00000120: 6076 42bc 6d8c 2bbd 9412 06bd a379 7e3b
00000130: e8e0 1b3d afde d53c ea0e b3bc 1cd8 01bd
00000140: e6ee 31bc 44fb 063d 4c6d 953c 13bd 313c
00000150: 3ca0 493c f576 c43b 1a57 25bd 0006 81bc
00000160: 650c acbc 95f8 713c 4c66 313c 1aef 20bc
00000170: fd28 013d 5f28 723c b311 e53b 005e 843c
00000180: 81ce d33c dcb3 603c 26ca a13c d88b b93c
00000190: dd31 ffbc 563b f4bc 9a08 cdbc a5f4 523c
000001a0: 77ff 273d 2a17 f93c 6984 e53c 6f54 2dbc
000001b0: ff2f 1bbd b860 ae3b 796e 27bd 0d6d 6b3c
000001c0: 6c2c cfbc 283d e839 0275 5abc 7274 6f3c
000001d0: 479e 3c3c 790a abbc 364f 8eba 0d5d 88bc
000001e0: 5831 433b d075 89bc 61f5 d6bc 0f01 2f3b
000001f0: c04c 17bc 3cfe 13bd 2783 28bd 9b53 fcbb
00000200: cfaf 313c 98a1 0ebd 00c3 b43c f88d 04bd
00000210: de57 e7bc a41e f8bc c82e 233d 4c5c 053d
00000220: 3aa9 e8bc 0f02 903c 59a4 663c 2c2c b33c
00000230: 7ff1 203b 8650 0f3c 1977 283d 9e78 a73c
00000240: 8c45 f2bb fa21 abbc 076e 49bc 7f97 083d
00000250: 44a8 f53b bab2 26bd f324 e8bc c848 c3ba
00000260: 8f3f b43c 4f49 843c 6a7b 6f3c 57ea 58bc
00000270: 67bc 5d3a 642e 14bd a34d 0f3c a08b db3a
00000280: 5f58 efbb 7ed1 06bd 5442 96bc b5bd 423c
00000290: f904 98b9 2a59 f83b d1c4 1a3d ad4f c83b
000002a0: 27ff 96bc 23f3 373c 9362 eb3c 369c c5bb
000002b0: a3b1 a33c 4a1a 293d c346 68bb 131b 0bbd
000002c0: cc04 d2bc 4e1c d0bc 630e dd3c 8bd1 c63c
000002d0: e442 ba3c ce3d 06bd 3cdf 37bc 6ec9 6d3c
000002e0: b468 963c 2ad7 013b b747 e53c 6805 b83c
000002f0: 7364 243d ccc3 f13c bc9b c73c db3b 603c
00000300: be2e f23c efd3 4bbb 0cf3 753c 7bbb 9ebc
00000310: e4e4 78bc f7aa d53c 1eaf 43bc 4b84 f93c
00000320: 0656 81bc dc0e 17bd b6a9 b2bb d2d3 b7bc
00000330: 2d7e 23bd 8e3d bdbc b474 ba3c b974 173c
00000340: 8667 c53c 3e22 0ebc 14f3 bfbc 642b 233d
00000350: 6f80 943a aacb e13c d74b 3dbc 43cf d73c
00000360: 01c2 c33b 2568 49bc de97 3cba ba5f a03c
00000370: 4d67 153b f9f0 c3bb 1bd2 c8bc 82ac da3c
00000380: f36f 163d fd6f eebc 342b ef3a 9ed5 21bd
00000390: 3899 0f3d 8113 263d 15fa d53c 35b9 293d
000003a0: 656e 15bd 3c10 b4bb 2f9b 85bc ef75 dfbc
000003b0: 52c3 dfba bb5e 0a3c 9733 0ebd 4ac2 04ba
000003c0: 7882 ebbc 7ebd 1b3d 2310 f03c e365 ba3a
000003d0: 9547 bf3b 7014 bdbc 776b d53c 8306 873c
000003e0: 3fdf 58bc 005a 2abd d796 f23b 5554 113c
000003f0: d2ce a43c 2358 0f3d 68b2 a3bc e4e6 87bc

layer2.0.bias f4 [64]
0.020335993 0.0056241704 0.041043725 0.0033459864 -0.041157924 -0.006776297 -0.010829249 0.022203442
-0.02159276 0.0020435005 0.03248274 0.032000683 0.038586378 0.015986115 -0.021342117 -0.02414766
0.04096369 0.03114601 0.039432645 0.015670424 -0.02993096 -0.04021859 -0.007886738 -0.027877353
0.0048250235 -0.012799576 -0.006586224 -0.040389255 0.03216262 -0.012388587 -0.00023096526 -0.029549643
-0.02629703 0.014206212 0.030507853 -0.019227354 0.026734194 -0.0322595 -0.012136882 0.03073238
-0.034063265 0.018287849 0.00063617044 -0.038172808 -0.03820032 -0.03838811 -0.009591496 -0.034959987
0.017387405 -0.030846123 0.018028276 0.015673801 -0.036766853 -0.0124933375 -0.037249144 -0.040921938
-0.0053704036 0.003572946 -0.02587831 0.03336635 0.035526197 -0.035241455 -0.032030027 0.015167083
00000000: ab97 a63c f64a b83b 771d 283d 5648 5b3b
00000010: 3695 28bd b30b debb 2a6d 31bc fee3 b53c
00000020: 4de3 b0bc 40ec 053b 9f0c 053d 2613 033d
00000030: c00c 1e3d 50f5 823c aad5 aebc 50d1 c5bc
00000040: 8bc9 273d eb25 ff3c 2084 213d 435f 803c
00000050: c631 f5bc 40bc 24bd 6037 01bc 0c5f e4bc
00000060: 3b1b 9e3b 50b5 51bc 40d1 d7bb 346f 25bd
00000070: f4bc 033d 80f9 4abc 442f 72b9 1812 f2bc
00000080: de6c d7bc 2cc1 683c 9beb f93c af82 9dbc
00000090: ab01 db3c 8a22 04bd c6d9 46bc 79c2 fb3c
000000a0: ec85 0bbd 66d0 953c adc4 263a 175b 1cbd
000000b0: f077 1cbd da3c 1dbd a625 1dbc 3432 0fbd
000000c0: 0870 8e3c 02b1 fcbc 09b0 933c 5866 803c
000000d0: d798 16bd dbb0 4cbc 8f92 18bd c39d 27bd
000000e0: 36fa afbb 1628 6a3b c0fe d3bc 27ab 083d
000000f0: eb83 113d 5859 10bd eb31 03bd 5b7f 783c

layer2.1.weight f4 [64]
0.99982387 0.99980503 1.0000256 0.99988586 1.0001346 1.000198 1.0000832 1.0000582
0.9999602 1.0002252 0.9998052 1.000254 0.9999793 0.9997589 1.0000172 1.0001225
1.0001763 0.99983835 0.9999057 0.99968517 1.000039 1.0002009 1.0001515 0.9999319
1.0000151 0.9999688 1.0001441 1.0001229 0.9999719 1.0000465 1.00023 0.99984646
1.0002095 1.0000179 0.9998383 0.9998552 0.9998408 0.99991 0.9998841 0.99993867
0.99984515 1.0000434 0.9995899 0.9997177 0.9999294 0.999971 1.0001297 0.9998471
1.0002928 1.0001892 1.0001329 0.999991 0.99989855 1.0000197 1.0003738 1.0001495
0.9999606 1.000252 0.9998923 0.9999672 0.99996185 0.99975467 1.0002424 0.9999441
00000000: 75f4 7f3f 39f3 7f3f d700 803f 85f8 7f3f
00000010: 6904 803f 7d06 803f ba02 803f e801 803f
00000020: 64fd 7f3f 6107 803f 3cf3 7f3f 5308 803f
00000030: a5fe 7f3f 33f0 7f3f 9000 803f 0404 803f
00000040: c705 803f 68f5 7f3f d2f9 7f3f 5eeb 7f3f
00000050: 4701 803f 9506 803f f704 803f 89fb 7f3f
00000060: 7f00 803f f5fd 7f3f b904 803f 0704 803f
00000070: 29fe 7f3f 8601 803f 8907 803f f0f5 7f3f
00000080: dd06 803f 9600 803f 67f5 7f3f 83f6 7f3f
00000090: 91f5 7f3f 1afa 7f3f 68f8 7f3f fbfb 7f3f
000000a0: daf5 7f3f 6c01 803f 20e5 7f3f 80ed 7f3f
000000b0: 60fb 7f3f 19fe 7f3f 4004 803f fbf5 7f3f
000000c0: 9809 803f 3306 803f 5b04 803f 69ff 7f3f
000000d0: 5af9 7f3f a500 803f 400c 803f e604 803f
000000e0: 6bfd 7f3f 4208 803f f1f8 7f3f dafd 7f3f
000000f0: 80fd 7f3f ecef 7f3f f107 803f 56fc 7f3f

layer2.1.bias f4 [64]
2.3330288e-06 -7.4995995e-07 8.353727e-07 -0.00012427854 -2.341179e-05 0.0001785266 -4.4519078e-05 9.571069e-05
-6.2281724e-05 0.0001892646 -0.0001428785 0.00020216868 5.130137e-05 -0.00015257527 -8.925134e-06 6.123504e-05
3.5665373e-05 1.95337e-05 -5.0737995e-05 -0.00019853153 3.3008095e-05 0.00013001845 5.096295e-05 7.700868e-05
-7.966418e-07 -2.8801363e-05 -5.2165426e-05 6.8841895e-05 -1.0836644e-05 4.227012e-06 0.00020731906 -0.00011351594
0.00016918615 -1.3674188e-05 -0.0001416066 -0.00013694855 -8.376335e-05 -4.355564e-05 -2.1978225e-05 -0.00013954566
-4.606035e-06 6.448652e-05 -0.0001736834 -5.2697687e-05 -8.3015264e-05 -1.0571213e-05 6.328107e-05 -4.1165593e-05
0.000154998 0.00015037361 1.1758352e-05 4.8277412e-05 -7.891779e-05 5.3310618e-05 5.453021e-05 5.7057212e-05
5.030808e-05 5.0937404e-05 -0.00010078715 -1.990667e-05 -7.923133e-05 -0.00018210862 2.9459567e-05 -4.6477686e-05
00000000: 2191 1c36 db50 49b5 603e 6035 c450 02b9
00000010: 7064 c4b7 df32 3b39 ffb9 3ab8 49b8 c838
00000020: 3f9d 82b8 5475 4639 a8d1 15b9 3efd 5339
00000030: 6d2c 5738 9dfc 1fb9 29bd 15b7 506b 8038
00000040: 6797 1538 4ddc a337 82cf 54b8 e72c 50b9
00000050: 2c72 0a38 9055 0839 0dc1 5538 b87f a138
00000060: cfd8 55b5 759a f1b7 33cc 5ab8 365f 9038
00000070: 08cf 35b7 c2d5 8d36 c963 5939 680f eeb8
00000080: 9067 3139 316a 65b7 3b7c 14b9 d999 0fb9
00000090: 1baa afb8 83af 36b8 e15d b8b7 0153 12b9
000000a0: 8a8d 9ab6 f03c 8738 c81e 36b9 b607 5db8
000000b0: 7b18 aeb8 045b 31b7 c4b5 8438 38a9 2cb8
000000c0: f586 2239 9cad 1d39 bd45 4537 7a7d 4a38
000000d0: aa80 a5b8 d799 5f38 5eb7 6438 b750 6f38
000000e0: e401 5338 9fa5 5538 b05d d3b8 40fd a6b7
000000f0: ff28 a6b8 69f4 3eb9 f01f f737 09f1 42b8

layer2.1.running_mean f4 [64]
0.4071024 0.10361065 -0.040749855 -0.07079618 -0.06698164 -0.09705106 -0.27189678 -0.22734958
0.03761929 -0.30806255 0.2940313 0.3296814 -0.24078003 -0.03260596 0.20743084 0.34444466
-0.014473117 0.0824701 0.0007005891 0.2035732 -0.10528058 -0.101816066 -0.0043825004 0.21003078
-0.14170825 0.3376702 0.11690058 -0.2679065 0.0880464 -0.024679324 0.37049153 0.14464004
0.24960113 0.17226855 0.080318615 -0.40785062 0.19155283 -0.17994595 0.097210884 0.05691608
-0.14567876 0.09245822 0.18872675 -0.038487654 -0.010902637 -0.23614241 -0.016903313 -0.03560157
-0.14445297 -0.31958047 0.07558942 -0.17252511 -0.27249235 -0.09224519 0.21997577 -0.28461722
-0.037830975 0.28808865 -0.4992466 0.32243127 -0.05857896 -0.20620161 0.089911714 -0.009667898
00000000: ba6f d03e d231 d43d 52e9 26bd 96fd 90bd
00000010: ac2d 89bd b5c2 c6bd 0e36 8bbe 54ce 68be
00000020: af16 1a3d 60ba 9dbe 458b 963e 00cc a83e
00000030: 0a8f 76be d48d 05bd c068 543e 0d5b b03e
00000040: a720 6dbc 15e6 a83d bda7 373a 7e75 503e
00000050: 589d d7bd f184 d0bd 149b 8fbb 4f12 573e
00000060: f81b 11be 1ce3 ac3e 9269 ef3d 0a2b 89be
00000070: ac51 b43d 4b2c cabc 11b1 bd3e 851c 143e
00000080: 7097 7f3e 2b67 303e 167e a43d ccd1 d0be
00000090: 6d26 443e c043 38be 8016 c73d d620 693d
000000a0: d02c 15be bc5a bd3d 9641 413e 3ba5 1dbd
000000b0: f9a0 32bc 51cf 71be d178 8abc f4d2 11bd
000000c0: 7beb 13be 0da0 a3be a0ce 9a3d 6caa 30be
000000d0: 1e84 8bbe 0ceb bcbd 5441 613e 59b9 91be
000000e0: a7f4 1abd 5b80 933e 409d ffbe b615 a53e
000000f0: 7ef0 6fbd 8426 53be a223 b83d 1a66 1ebc

layer2.1.running_var f4 [64]
0.07646596 0.113996506 0.08303353 0.22449587 0.086329825 0.1313817 0.09952368 0.08976943
0.06731821 0.103843726 0.22520708 0.11266769 0.14177264 0.23234347 0.16106404 0.09631412
0.039921585 0.05045834 0.15037175 0.14490521 0.07483105 0.066438824 0.057875063 0.097290486
0.047836702 0.08567961 0.06393378 0.12972644 0.0877936 0.06509596 0.1488465 0.07822917
0.1191824 0.07687587 0.06401492 0.07227089 0.24100319 0.117668495 0.07276686 0.07268078
0.058313053 0.2511068 0.07400231 0.09708172 0.07163386 0.06816566 0.109752044 0.08129001
0.07179036 0.06642178 0.064406805 0.11555775 0.06111753 0.16803443 0.068606 0.053673167
0.11371557 0.20997651 0.16399285 0.14385942 0.045242496 0.17916442 0.063967556 0.28633422
00000000: 2f9a 9c3d 0077 e93d 7c0d aa3d 3fe2 653e
00000010: b1cd b03d ed88 063e 12d3 cb3d 09d9 b73d
00000020: 21de 893d 05ac d43d af9c 663e 51be e63d
00000030: d92c 113e 72eb 6d3e f9ed 243e 5640 c53d
00000040: d184 233d 68ad 4e3d 0dfb 193e 0862 143e
00000050: 0641 993d 1411 883d 670e 6d3d 3c40 c73d
00000060: 6bf0 433d cb78 af3d b7ef 823d 02d7 043e
00000070: 22cd b33d 0851 853d 386b 183e 9d36 a03d
00000080: e715 f43d 1971 9d3d 411a 833d c302 943d
00000090: 8ac9 763e 2efc f03d cb06 953d a9d9 943d
000000a0: abd9 6e3d 1291 803e 868e 973d c8d2 c63d
000000b0: c6b4 923d 709a 8b3d aec5 e03d 607b a63d
000000c0: d306 933d 2408 883d b7e7 833d 8ba9 ec3d
000000d0: 6056 7a3d 3811 2c3e 4d81 8c3d 65d8 5b3d
000000e0: b5e3 e83d 1504 573e beed 273e e24f 133e
000000f0: 3250 393d e176 373e 6c01 833d 669a 923e

layer3.0.weight f4 [128, 64, 3, 3]
0.0006798183 -0.007042394 0.00057146297 -0.022354731 0.011990518 0.008517914 0.040492 -0.009215173
-0.036426436 -0.02126509 -0.038414676 -0.0018913556 -0.009747837 -0.013981476 0.016963447 -0.021884982
-0.030564042 -0.003942144 -0.039616756 -0.028102055 0.028255992 0.000507992 -0.02899212 -0.010083193
-0.0275118 0.03836795 -0.015019177 -0.00063538237 0.014409498 0.00049000815 -0.014854542 0.019199772
0.037104107 0.010160743 0.0058918013 0.013589494 0.026515286 -0.023486674 0.026412614 0.019556412
-0.04084276 0.022321241 0.03283857 -0.016997632 0.017703392 -0.027931659 0.031047788 0.023050567
0.027789637 0.02192848 0.0122413 -0.021146392 -0.006225969 0.015641836 0.040917505 -0.0064563844
-0.010012364 0.025705697 -0.032975744 0.013637847 -0.0053279805 -0.006536248 0.014531034 0.035781134
-0.030659284 0.018787272 -0.01308959 0.01294046 0.023202175 0.0035992602 0.029586427 -0.025163503
0.027200328 0.012618309 -0.032958373 -0.015578643 0.011075857 -0.040923532 -0.0074881646 -0.025220636
-0.022047887 0.031171754 0.020860435 0.038423155 0.014349181 -0.0063353223 0.012416999 0.007871777
-0.023495732 -0.034577325 0.021329284 0.010235299 0.029506274 0.03969391 -0.035769336 -0.022382589
0.0225196 0.01642761 -0.027861657 -0.028208746 0.0005048374 0.03476934 0.026252072 0.018121867
-0.007605905 0.004588432 0.034095295 -0.03057097 -0.0006949229 0.017214952 -0.016975041 0.027945627
0.033612598 0.026445834 0.004260802 -0.041622184 0.03961047 0.03803984 0.03178357 0.009801398
0.0074612093 0.03615357 0.0367808 -0.014343668 0.029936573 0.007721594 0.014710594 -0.021120436
-0.0037494374 0.039345805 -0.040538594 -0.03498969 0.03328498 0.021252818 -0.021411145 -0.04165908
-0.02746617 -0.0027927211 0.024865277 0.012831872 -0.019515 -0.022431308 -0.022477753 -0.026710901
-0.016656617 -0.021561004 0.011447444 0.035387173 -0.03464845 0.0050529023 0.004748326 -0.021937884
0.029165098 0.017618677 -0.00031800297 -0.0040187854 0.009832257 0.025002107 -0.022519886 0.016605506
0.03273989 -0.0017378721 -0.0010572545 -0.025316574 0.0088347355 0.021179339 -0.036430422 -0.02840732
0.035507172 0.038759433 0.011321916 -0.012982598 -0.020583358 -0.032493573 -0.04123981 0.03313932
-0.0077850246 0.008261139 -0.010136813 -0.019344434 0.036940567 -0.019838369 -0.040811483 0.008104784
-0.020845557 0.001448923 0.023028383 0.00840025 0.020884728 -0.03614433 0.029472878 -0.0022484483
0.030302903 0.038071238 0.036060676 0.0029258071 0.026286602 -0.005758511 -0.020085452 -0.036810033
-0.0009823345 0.0072047426 -0.01878529 0.028610995 -0.02079305 -0.017203502 -0.02216317 -0.00698513
0.001918329 -0.017474817 -0.008278239 0.033960875 0.01927698 0.034142114 0.01848011 0.015059593
0.0057785558 0.03303575 0.04019008 0.01401638 -0.019167544 0.034538526 0.029888721 0.017308807
0.040829934 0.01968176 -0.030406218 0.005790781 -0.01346996 0.032342575 -0.040248964 -0.0005625625
-0.031439576 -0.015416475 -0.02299542 -0.038426857 -0.019890856 -0.009211193 0.02622086 0.026872411
0.037808083 -0.017234512 0.02817155 -0.016674556 0.025740199 0.0203812 -0.0030488844 0.036709104
0.0076570287 0.03739011 -0.024573842 0.009231007 -0.039886285 -0.025789881 -0.03460874 0.013837643
00000000: d535 323a e2c3 e6bb 3bce 153a 4521 b7bc
00000010: e173 443c b98e 0b3c f0da 253d 3dfb 16bc
00000020: e333 15bd 2034 aebc b558 1dbd 5de7 f7ba
00000030: 64b5 1fbc 9012 65bc edf6 8a3c 2248 b3bc
00000040: 7161 fabc 1a2d 81bb 2e45 22bd 4836 e6bc
00000050: 1c79 e73c c42a 053a e280 edbc fa33 25bc
00000060: 6d60 e1bc b627 1d3d ff12 76bc ca8f 26ba
00000070: d115 6c3c e473 003a 7760 73bc d748 9d3c
00000080: 7afa 173d 3f79 263c 0310 c13b 78a6 5e3c
00000090: 9636 d93c 2067 c0bc 445f d83c c534 a03c
000000a0: bd4a 27bd 09db b63c bd81 063d 9e3e 8bbc
000000b0: b406 913c efd0 e4bc ee57 fe3c 8bd4 bc3c
000000c0: 18a7 e33c 5ba3 b33c bc8f 483c 333b adbc
000000d0: 3703 ccbb 4f23 803c 1d99 273d 1490 d3bb
000000e0: e60a 24bc c194 d23c 9311 07bd 4771 5f3c
000000f0: 5796 aebb 062e d6bb 9313 6e3c 3d8f 123d
00000100: 2e29 fbbc c4e7 993c b875 56bc 3904 543c
00000110: 7d12 be3c 91e1 6b3b 3c5f f23c b123 cebc
00000120: 39d3 de3c 06bd 4e3c 5cff 06bd 913d 7fbc
00000130: 8377 353c 6f9f 27bd 475f f5bb 829b cebc
00000140: c59d b4bc e85b ff3c 81e3 aa3c 9961 1d3d
00000150: d418 6b3c 8998 cfbb ab70 4b3c a0f8 003c
00000160: 1f7a c0bc f4a0 0dbd c0ba ae3c f5b1 273c
00000170: 24b7 f13c 1596 223d de82 12bd b15b b7bc
00000180: 067b b83c 3293 863c 213e e4bc 0716 e7bc
00000190: 1057 043a 4c6a 0e3d 960e d73c 4f74 943c
000001a0: f53a f9bb 8f5a 963b 82a7 0b3d f96f fabc
000001b0: 7d2b 36ba 5f06 8d3c 3e0f 8bbc 3aee e43c
000001c0: 5dad 093d efa4 d83c 339e 8b3b 067c 2abd
000001d0: 973e 223d aacf 1b3d 7d2f 023d 0b96 203c
000001e0: 297d f43b c415 143d 77a7 163d b401 6bbc
000001f0: 8b3d f53c 6d05 fd3b b404 713c c404 adbc
00000200: 1fb9 75bb 1129 213d cc0b 26bd 5951 0fbd
00000210: d555 083d 641a ae3c 6d66 afbc b6a2 2abd
00000220: bc00 e1bc 1606 37bb 44b2 cb3c c63c 523c
00000230: ecdd 9fbc ddc1 b7bc 4423 b8bc d2d0 dabc
00000240: 7573 88bc b4a0 b0bc 0f8e 3b3c 24f2 103d
00000250: 88eb 0dbd d192 a53b d897 9b3b 14b7 b3bc
00000260: a5eb ee3c 0b55 903c a3b9 a6b9 04b0 83bb
00000270: 7a17 213c 38d1 cc3c a07b b8bc 4508 883c
00000280: 431a 063d 50c9 e3ba 9393 8aba b464 cfbc
00000290: 91bf 103c 4b80 ad3c 1138 15bd 78b6 e8bc
000002a0: f86f 113d 36c2 1e3d 8f7f 393c f6b4 54bc
000002b0: 6e9e a8bc fb17 05bd 13eb 28bd 18bd 073d
000002c0: 8519 ffbb ba59 073c e014 26bc 3878 9ebc
000002d0: fe4e 173d 1384 a2bc f129 27bd eec9 043c
000002e0: 4dc4 aabc cae9 bd3a 05a6 bc3c 34a1 093c
000002f0: 7316 ab3c 140c 14bd 1b71 f13c b45a 13bb
00000300: cb3d f83c 96f0 1b3d 5cb4 133d e6be 3f3b
00000310: 0057 d73c e4b1 bcbb 3f8a a4bc 1ec6 16bd
00000320: adc1 80ba c315 ec3b 9ce3 99bc 9b61 ea3c
00000330: 3056 aabc 5cee 8cbc 898f b5bc 84e3 e4bb
00000340: 7170 fb3a 5927 8fbc 73a1 07bc 8f1a 0b3d
00000350: c2ea 9d3c 9ad8 0b3d 9a63 973c 83bc 763c
00000360: 0a5a bd3b 7f50 073d 5a9e 243d f5a4 653c
00000370: 4105 9dbc 4578 0d3d 31d9 f43c 33cb 8d3c
00000380: 4a3d 273d a43b a13c 7616 f9bc 98c0 bd3b
00000390: 1bb1 5cbc a679 043d 19dc 24bd ee78 13ba
000003a0: c9c6 00bd 6295 7cbc e460 bcbc 7b65 1dbd
000003b0: 26f2 a2bc 8bea 16bc 21cd d63c 8823 dc3c
000003c0: a6dc 1a3d 642f 8dbc 06c8 e63c 1499 88bc
000003d0: 1cdd d23c 79f6 a63c cbcf 47bb 495c 163d
000003e0: d0e7 fa3b 5f26 193d 154f c9bc a63d 173c
000003f0: cd5f 23bd 4d45 d3bc e5c1 0dbd 48b7 623c

layer3.0.bias f4 [128]
-0.015464902 -0.0045457436 -0.0077445507 0.017044019 -0.01866959 0.010320058 0.03248873 0.030868467
0.0017549694 0.018968284 0.025262332 -0.014023582 0.0314484 0.008843343 0.020901501 0.020675605
-0.0018903216 0.004860719 -0.040324003 -0.038396996 -0.014459595 -0.03677073 0.00047914198 0.012127757
-0.018461844 -0.03768967 -0.040623166 0.035930723 -0.026904022 -0.03510841 -0.01251114 -0.038528867
0.017889768 0.023788195 -0.020063818 0.03132313 0.030593004 -0.0012497654 0.02900882 0.022301277
0.030818474 -0.009637977 -0.03972919 -0.0070164553 0.040602207 0.025562018 0.0049214615 -0.028363049
0.008803278 -0.004204537 0.03604686 0.040789433 -0.009708996 -0.0052123717 -0.007956555 -0.03218861
-0.006069298 -0.029215913 0.027546253 -0.029710418 -0.031662103 0.021777486 -0.040787853 -0.026903447
0.041459 -0.009196928 0.035704 -0.0076927743 -0.0028219074 0.03203308 0.0033499848 0.022378445
-0.016758874 -0.033418342 -0.016123956 0.013141359 -0.0007802844 0.020112067 -0.008250177 -0.012425855
0.02341128 -0.016292509 -0.039056815 -0.0057518533 -0.007928198 0.022530233 0.025924161 0.029266164
0.0149022145 0.015280098 -0.0015240859 -0.018107876 0.0050684167 0.031123172 -0.018760383 0.0060968352
0.032227676 -0.04070849 0.012119269 -0.0067034364 0.013542692 -0.03973296 0.013474977 0.015362417
0.04091428 -0.03023751 -0.029580286 0.008003528 0.03517614 0.008604269 -0.0077782124 0.006287714
0.030520976 -0.024582744 0.037921038 -0.029517751 0.017487139 -0.033198424 -0.0214183 -0.0026790153
-0.003546968 -0.032115437 -0.02667969 0.033143207 0.037287068 0.011173239 -0.020015752 -0.021690598
00000000: 8060 7dbc 76f4 94bb 00c6 fdbb e69f 8b3c
00000010: f8f0 98bc 7615 293c e712 053d dedf fc3c
00000020: 0007 e63a 6063 9b3c f3f2 ce3c 2bc3 65bc
00000030: 0ad0 003d abe3 103c a039 ab3c e35f a93c
00000040: abc4 f7ba ab46 9f3b c82a 25bd 2b46 1dbd
00000050: f0e7 6cbc e89c 16bd 5935 fb39 80b3 463c
00000060: 4b3d 97bc 7c60 1abd 7a64 26bd 182c 133d
00000070: d365 dcbc d6cd 0fbd 86fb 4cbc 72d0 1dbd
00000080: 908d 923c 76df c23c e05c a4bc af4c 003d
00000090: 2e9e fa3c 2bcf a3ba e8a3 ed3c 2bb1 b63c
000000a0: 0677 fc3c 9be8 1dbc 13bb 22bd 4bea e5bb
000000b0: 804e 263d 7067 d13c 3644 a13b a059 e8bc
000000c0: a03b 103c 36c6 89bb dfa5 133d d212 273d
000000d0: 7b12 1fbc 8bcc aabb 365c 02bc 34d8 03bd
000000e0: f6e0 c6bb 3656 efbc aea8 e13c 4363 f3bc
000000f0: 1fb0 01bd b366 b23c 2a11 27bd 9e64 dcbc
00000100: ead0 293d b6ae 16bc 5c3e 123d ab13 fcbb
00000110: c0ef 38bb 1e35 033d 6b8b 5b3b 0053 b73c
00000120: e849 89bc ace1 08bd 6316 84bc db4e 573c
00000130: 008c 4cba 10c2 a43c c02b 07bc d095 4bbc
00000140: 03c9 bf3c de77 85bc 0afa 1fbd 0b7a bcbb
00000150: 46e5 01bc 5391 b83c e85e d43c 98bf ef3c
00000160: 6b28 743c 6059 7a3c d6c3 c7ba f856 94bc
00000170: f614 a63b 06f6 fe3c 60af 99bc f6c7 c73b
00000180: 2b01 043d f2bd 26bd e68f 463c 80a8 dbbb
00000190: 2be2 5d3c 07bf 22bd 26c6 5c3c a6b2 7b3c
000001a0: bb95 273d a8b4 f7bc 5b52 f2bc 3b21 033c
000001b0: db14 103d ebf8 0c3c 60e0 febb 2b09 ce3b
000001c0: 2007 fa3c c061 c9bc 1753 1b3d 36cf f1bc
000001d0: 3041 8f3c 12fb 07bd 6e75 afbc 6b92 2fbb
000001e0: 4074 68bb 7a8b 03bd 5e8f dabc 2cc1 073d
000001f0: 53ba 183d f60f 373c 13f8 a3bc 7bb0 b1bc

layer3.1.weight f4 [128]
1.0000228 1.0001299 1.0000774 1.0000143 0.9999698 0.9997871 1.0000951 1.0000415
0.9999919 1.0001819 1.0002759 0.99989015 0.99988383 1.0002267 0.99994886 0.999934
0.99993414 1.0001026 1.0000306 0.99986327 1.0001934 1.0001293 1.000108 1.0000463
0.9999911 0.9999246 1.000241 1.0001202 1.0000525 1.0001404 1.000075 1.0000972
0.99987274 0.99985677 1.0003095 1.0000416 0.99981576 1.0002035 1.0000452 0.99996024
1.0000112 1.0004063 1.0000348 0.99958724 1.0002017 0.9999575 0.9998425 1.0000898
0.99971366 1.0001885 1.0000006 0.9999902 0.9994732 0.99997413 0.9999237 1.0000515
1.0003167 0.9999998 1.0002698 1.0001405 0.999885 1.0000257 0.99984086 0.99985677
1.0003787 1.0000345 1.0001167 1.0000381 0.99994695 0.9999861 1.0001781 1.0002265
1.0000395 0.9998331 0.9997696 0.999845 0.9999487 0.9999141 0.9999232 0.9999769
1.0001457 1.0000509 1.0000973 1.0000664 0.9999854 1.0000057 1.0001308 1.000139
0.9999548 1.0002223 0.9999599 1.0000403 1.0003122 1.0002149 1.0001422 1.0000232
1.000186 1.0000397 1.0000077 1.0003155 0.99985945 1.000052 0.9998369 1.00006
1.0000199 0.9997329 0.999958 1.0000949 0.9999978 0.9999045 0.9999842 1.000284
1.000119 1.0000482 1.0002675 0.99991566 1.0001246 1.000023 1.0000236 1.0002954
1.0003833 1.0000285 1.0002617 1.0001601 0.9999038 0.99999166 0.9999316 0.99986047
00000000: bf00 803f 4204 803f 8902 803f 7800 803f
00000010: 05fe 7f3f 0cf2 7f3f 1e03 803f 5c01 803f
00000020: 78ff 7f3f f605 803f 0a09 803f cdf8 7f3f
00000030: 63f8 7f3f 6e07 803f a6fc 7f3f adfb 7f3f
00000040: affb 7f3f 5d03 803f 0101 803f 0af7 7f3f
00000050: 5606 803f 3d04 803f 8a03 803f 8401 803f
00000060: 6bff 7f3f 0ffb 7f3f e607 803f f003 803f
00000070: b801 803f 9a04 803f 7502 803f 2f03 803f
00000080: a9f7 7f3f 9df6 7f3f 240a 803f 5d01 803f
00000090: edf3 7f3f ab06 803f 7b01 803f 65fd 7f3f
000000a0: 5e00 803f 500d 803f 2401 803f f3e4 7f3f
000000b0: 9c06 803f 37fd 7f3f aef5 7f3f f102 803f
000000c0: 3ced 7f3f 2d06 803f 0500 803f 5cff 7f3f
000000d0: 7add 7f3f 4efe 7f3f 00fb 7f3f b001 803f
000000e0: 610a 803f fdff 7f3f d708 803f 9b04 803f
000000f0: 77f8 7f3f d800 803f 92f5 7f3f 9df6 7f3f
00000100: 690c 803f 2101 803f d303 803f 4001 803f
00000110: 86fc 7f3f 17ff 7f3f d605 803f 6c07 803f
00000120: 4b01 803f 10f5 7f3f e7f0 7f3f d8f5 7f3f
00000130: a3fc 7f3f 5ffa 7f3f f8fa 7f3f 7cfe 7f3f
00000140: c604 803f ab01 803f 3003 803f 2d02 803f
00000150: 0bff 7f3f 3000 803f 4904 803f 8e04 803f
00000160: 0afd 7f3f 4907 803f 5ffd 7f3f 5201 803f
00000170: 3b0a 803f 0b07 803f a904 803f c300 803f
00000180: 1806 803f 4d01 803f 4100 803f 570a 803f
00000190: caf6 7f3f b401 803f 50f5 7f3f f701 803f
000001a0: a700 803f 7fee 7f3f 3ffd 7f3f 1c03 803f
000001b0: dbff 7f3f bef9 7f3f f7fe 7f3f 4e09 803f
000001c0: e603 803f 9401 803f c408 803f 79fa 7f3f
000001d0: 1504 803f c100 803f c600 803f ae09 803f
000001e0: 8f0c 803f ef00 803f 9308 803f 3f05 803f
000001f0: b2f9 7f3f 74ff 7f3f 84fb 7f3f dbf6 7f3f

layer3.1.bias f4 [128]
0.00010787178 1.7994707e-05 1.7592609e-05 0.00010465469 -1.9635328e-05 -0.00010258639 -1.6030255e-05 3.318404e-05
2.6674175e-05 2.4833886e-05 0.00011765208 -9.4652474e-05 8.356208e-05 2.4686733e-05 7.501189e-05 1.0772654e-06
4.4533357e-05 1.434168e-05 3.383178e-05 -0.00017944368 0.00010973744 0.000120163706 -1.732097e-05 3.0615527e-05
-3.590054e-05 -8.904916e-05 0.00015724803 6.50586e-05 -0.00010635181 -2.9971217e-05 4.0052946e-05 4.509425e-05
-9.352191e-05 -8.043907e-06 3.263402e-06 7.350117e-05 -5.904837e-05 2.0920963e-05 -1.6147857e-05 5.1279534e-05
-4.8682192e-05 -3.624863e-05 -2.7914302e-05 -2.0650798e-05 2.7453061e-06 -2.7321612e-05 9.613814e-06 7.617286e-05
-4.5885503e-05 7.806864e-05 6.6576395e-05 -3.4828332e-05 6.8965987e-06 3.2334596e-05 -3.270783e-05 2.1284245e-06
-9.8967525e-05 -5.255865e-05 7.850862e-06 5.0024253e-05 4.9231157e-06 -2.0796497e-05 -6.855186e-05 -1.2358454e-05
1.1710365e-05 -5.7207424e-05 5.8112324e-05 -9.4602234e-05 -1.49754305e-05 -9.568344e-05 -4.5535584e-05 -7.255546e-05
1.977153e-05 2.6103215e-05 -1.0274755e-05 8.206733e-07 -4.9677412e-05 -4.582444e-05 -8.4534995e-06 -1.6438022e-05
-1.5706968e-05 2.9903562e-05 1.0756573e-05 5.8667436e-05 -5.1276485e-05 3.0293228e-05 5.004493e-05 3.129636e-05
-2.364213e-05 2.3915802e-05 -9.66126e-06 2.4280318e-06 -4.049359e-05 -8.82655e-06 4.1722724e-05 -3.6491692e-05
-1.1074928e-06 7.296968e-05 -4.4644614e-05 6.8955334e-05 -2.9988205e-05 -9.259794e-06 -9.55622e-05 -8.214169e-05
2.7105581e-05 3.2883097e-05 5.157858e-06 1.3716568e-05 -1.02379945e-05 -2.7905897e-05 2.3042794e-05 -6.129752e-05
0.00010552013 -2.0119629e-05 -2.3600645e-05 -3.9173785e-05 6.730459e-05 3.91292e-06 -1.202957e-05 -3.9493894e-05
-1.2037204e-05 7.008562e-05 4.9880502e-05 -4.131751e-05 7.33851e-06 4.6821136e-05 -4.005631e-05 -5.282996e-05
00000000: 3939 e238 57f3 9637 d793 9337 0f7a db38
00000010: 8cb6 a4b7 a623 d7b8 b678 86b7 172f 0b38
00000020: 5bc2 df37 5d52 d037 fbbb f638 2980 c6b8
00000030: 0d3e af38 5b16 cf37 b44f 9d38 8f96 9035
00000040: 54c9 3a38 0c9d 7037 99e6 0d38 0c29 3cb9
00000050: d722 e638 6600 fc38 804c 91b7 2c69 0038
00000060: e993 16b8 e7bf bab8 f2e2 2439 1270 8838
00000070: 3109 dfb8 b36a fbb7 86fe 2738 9523 3d38
00000080: 3121 c4b8 51f4 06b7 d200 5b36 a424 9a38
00000090: b4aa 77b8 6d7f af37 4275 87b7 fb14 5738
000000a0: 1b30 4cb8 ac09 18b8 8229 eab7 403b adb7
000000b0: 003c 3836 b730 e5b7 044b 2137 febe 9f38
000000c0: 2f75 40b8 c8b8 a338 ee9e 8b38 a314 12b8
000000d0: 5569 e736 029f 0738 c42f 09b8 0ed6 0e36
000000e0: c98c cfb8 6c72 5cb8 32b7 0337 22d1 5138
000000f0: 3e31 a536 2374 aeb7 80c3 8fb8 2857 4fb7
00000100: a277 4437 01f2 6fb8 a2bd 7338 3065 c6b8
00000110: fc3e 7bb7 a8a9 c8b8 76fd 3eb8 ea28 98b8
00000120: 0adb a537 3af8 da37 bd61 2cb7 3d4c 5c35
00000130: b75c 50b8 9e33 40b8 81d3 0db7 62e4 89b7
00000140: 75c2 83b7 69d9 fa37 2177 3437 ae11 7638
00000150: b511 57b8 361e fe37 56e7 5138 3644 0338
00000160: 1653 c6b7 cb9e c837 cc16 22b7 45f1 2236
00000170: a9d7 29b8 be15 14b7 6fff 2e38 a80e 19b8
00000180: 2aa5 94b5 4c07 9938 ca40 3bb8 1d9c 9038
00000190: 2e8f fbb7 835a 1bb7 9168 c8b8 7c43 acb8
000001a0: cb60 e337 f5eb 0938 aa11 ad36 3620 6637
000001b0: dac3 2bb7 7517 eab7 064c c137 db8c 80b8
000001c0: b04a dd38 93c6 a8b7 00fa c5b7 884e 24b8
000001d0: e025 8d38 ba4b 8336 9cd2 49b7 3fa6 25b8
000001e0: 66f3 49b7 eefa 9238 c836 5138 574c 2db8
000001f0: 523d f636 d061 4438 2302 28b8 bd95 5db8

layer3.1.running_mean f4 [128]
0.11416744 0.37429303 0.20014605 0.13192058 0.102674365 -0.24901323 -0.06495515 0.25036675
-0.15261146 0.30452394 0.02798237 -0.27150315 0.4707902 0.14251024 0.5256703 -0.42040923
-0.27838892 0.09388674 -0.22354865 0.577826 0.015275647 -0.33392623 -0.33627868 0.10233364
-0.02923518 0.20456912 -0.39174062 0.038962565 0.28731975 -0.27025002 -0.006268319 -0.6729969
0.44554123 -0.24665156 0.37033537 0.037883885 -0.20494632 0.87150234 0.094049156 -0.16669981
0.0397645 0.08683801 -0.2002152 0.40010688 0.36219248 -0.29133728 0.0972249 0.20268597
0.37108535 -0.036615383 0.06496277 0.002256114 0.4427464 0.2386886 0.065744415 -0.27039644
0.10398564 0.08744245 -0.06327557 -0.041379813 0.37414488 0.30304524 0.2626171 0.68891186
0.12405314 -0.00952038 0.1315641 0.14714226 -0.7458918 -0.14310163 0.11670624 0.12293191
-0.36410728 -1.0412995 0.76887596 -0.50164485 0.47766092 -0.022167584 -0.81152606 0.21823235
0.19593005 -0.45752308 0.63104784 -0.7184711 -0.60749257 0.15616503 0.1562241 -0.2613592
0.32743162 0.22194156 -0.26434472 -0.42232317 -0.053476397 0.18683283 -0.38291812 0.060916454
-0.0973215 0.12900454 -0.5190042 -0.2670801 0.3512499 0.15191455 -0.04142795 0.6314695
0.501765 0.23030493 -0.33907738 0.19205382 -0.0402543 0.35250047 -0.09212444 0.06376661
0.47747144 0.028089607 0.4545603 -0.33623385 -0.57447743 -0.09016892 -0.09046373 0.20032476
-0.3496014 0.057316653 0.15809536 0.89196485 -0.064498164 -0.7024164 -0.11402878 0.065622814
00000000: 9ed0 e93d 56a3 bf3e 16f3 4c3e 3016 073e
00000010: f046 d23d 53fd 7ebe 3507 85bd 1230 803e
00000020: 2e46 1cbe 90ea 9b3e 493b e53c 7602 8bbe
00000030: 6a0b f13e 34ee 113e 5492 063f e13f d7be
00000040: fe88 8ebe b147 c03d f0e9 64be 68ec 133f
00000050: b546 7a3c 61f8 aabe b82c acbe 4d94 d13d
00000060: 9e7e efbc 917a 513e 3a92 c8be 3697 1f3d
00000070: 931b 933e 365e 8abe 7966 cdbb 8649 2cbf
00000080: fb1d e43e 3a92 7cbe 999c bd3e 222c 1b3d
00000090: 73dd 51be c71a 5f3f d89c c03d 5bb3 2abe
000000a0: 1ae0 223d 20d8 b13d 3705 4dbe cfda cc3e
000000b0: 4b71 b93e 292a 95be d91d c73d e98c 4f3e
000000c0: e6fe bd3e 03fa 15bd 330b 853d 50db 133b
000000d0: a8af e23e c96a 743e 02a5 863d 6771 8abe
000000e0: 6cf6 d43d 0715 b33d 9f96 81bd e17d 29bd
000000f0: eb8f bf3e bf28 9b3e c075 863e 875c 303f
00000100: 930f fe3d 5efb 1bbc bdb8 063e 76ac 163e
00000110: c4f2 3ebf 3c89 12be ae03 ef3d bac3 fb3d
00000120: 456c babe 4d49 85bf 0ed5 443f cc6b 00bf
00000130: f98f f43e cb98 b5bc 2cc0 4fbf 4d78 5f3e
00000140: e3a1 483e 7740 eabe 5a8c 213f b9ed 37bf
00000150: a284 1bbf bae9 1f3e 36f9 1f3e e0d0 85be
00000160: 1ea5 a73e a644 633e 3158 87be be3a d8be
00000170: 110a 5bbd 1b51 3f3e d80d c4be 8883 793d
00000180: 7f50 c7bd c419 043e 76dd 04bf b9be 88be
00000190: 07d7 b33e 7d8f 1b3e 5bb0 29bd fca7 213f
000001a0: ac73 003f 0ed5 6b3e 8d9b adbe c2a9 443e
000001b0: b1e1 24bd f17a b43e bdab bcbd 1298 823d
000001c0: 2377 f43e 2d1c e63c 21bc e83e d826 acbe
000001d0: f410 13bf 7caa b8bd 0c45 b9bd ef21 4d3e
000001e0: f4fe b2be dec4 6a3d c0e3 213e cf57 643f
000001f0: 9d17 84bd 90d1 33bf ec87 e9bd 4165 863d
