Phase2/Code/Checkpoints/DenseNet/1199model.ckpt (torch, 374617 bytes, 236 tensors)

conv1.weight f4 [12, 3, 1, 1]
0.535846 -0.0316257 -0.18982245 -0.34574822 0.51709723 0.41135156 -0.2149586 1.3033737
-1.1867318 0.24732009 0.7232629 -0.69273204 0.33204412 -0.5624794 -0.41763133 -0.5071406
-0.60611165 0.65905833 -0.722302 -0.06010078 0.77949804 -1.0066661 1.2380658 -0.16524516
0.5983026 -0.23312566 -0.6747336 -0.33233675 -0.16822891 -0.39996544 -0.19851683 0.30650902
-0.6609464 0.80279875 -0.9190717 0.14740133
00000000: 342d 093f f389 01bd d160 42be e905 b1be
00000010: 7c60 043f ac9c d23e 1b1e 5cbe f3d4 a63f
00000020: d4e6 97bf 7a41 7d3e c227 393f e356 31bf
00000030: b001 aa3e a6fe 0fbf c6d3 d5be f7d3 01bf
00000040: 222a 1bbf 0cb8 283f c9e8 38bf 3c2c 76bd
00000050: 2f8d 473f 6fda 80bf f178 9e3f 0736 29be
00000060: 5c2a 193f 7eb8 6ebe 57bb 2cbf 0b28 aabe
00000070: 3344 2cbe 45c8 ccbe ff47 4bbe c0ee 9c3e
00000080: c933 29bf 3884 4d3f 4848 6bbf 60f0 163e

conv1.bias f4 [12]
0.0031025135 -0.08712517 0.5549441 -0.51951295 -0.5523756 -0.21635568 -0.63539326 -0.3804718
-0.29723996 -0.16948013 0.05321943 -0.54147404
00000000: 8a53 4b3b ae6e b2bd d110 0e3f cdfe 04bf
00000010: 7d68 0dbf 588c 5dbe 22a9 22bf 33cd c2be
00000020: d62f 98be 338c 2dbe 9efc 593d 0b9e 0abf

dense1.0.layers.0.weight f4 [12]
0.65732116 0.5830777 0.50359577 0.7696196 0.83277345 0.75452775 0.51859844 0.47127637
0.67875093 0.86805487 0.65219146 0.3778045
00000000: 3346 283f 9544 153f a7eb 003f ca05 453f
00000010: a430 553f bb28 413f dec2 043f 234b f13e
00000020: 9fc2 2d3f d838 5e3f 05f6 263f 976f c13e

dense1.0.layers.0.bias f4 [12]
-0.06570835 0.13961966 0.16651137 0.15924741 -0.19763947 0.030393887 0.1054702 0.17221877
-0.037109632 -0.1430604 -0.07236162 0.13064198
00000000: 1992 86bd 75f8 0e3e f581 2a3e c111 233e
00000010: 0062 4abe 9afc f83c c300 d83d 1e5a 303e
00000020: 4500 18bd 6d7e 12be 5432 94bd 03c7 053e

dense1.0.layers.0.running_mean f4 [12]
-0.084767 -0.16066523 0.3609765 -0.6599559 -0.31794474 0.13797942 -0.51948273 -0.4206248
-0.29680288 0.17387702 0.35030594 -0.5348203
00000000: 529a adbd 6d85 24be e9d1 b83e dff2 28bf
00000010: a7c9 a2be 7a4a 0d3e d2fc 04bf 225c d7be
00000020: 8cf6 97be d10c 323e 4d5b b33e fce9 08bf

dense1.0.layers.0.running_var f4 [12]
0.14371121 0.22434996 0.07494332 0.20472421 0.36236045 0.20759836 0.0851096 0.055331014
0.16024621 0.7434471 0.12968218 0.018809132
00000000: 0829 133e ffbb 653e e27b 993d 39a3 513e
00000010: 4f87 b93e aa94 543e f14d ae3d c6a2 623d
00000020: 9517 243e 8d52 3e3f 68cb 043e 9c15 9a3c

dense1.0.layers.2.weight f4 [24, 12, 1, 1]
0.10566395 -0.06184537 -0.43230602 0.16360316 0.1133972 0.23527287 0.059458733 0.083768256
-0.22132789 -0.27612305 -0.18264292 -0.32389703 0.050435014 -0.096592866 0.2952838 0.005633413
-0.30537748 -0.07866258 -0.018033365 0.20372626 0.26395094 -0.11053776 0.19669303 -0.24228463
0.22290021 0.18473114 0.07409884 0.18851538 0.2007879 0.2310021 0.14289431 -0.20816264
0.19962531 -0.013980662 -0.27148548 0.04191029 -0.016860304 0.36328912 0.03914944 0.1258261
-0.049984492 -0.08418482 -0.19544701 0.2568288 -0.17250821 0.20729338 -0.27314758 0.12651463
0.21308659 0.13449803 0.00419518 0.24971588 -0.019535251 0.3547484 -0.24633338 0.03621867
0.17473133 0.19009301 0.0066447705 -0.20518772 0.025251321 0.13352835 -0.13011405 -0.48623526
0.22289227 -0.10500855 -0.35260388 -0.2506173 -0.01337844 0.0012468399 0.15840806 0.10520431
0.16417485 0.33744988 0.31378114 0.05616712 -0.04412283 -0.08013406 0.3820432 -0.054561425
-0.31805828 0.08560729 0.12918475 0.35408053 -0.21095572 -0.3130735 0.06346684 -0.41124925
0.08853666 0.12551206 -0.11491099 0.32360685 0.054579854 0.26743102 0.063509166 -0.00877545
0.0056804586 -0.12394962 -0.2404873 -0.04003683 0.24324045 0.31645355 0.22411092 -0.12989096
0.15437502 0.18259007 0.1363203 -0.12865339 -0.11284329 0.020746347 -0.1913316 -0.19263273
-0.022972116 -0.24825677 -0.14551185 -0.008970143 -0.15999122 -0.07001287 0.03602392 -0.17111126
-0.21317376 0.25945053 -0.08332156 -0.29118517 -0.13028741 0.19583556 0.022987407 0.04636505
-0.28650388 0.29290038 0.09734466 0.011639456 -0.028128538 0.27999365 0.21057186 -0.25809538
-0.03778356 -0.042496756 0.19827518 -0.14693236 0.13692167 -0.15940495 -0.26853082 -0.15343608
-0.26863277 -0.16640793 -0.16282263 -0.03535706 0.030893758 0.0386814 -0.15270498 -0.49674633
-0.3081056 0.11970343 -0.24797863 0.10488538 0.25662097 0.098586045 0.23257945 0.2682501
0.16085806 -0.1923887 -0.038627192 -0.3527424 -0.28592172 -0.23133586 0.06939446 -0.18106487
-0.026705028 0.24287702 -0.31234807 -0.11927939 -0.09489582 0.15016149 -0.156074 -0.16634722
0.20794088 -0.17435211 0.022230301 0.17181994 -0.10087272 0.2652863 -0.050347567 -0.25896594
0.12099254 0.0958041 -0.12519169 -0.16637549 -0.011457059 -0.074989654 -0.023101859 0.21115552
-0.04058493 -0.12605914 -0.04881501 0.041817807 -0.17283712 -0.20778544 -0.35737184 0.14995973
-0.20678201 0.18401648 0.20077449 -0.010044758 0.31949303 0.03204414 0.015426288 0.0046041664
-0.3527739 -0.11566015 0.040414326 -0.03689354 -0.2085925 -0.028506119 0.0044045127 0.17792998
-0.035851188 -0.3926989 0.37012005 -0.3821298 -0.2991245 -0.027271384 0.19882903 -0.011653137
-0.14770336 0.08240075 0.09427701 0.12019081 -0.20924106 -0.28442186 -0.28039753 -0.34625748
-0.15062448 0.1372815 -0.16256043 0.19539759 0.07240218 -0.03782833 0.1477248 -0.33508143
-0.10617424 -0.15455808 -0.103554524 0.054909963 0.10950815 -0.30350944 -0.33822703 0.089912586
0.15305983 0.024579046 0.25940442 -0.30495515 -0.097123936 -0.10781757 -0.2896668 0.232144
00000000: 5766 d83d 9251 7dbd 3757 ddbe 9687 273e
00000010: cb3c e83d 5feb 703e 008b 733d b18e ab3d
00000020: c7a3 62be 0060 8dbe bf06 3bbe d5d5 a5be
00000030: f294 4e3d 7bd2 c5bd 702f 973e 7e98 b83b
00000040: 705a 9cbe d919 a1bd b5ba 93bc 9e9d 503e
00000050: 9424 873e 9f61 e2bd e669 493e 7619 78be
00000060: f43f 643e 292a 3d3e 22c1 973d 2d0a 413e
00000070: 589b 4d3e d18b 6c3e e352 123e 9628 55be
00000080: 946a 4c3e 260f 65bc 2500 8bbe 20aa 2b3d
00000090: 9f1e 8abc 0801 ba3e 2a5b 203d 8fd8 003e
000000a0: 8abc 4cbd 1769 acbd 4323 48be 117f 833e
000000b0: fea5 30be b744 543e 00da 8bbe 0d8d 013e
000000c0: 5f33 5a3e dab9 093e b877 893b 85b5 7f3e
000000d0: 6408 a0bc 95a1 b53e d13e 7cbe 075a 143d
000000e0: c5ec 323e bea7 423e 60bc d93b bb1c 52be
000000f0: dcdb ce3c a8bb 083e 9e3c 05be d4f3 f8be
00000100: df3d 643e b90e d7bd 7f88 b4be e950 80be
00000110: 3f31 5bbc 016d a33a b935 223e 5b75 d73d
00000120: 741d 283e 3bc6 ac3e eca7 a03e 7e0f 663d
00000130: 24ba 34bd 531d a4bd 2b9b c33e cd7b 5fbd
00000140: 89d8 a2be e052 af3d 0249 043e 0b4a b53e
00000150: c704 58be 2b4b a0be e7fa 813d 438f d2be
00000160: b552 b53d 3c86 003e 7456 ebbd ccaf a53e
00000170: 208f 5f3d b8ec 883e 1811 823d e8c6 0fbc
00000180: 2423 ba3b 4cd9 fdbd 4e42 76be a9fd 23bd
00000190: 0614 793e 3306 a23e 557d 653e 2302 05be
000001a0: 7c14 1e3e e4f8 3a3e 8c97 0b3e b7bd 03be
000001b0: 621a e7bd 3ef4 a93c 6eec 43be 8441 45be
000001c0: 0530 bcbc 0637 7ebe 0f01 15be 82f7 12bc
000001d0: bdd4 23be e862 8fbd d18d 133d ca37 2fbe
000001e0: 394a 5abe b3d6 843e 7ea4 aabd 3916 95be
000001f0: 106a 05be 1e89 483e 1650 bc3c 47e9 3d3d
00000200: a3b0 92be 0af7 953e a35c c73d 6bb3 3e3c
00000210: d26d e6bc 545b 8f3e 26a0 573e 1425 84be
00000220: efc2 1abd 1411 2ebd a608 4b3e 7075 16be
00000230: 3235 0c3e 0d3b 23be df7c 89be 591e 1dbe
00000240: 3c8a 89be d766 2abe faba 26be 91d2 10bd
00000250: e814 fd3c 6370 1e3d b25e 1cbe 8955 febe
00000260: 04c0 9dbe 1227 f53d 1cee 7dbe 25ce d63d
00000270: d363 833e 7be7 c93d 4f29 6e3e 1458 893e
00000280: fab7 243e 8b01 45be 8c37 1ebd a79a b4be
00000290: 5564 92be 4fe3 6cbe af1e 8e3d 1269 39be
000002a0: 81c4 dabc c1b4 783e 16ec 9fbe c148 f4bd
000002b0: bd58 c2bd efc3 193e ddd1 1fbe ed56 2abe
000002c0: 74ee 543e 5c89 32be 521c b63c 91f1 2f3e
000002d0: 5b96 cebd 9bd3 873e 4039 4ebd 2f97 84be
000002e0: f0ca f73d f134 c43d 4032 00be 565e 2abe
000002f0: 63b6 3bbc 2d94 99bd 1c40 bdbc 2739 583e
00000300: 623c 26bd a615 01be 3ff2 47bd 2649 2b3d
00000310: 37fc 30be b5c5 54be 71f9 b6be 0b8f 193e
00000320: aabe 53be d16e 3c3e d497 4d3e c592 24bc
00000330: 9794 a33e b740 033d 8bbe 7c3c 8cde 963b
00000340: c89e b4be 3bdf ecbd 7e89 253d ae1d 17bd
00000350: 4699 55be aa85 e9bc bb53 903b 4733 363e
00000360: b2d8 12bd d50f c9be 6080 bd3e 84a6 c3be
00000370: d926 99be 3d68 dfbc d699 4b3e cdec 3ebc
00000380: 8d3f 17be b9c1 a83d 4e14 c13d 9926 f63d
00000390: 4a43 56be be9f 91be 4490 8fbe a948 b1be
000003a0: 4e3d 1abe 8693 0c3e 3e76 26be 4e16 483e
000003b0: 9847 943d e1f1 1abd 2c45 173e cb8f abbe
000003c0: e171 d9bd 7944 1ebe 6514 d4bd 45e9 603d
000003d0: cf45 e03d 9765 9bbe 182c adbe 1724 b83d
000003e0: b7bb 1c3e ff59 c93c a8d0 843e 1523 9cbe
000003f0: eae8 c6bd 75cf dcbd 354f 94be 28b7 6d3e

dense1.0.layers.2.bias f4 [24]
-0.12355878 0.097806886 0.16971481 0.33045316 -0.6048107 -0.19806108 -0.11785086 0.013574911
0.21746849 -0.21885127 -0.101687185 -0.032633133 0.04119399 0.04706741 0.21425949 -0.394511
-0.11966953 -0.14257966 -0.25806394 -0.26193878 -0.22500892 -0.082446545 0.27314988 -0.31542668
00000000: 630c fdbd fa4e c83d b8c9 2d3e 2831 a93e
00000010: e0d4 1abf 86d0 4abe cb5b f1bd 4e69 5e3c
00000020: 0fb0 5e3e 8c1a 60be 5f41 d0bd 52aa 05bd
00000030: 07bb 283d c2c9 403d d766 5b3e 59fd c9be
00000040: 4c15 f5bd 6700 12be f520 84be d71c 86be
00000050: bd68 66be bcd9 a8bd 4dda 8b3e 9b7f a1be

dense1.0.layers.3.weight f4 [24]
0.6489463 0.45657805 0.9075305 0.6125321 0.6251711 0.86342096 1.0615563 0.7903662
0.958336 0.75651646 0.8828939 0.86455667 0.7627862 0.8522392 0.7010923 0.8251968
0.66821027 0.52288103 0.61419505 0.8551126 0.96223015 0.92645293 0.71474624 0.88277185
00000000: 5821 263f 99c4 e93e eb53 683f e7ce 1c3f
00000010: 370b 203f 2809 5d3f 14e1 873f 7055 4a3f
00000020: 8255 753f 10ab 413f 5605 623f 9653 5d3f
00000030: f545 433f 592c 5a3f c97a 333f 1940 533f
00000040: d40f 2b3f 88db 053f e33b 1d3f a9e8 5a3f
00000050: b754 763f 052c 6d3f 9cf9 363f 56fd 613f

dense1.0.layers.3.bias f4 [24]
0.010880864 0.01201912 -0.03526812 0.03396796 -0.0616521 0.0013727798 -0.123578764 0.043111105
-0.01944307 -0.05972235 0.009915265 -0.010628057 -0.032544427 0.019503962 -0.014361991 -0.013391468
0.0023160505 0.013590095 -0.025903916 0.015280383 -0.021828206 -0.0425179 0.0031294322 -0.11713505
00000000: a745 323c d8eb 443c 4e75 10bd fd21 0b3d
00000010: ea86 7cbd d9ee b33a dd16 fdbd 4595 303d
00000020: 1347 9fbc 6c9f 74bd a373 223c 4d21 2ebc
00000030: 4e4d 05bd c6c6 9f3c 8e4e 6bbc e367 5bbc
00000040: e1c8 173b fda8 5e3c 7334 d4bc 925a 7a3c
00000050: 11d1 b2bc 4027 2ebd 2917 4d3b 80e4 efbd

dense1.0.layers.3.running_mean f4 [24]
-0.1828925 0.14777625 0.74835384 0.47327358 -0.1531468 -0.2613069 0.63252974 0.0074356673
0.5586393 -0.70758814 -0.040235057 0.09818536 -0.35231158 0.25565866 0.13354279 -0.18525551
-0.30301243 -0.09529666 -0.25416183 -0.6094576 -0.29859263 0.24631618 0.22127697 0.20513794
00000000: 2c48 3bbe a852 173e 1e94 3f3f ea50 f23e
00000010: 84d2 1cbe 05ca 85be 78ed 213f e6a6 f33b
00000020: fc02 0f3f 7f24 35bf 84cd 24bd 6815 c93d
00000030: 2f62 b4be b1e5 823e 71bf 083e 9fb3 3dbe
00000040: 7224 9bbe e52a c3bd 8021 82be 6a05 1cbf
00000050: 22e1 98be 4f3a 7c3e 6e96 623e ae0f 523e

dense1.0.layers.3.running_var f4 [24]
0.06684003 0.070114605 0.1361057 0.13551253 0.026662918 0.081284724 0.2108752 0.27945665
0.4359098 0.18052775 0.23412745 0.075772986 0.12299855 0.22432123 0.07262012 0.01756651
0.034392234 0.05747791 0.026547596 0.22286102 0.11197704 0.15310577 0.035946168 0.07298251
00000000: 6de3 883d 3f98 8f3d 4b5f 0b3e ccc3 0a3e
00000010: 316c da3c 9b78 a63d abef 573e f114 8f3e
00000020: 922f df3e 44dc 383e 1bbf 6f3e de2e 9b3d
00000030: aae6 fb3d 77b4 653e dcb9 943d a4e7 8f3c
00000040: dfde 0c3d f56d 6b3d 587a d93c ae35 643e
00000050: 3854 e53d c2c7 1c3e 4a3c 133d db77 953d

dense1.0.layers.5.weight f4 [6, 24, 3, 3]
0.06420036 -0.11626962 0.0005299002 -0.052661933 -0.010696252 0.01808758 -0.06048868 0.05665964
0.1751482 -0.11749371 0.10001606 -0.071195245 0.033320785 0.51486176 0.007838897 -0.1000981
0.008380863 -0.36341217 0.064282045 -0.010764189 -0.11550141 0.106264435 -0.15714706 -0.19884199
0.016158512 0.03338869 0.0660035 -0.09754689 -0.0661182 -0.13722846 -0.043785077 0.3168664
-0.1553436 0.06611243 -0.013188722 -0.015544917 -0.107836634 0.08064084 0.0485416 0.023884242
0.009374829 -0.04446337 0.033214837 -0.02517453 -0.057709996 -0.12697466 -0.050314315 -0.11384656
0.10855576 -0.19040594 -0.033463754 0.05423328 0.008252905 0.019221181 0.049318194 -0.089039944
-0.056606244 -0.0034099866 -0.061910816 -0.090921596 -0.04521437 -0.0025893478 0.08353102 0.14511475
0.029289078 -0.027628465 0.103625976 -0.039039575 0.13493995 -0.09498026 -0.03378763 0.07093288
-0.0014616551 -0.15434931 -0.13087434 -0.1277945 -0.29962453 -0.062223576 -0.088975556 0.056610003
0.05494227 -0.003193641 0.0264939 0.14842735 -0.017697196 -0.15620723 0.040361464 0.025546027
-0.0758167 -0.17452069 0.114411354 -0.016740441 -0.07119883 -0.07568384 -0.27963758 -0.057031516
0.043162905 -0.032539748 -0.10085598 0.004252284 -0.034151778 -0.025787376 -0.21238577 -0.10469106
0.04824275 -0.109072916 0.017542524 0.16399193 -0.043694004 0.029793326 0.012329683 -0.09679898
-0.19882938 0.24703301 -0.104385056 0.15239727 0.13130635 -0.02096993 -0.0732919 -0.114797466
0.09372588 0.16506962 -0.14186797 0.022876356 -0.010149038 -0.023906983 0.04641026 -0.021189747
0.051267672 -0.060339257 -0.26836216 0.1262991 0.018235475 0.15097696 0.25066704 -0.05277487
-0.039034814 0.0074116015 -0.022324957 -0.07310643 -0.01741246 -0.006186683 -0.12634914 -0.055124093
-0.029346196 -0.059191976 -0.10833142 -0.00069389737 0.5037885 -0.06751526 -0.055331472 -0.13335359
-0.07557268 0.11995405 -0.038723294 -0.08383863 0.038524084 0.1392494 -0.20121507 -0.12544817
-0.11451847 0.19737786 -0.03253695 0.08406892 -0.029841522 0.07358767 0.19668679 -0.0037541874
0.0028923848 -0.007555701 -0.029136924 0.18320182 0.21331093 0.033174407 -0.0039070384 -0.17213292
0.05654688 -0.106278196 -0.033436455 -0.019248143 -0.0036230383 0.08871403 0.010999426 0.0003334518
0.10584339 0.007896823 -0.028551375 -0.043010835 -0.00054340425 0.047247138 -0.035339247 -0.020044567
0.018878143 -0.1425094 0.0094116395 0.05980991 0.035505082 0.14602314 -0.029087028 -0.001345605
0.054867245 0.057843752 -0.23362479 0.06836409 0.07938144 -0.023570718 0.05304771 -0.018937685
-0.03163004 0.016627736 -0.06876987 0.18342592 -0.01967536 0.005823104 0.035986807 -0.04914347
-0.015792806 -0.0020377135 -0.078517385 0.0029197882 -0.19639264 0.18370414 0.016286602 0.18900745
0.07087327 -0.16650495 0.08717684 0.1421545 -0.14560014 -0.042782787 0.1227569 -0.05264926
0.13645801 -0.01743826 -0.015846314 -0.051496755 0.030957242 0.026544878 -0.21230741 0.07720254
0.12752105 -0.009387089 0.2318548 0.025949499 -0.29641977 -0.05732674 0.080880724 -0.4257815
0.10525462 0.04629879 0.3248629 0.15024354 0.10872156 -0.14413734 -0.0725184 -0.049216703
00000000: 7a7b 833d c41e eebd 00e9 0a3a 0ab4 57bd
00000010: 553f 2fbc 682c 943c fac2 77bd f013 683d
00000020: 0d5a 333e 8ba0 f0bd 38d5 cc3d d0ce 91bd
00000030: 607b 083d fbcd 033f b86e 003c 3c00 cdbd
00000040: e34f 093c 2911 babe 4ea6 833d 485c 30bc
00000050: 018c ecbd 2ba1 d93d 29eb 20be 3c9d 4bbe
00000060: db5e 843c 94c2 083d d82c 873d aac6 c7bd
00000070: fb68 87bd 9e85 0cbe fb57 33bd 503c a23e
00000080: 6512 1fbe f465 873d 8215 58bc 1cb0 7ebc
00000090: 74d9 dcbd 0627 a53d 8fd3 463d e3a8 c33c
000000a0: e298 193c 391f 36bd 480c 083d d13a cebc
000000b0: 5161 6cbd a505 02be 6216 4ebd 6328 e9bd
000000c0: 7b52 de3d c6f9 42be 4a11 09bd b723 5e3d
000000d0: 3137 073c bd75 9d3c e001 4a3d 935a b6bd
000000e0: f3db 67bd 157a 5fbb 3296 7dbd 1a35 babd
000000f0: b432 39bd 0cb2 29bb 5012 ab3d f698 143e
00000100: a6ef ef3c 1755 e2bc db39 d43d f6e7 1fbd
00000110: b32d 0a3e 0385 c2bd e664 0abd 4245 913d
00000120: 0295 bfba bf0d 1ebe ec03 06be 90dc 02be
00000130: 6368 99be 26de 7ebd d138 b6bd e4df 673d
00000140: 250b 613d 684c 51bb bc09 d93c 57fd 173e
00000150: b6f9 90bc caf4 1fbe 1052 253d e745 d13c
00000160: c945 9bbd 8db5 32be 8050 ea3d 4023 89bc
00000170: b1d0 91bd 2100 9bbd a82c 8fbe e199 69bd
00000180: 96cb 303d 6648 05bd 948d cebd be56 8b3b
00000190: bce2 0bbd 0c40 d3bc a87b 59be 4468 d6bd
000001a0: 319a 453d 9f61 dfbd 57b5 8f3c 80ed 273e
000001b0: 7cf8 32bd 2211 f43c 7002 4a3c 8b3e c6bd
000001c0: ee99 4bbe 39f6 7c3e d5c7 d5bd 080e 1c3e
000001d0: 2c75 063e 21c9 abbc 101a 96bd ef1a ebbd
000001e0: 5bf3 bf3d 0308 293e d645 11be 3267 bb3c
000001f0: 2748 26bc 94d8 c3bc af18 3e3d 1f96 adbc
00000200: 0dfe 513d 4c26 77bd c466 89be 8d54 013e
00000210: 9062 953c b499 1a3e 6e57 803e 762a 58bd
00000220: f8e2 1fbd 05dd f23b d4e2 b6bc d3b8 95bd
00000230: 93a4 8ebc a9b9 cabb ab61 01be cdc9 61bd
00000240: 6f67 f0bc 4973 72bd dddc ddbd aae6 35ba
00000250: 48f8 003f 7145 8abd 41a3 62bd d88d 08be
00000260: d9c5 9abd 78aa f53d 519c 1ebd 96b3 abbd
00000270: 6ecb 1d3d 6597 0e3e 530b 4ebe 7c75 00be
00000280: a988 eabd 6c1d 4a3e 7745 05bd 532c ac3d
00000290: 3576 f4bc 22b5 963d 4368 493e d008 76bb
000002a0: 2a8e 3d3b d095 f7bb 8fb0 eebc 4299 3b3e
000002b0: 2e6e 5a3e e3e1 073d 9d06 80bb 9d43 30be
000002c0: b49d 673d 62a8 d9bd aaf4 08bd 48ae 9dbc
000002d0: 7f70 6dbb b4af b53d f036 343c 25d3 ae39
000002e0: 6bc4 d83d ad61 013c 93e4 e9bc 212c 30bd
000002f0: 3e73 0eba 3786 413d e3bf 10bd 8134 a4bc
00000300: 56a6 9a3c fced 11be 4733 1a3c 3cfb 743d
00000310: c76d 113d 1787 153e eb47 eebc 035f b0ba
00000320: 7abc 603d 92ed 6c3d 563b 6fbe 7902 8c3d
00000330: bd92 a23d 6117 c1bc 8e48 593d 3423 9bbc
00000340: 808e 01bd e436 883c 38d7 8cbd 01d4 3b3e
00000350: 382e a1bc bdcf be3b e766 133d aa4a 49bd
00000360: ea5f 81bc 298b 05bb b9cd a0bd eb59 3f3b
00000370: 271b 49be f01c 3c3e 7b6b 853c 2b8b 413e
00000380: 0126 913d 4680 2abe c589 b23d f390 113e
00000390: 3418 15be 013d 2fbd f867 fb3d c0a6 57bd
000003a0: a6bb 0b3e afda 8ebc 21d0 81bc 43ee 52bd
000003b0: 0b9a fd3c a574 d93c 1d67 59be 5e1c 9e3d
000003c0: e194 023e 4ecc 19bc 586b 6d3e 0b94 d43c
000003d0: 55c4 97be 72cf 6abd cba4 a53d 0800 dabe
000003e0: bc8f d73d cda3 3d3d 6e54 a63e 71d9 193e
000003f0: 69a9 de3d bd98 13be 8784 94bd 7497 49bd

dense1.0.layers.5.bias f4 [6]
0.13914688 0.11637716 -0.013408274 0.052533917 0.21941036 -0.06703864
00000000: 857c 0e3e 2657 ee3d 61ae 5bbc ce2d 573d
00000010: 1cad 603e 8e4b 89bd

dense1.1.layers.0.weight f4 [18]
0.7977512 0.8096757 0.7705493 0.9097241 0.87610126 0.93339264 0.8537205 0.7990684
0.76266044 0.97390723 0.85918415 0.50900745 0.57452434 0.48058665 0.6815891 0.56053776
0.6562194 0.40450263
00000000: 6c39 4c3f e846 4f3f b842 453f aee3 683f
00000010: 2c48 603f d2f2 6e3f 6d8d 5a3f bf8f 4c3f
00000020: b73d 433f fc51 793f 7ef3 5b3f 504e 023f
00000030: 0714 133f 740f f63e a07c 2e3f 677f 0f3f
00000040: fffd 273f f81a cf3e

dense1.1.layers.0.bias f4 [18]
0.15815091 -0.08136632 0.046312153 0.0763743 0.07760717 -0.0006343024 -0.05471192 0.07489353
0.15632364 -0.08297713 -0.041465856 0.1380336 0.20816495 0.120298 -0.013199775 0.15790814
-0.07717874 0.09886343
00000000: 50f2 213e 63a3 a6bd d0b1 3d3d 216a 9c3d
00000010: 82f0 9e3d 5047 26ba 9b19 60bd c761 993d
00000020: 4e13 203e eaef a9bd 1ad8 29bd ae58 0d3e
00000030: 3129 553e cc5e f63d de43 58bc acb2 213e
00000040: e30f 9ebd e978 ca3d

dense1.1.layers.0.running_mean f4 [18]
-0.084767 -0.16066523 0.3609765 -0.6599559 -0.31794474 0.13797942 -0.51948273 -0.4206248
-0.29680288 0.17387702 0.35030594 -0.5348203 -0.10837099 0.011187275 0.119656436 -0.16098946
-0.010621894 -0.16508484
00000000: 529a adbd 6d85 24be e9d1 b83e dff2 28bf
00000010: a7c9 a2be 7a4a 0d3e d2fc 04bf 225c d7be
00000020: 8cf6 97be d10c 323e 4d5b b33e fce9 08bf
00000030: 9cf1 ddbd d54a 373c 6f0e f53d 6cda 24be
00000040: 7407 2ebc 000c 29be

dense1.1.layers.0.running_var f4 [18]
0.14371121 0.22434996 0.07494332 0.20472421 0.36236045 0.20759836 0.0851096 0.055331014
0.16024621 0.7434471 0.12968218 0.018809132 0.0938158 0.072015285 0.10843848 0.0957238
0.111171156 0.06744553
00000000: 0829 133e ffbb 653e e27b 993d 39a3 513e
00000010: 4f87 b93e aa94 543e f14d ae3d c6a2 623d
00000020: 9517 243e 8d52 3e3f 68cb 043e 9c15 9a3c
00000030: 8022 c03d c07c 933d fe14 de3d d70a c43d
00000040: b4ad e33d e220 8a3d

dense1.1.layers.2.weight f4 [24, 18, 1, 1]
-0.12672319 -0.07007903 0.034917492 0.022779936 -0.110402584 0.022575457 -0.0021178063 0.12541367
-0.05864766 0.13260064 0.19205798 -0.28872895 -0.3383786 -0.088382676 -0.30545953 -0.040731873
-0.16149718 -0.0077163703 -0.15052456 -0.23144615 -0.03916914 -0.17068101 0.034144368 -0.0062390175
-0.09791984 0.14209338 0.23852944 0.2635144 0.06828774 0.101389766 0.040409353 -0.20993917
-0.06103489 0.010247747 0.12231053 -0.04452668 0.07693115 -0.24263991 -0.16308515 -0.25514928
0.08718169 0.29282913 -0.101976424 -0.033552524 -0.2594258 0.14624107 -0.17532486 0.18658946
0.07185314 0.1151782 -0.24700834 -0.1255237 -0.11873907 -0.009957198 0.20346859 0.034242243
0.04307615 0.17551379 -0.20562604 0.13561973 -0.21768664 0.0046864664 0.12304297 -0.113640055
-0.08302148 0.11538273 0.29070657 -0.08628242 0.014959126 0.057933792 0.034553718 0.14588937
0.1771431 -0.024026925 -0.21259308 0.099133305 -0.2484437 0.016899092 -0.07017693 -0.061447736
0.024873586 -0.23462757 0.025170898 0.08545682 -0.15172724 -0.15382946 0.100854725 0.12632376
-0.1620324 0.1389124 -0.073370665 -0.004811766 0.4088931 0.031193644 -0.11385247 0.15208639
0.11577825 -0.2430635 -0.07635222 0.060045127 -0.22488114 -0.19647934 0.05793123 0.016686732
-0.11079227 0.16574144 -0.1762529 -0.01728257 -0.08739066 0.30935434 -0.10053386 0.071501374
-0.29110074 -0.16126919 0.004233388 0.18122004 0.16615643 0.017140012 -0.10179237 -0.018371906
0.10304645 -0.22844027 -0.053012535 0.107820325 -0.13246602 -0.15444821 -0.0038651407 0.11983638
-0.22035901 -0.3903936 -0.15337199 -0.20128435 0.051870205 -0.03217791 0.091574386 0.1442934
-0.10531237 0.21781375 -0.24745299 0.09566028 0.255122 0.14573734 0.04723392 0.079873875
-0.2575424 0.10736713 0.00874523 -0.29433975 -0.17755695 -0.08135017 0.25800785 0.2819346
-0.21672459 0.2230023 0.09610547 -0.08358365 -0.065582596 0.120407216 -0.02851688 0.23324418
0.08476802 -0.0076832366 -0.19565164 -0.043431584 0.22808813 -0.106584236 -0.00031897405 0.020600755
0.14297514 -0.22122157 0.24930239 -0.13069582 -0.07687666 -0.16059868 0.0900801 0.13334282
-0.15207575 0.13107076 0.12858944 0.06557801 0.03123127 -0.18761562 0.09220075 0.30070326
-0.177747 0.21101485 0.25547892 -0.16000359 -0.15396881 -0.17157696 0.045348622 0.12100809
-0.15250005 -0.02381898 -0.12270868 -0.027530575 0.15329106 -0.02379977 -0.09641548 -0.0027462551
0.066642486 0.17663632 0.1361145 0.07107466 -0.19366105 -0.14229208 -0.02548148 -0.022522008
-0.05954511 -0.13963118 0.18831259 -0.08749214 0.106276974 -0.14698632 0.04720169 -0.16350657
-0.11028953 0.114146076 0.13138185 0.01898031 0.0189351 0.25833416 0.21723829 0.1828724
-0.274677 0.028044134 -0.072410226 0.22237292 -0.09311415 -0.05483993 0.124569476 -0.19016671
0.006686687 0.031711735 0.19757047 -0.11692141 -0.26128337 0.23617381 0.022761745 -0.24458095
0.00659299 -0.09505801 0.24463822 -0.08067783 -0.007889752 -0.028219778 -0.014523609 -0.1640036
0.0104700215 0.11419187 0.08633589 -0.18341261 0.09284308 -0.058256894 0.14152676 0.044583667
00000000: b9c3 01be 9885 8fbd a505 0f3d fd9c ba3c
00000010: c01a e2bd 2af0 b83c e5ca 0abb 716c 003e
00000020: 8738 70bd 76c8 073e d9aa 443e 48d4 93be
00000030: f63f adbe fa01 b5bd 3165 9cbe 77d6 26bd
00000040: 845f 25be 9bd9 fcbb 1c23 1abe 3800 6dbe
00000050: d26f 20bd 01c7 2ebe f7da 0b3d ac70 ccbb
00000060: 328a c8bd ed80 113e 1041 743e 5ceb 863e
00000070: 71da 8b3d 70a5 cf3d 4784 253d 4bfa 56be
00000080: b9ff 79bd 2be6 273c f17d fa3d 9c61 36bd
00000090: 148e 9d3d 9976 78be cbff 26be eda2 82be
000000a0: 508c b23d b3ed 953e 04d9 d0bd 5f6e 09bd
000000b0: 75d3 84be 38c0 153e 5c88 33be 4f11 3f3e
000000c0: bd27 933d 8ce2 eb3d c1ef 7cbe 4989 00be
000000d0: 782d f3bd 8423 23bc 125a 503e 9841 0c3d
000000e0: 9e70 303d e3b9 333e a28f 52be e6df 0a3e
000000f0: 3fe9 5ebe ee90 993b f4fd fb3d 1ebc e8bd
00000100: 2a07 aabd c84d ec3d 7ed7 943e d6b4 b0bd
00000110: 1f17 753c fc4b 6d3d 3388 0d3d 0664 153e
00000120: 0065 353e 1dd4 c4bc 00b2 59be 6706 cb3d
00000130: 0668 7ebe f76f 8a3c ecb8 8fbd 9fb0 7bbd
00000140: b1c3 cb3c 3642 70be 3333 ce3c fc03 af3d
00000150: 635e 1bbe 7885 1dbe ec8c ce3d 045b 013e
00000160: d2eb 25be 0d3f 0e3e 5c43 96bd 05ac 9dbb
00000170: 705a d13e d089 ff3c 7c2b e9bd 89bc 1b3e
00000180: 261d ed3d a3e5 78be 8d5e 9cbd e1f1 753d
00000190: 3e47 66be e131 49be 4c49 6d3d 9db2 883c
000001a0: 0fe7 e2bd 20b8 293e a47b 34be 2d94 8dbc
000001b0: e0f9 b2bd b163 9e3e b2e4 cdbd 506f 923d
000001c0: 280b 95be c023 25be 3cb8 8a3b bf91 393e
000001d0: e924 2a3e 3669 8c3c 8578 d0bd ae80 96bc
000001e0: 040a d33d 3fec 69be ac23 59bd e7d0 dc3d
000001f0: 2ca5 07be ac27 1ebe 4d4e 7dbb c76c f53d
00000200: cba5 61be ace1 c7be 8c0d 1dbe 7c1d 4ebe
00000210: da75 543d fccc 03bd 5a8b bb3d a6c1 133e
00000220: 03ae d7bd 910a 5f3e 5164 7dbe 89e9 c33d
00000230: 5a9f 823e 2b3c 153e 5b78 413d ea94 a33d
00000240: 99dc 83be 4ce3 db3d 2748 0f3c b3b3 96be
00000250: 7dd1 35be eb9a a6bd 9b19 843e bb59 903e
00000260: 0ded 5dbe b75a 643e f2d2 c43d e82d abbd
00000270: 2b50 86bd 0f98 f63d 3b9c e9bc 90d7 6e3e
00000280: db9a ad3d a9c3 fbbb e758 48be 51e5 31bd
00000290: ef8f 693e d648 dabd f93b a7b9 eac2 a83c
000002a0: 1368 123e e887 62be 2049 7f3e 20d5 05be
000002b0: 8371 9dbd fb73 24be ea7b b83d 058b 083e
000002c0: bfb9 1bbe 6a37 063e f3ac 033e c44d 863d
000002d0: b8d8 ff3c 4f1e 40be bfd3 bc3d c7f5 993e
000002e0: 4f03 36be 4714 583e 22ce 823e fbd7 23be
000002f0: 00aa 1dbe dfb1 2fbe 7abf 393d 17d3 f73d
00000300: f928 1cbe 0620 c3bc b04e fbbd cd87 e1bc
00000310: 55f8 1c3e bcf7 c2bc 7b75 c5bd 84fa 33bb
00000320: db7b 883d 27e0 343e 9961 0b3e 978f 913d
00000330: 154f 46be 04b5 11be 89be d0bc 1380 b8bc
00000340: 93e5 73bd 7afb 0ebe 04d5 403e 142f b3bd
00000350: bea7 d93d 9583 16be 8f56 413d 446e 27be
00000360: 7adf e1bd 6bc5 e93d f788 063e 987c 9b3c
00000370: c81d 9b3c 6044 843e b773 5e3e e742 3b3e
00000380: 77a2 8cbe d0bc e53c d04b 94bd bab5 633e
00000390: a2b2 bebd d69f 60bd 481e ff3d 10bb 42be
000003a0: ff1b db3b 2ae4 013d ea4f 4a3e 7e74 efbd
000003b0: efc6 85be 8cd7 713e d776 ba3c 6e73 7abe
000003c0: 020a d83b c6ad c2bd 7182 7a3e 6b3a a5bd
000003d0: 0544 01bc 2a2d e7bc 6ef4 6dbc 8ff0 27be
000003e0: 748a 2b3c 6ddd e93d dfd0 b03d 84d0 3bbe
000003f0: 8324 be3d c89e 6ebd 64ec 103e 5d9d 363d

dense1.1.layers.2.bias f4 [24]
0.104675494 -0.19842291 0.16917597 -0.2526473 0.14382909 -0.22557421 0.024672294 -0.21617411
-0.08363283 -0.06592138 -0.14096741 -0.08056182 -0.080935545 0.06417012 -0.13575834 0.06623377
-0.024404122 0.2570841 -0.034630198 0.24737355 0.018908925 -0.08397183 -0.12092398 -0.19079155
00000000: 1b60 d63d 602f 4bbe 773c 2d3e fd5a 81be
00000010: ef47 133e edfc 66be 8d1d ca3c bf5c 5dbe
00000020: b047 abbd ca01 87bd c359 10be 98fd a4bd
00000030: 89c1 a5bd a06b 833d 3c04 0bbe 92a5 873d
00000040: 27eb c7bc 87a0 833e 65d8 0dbd 7e4f 7d3e
00000050: e4e6 9a3c 6cf9 abbd fea6 f7bd dc5e 43be

dense1.1.layers.3.weight f4 [24]
0.95989764 0.86488676 0.9203756 0.862509 0.83258194 0.6378283 0.5663205 0.94710743
0.8102441 0.86682856 0.7741814 0.84339964 0.738155 0.76875377 0.79565585 0.75105554
0.877998 0.80643725 0.748679 0.8664475 0.7980043 0.664182 0.9973585 0.53372616
00000000: dabb 753f 3869 5d3f bc9d 6b3f 64cd 5c3f
00000010: 1724 553f b748 233f 61fa 103f a275 723f
00000020: 286c 4f3f 7ae8 5d3f c130 463f 0ae9 573f
00000030: baf7 3c3f 0ccd 443f 1ab0 4b3f 2d45 403f
00000040: 7ac4 603f ac72 4e3f 6da9 3f3f 81cf 5d3f
00000050: 034a 4c3f d507 2a3f e352 7f3f 47a2 083f

dense1.1.layers.3.bias f4 [24]
-0.021688666 -0.019665055 0.01041999 -0.061077416 0.005701133 -0.015816238 -0.03127034 -0.027532212
0.0067572393 -0.05717222 -0.027118096 0.016970746 -0.06280856 0.012242709 0.0061608036 -0.017673045
0.00095806975 0.026565146 -0.019128343 0.0071766824 -0.007840225 0.0017985688 -0.07533554 0.00034519305
00000000: 6eac b1bc 9c18 a1bc 9bb8 2a3c 502c 7abd
00000010: 92d0 ba3b 0e91 81bc 5415 00bd 3c8b e1bc
00000020: d56b dd3b 6b2d 6abd c526 debc 3c06 8b3c
00000030: c6a1 80bd a595 483c 91e0 c93b 10c7 90bc
00000040: f926 7b3a 269f d93c 0bb3 9cbc 602a eb3b
00000050: 4974 00bc f4bd eb3a 8549 9abd 07fb b439

dense1.1.layers.3.running_mean f4 [24]
-0.024268173 -0.09839983 0.015394116 0.14645733 0.035689443 -0.20635386 0.050886683 0.12416144
-0.02996287 0.24134381 -0.0003109193 -0.20872897 0.16737908 0.08569042 0.059805956 0.30165046
-0.23893636 0.066602774 -0.19590876 0.052493528 -0.33247092 0.08720616 0.5896106 -0.17361537
00000000: 0cce c6bc da85 c9bd 9a37 7c3c e9f8 153e
00000010: 182f 123d 6d4e 53be 8e6e 503d 5a48 fe3d
00000020: b174 f5bc d522 773e e202 a3b9 0cbd 55be
00000030: 6c65 2b3e 757e af3d 17f7 743d ee71 9a3e
00000040: bcab 74be 0967 883d 4e9c 48be 7403 573d
00000050: a139 aabe 2599 b23d b8f0 163f 3ac8 31be

dense1.1.layers.3.running_var f4 [24]
0.046641625 0.13684453 0.09774235 0.30491155 0.104448885 0.06660701 0.04957169 0.04591226
0.24760394 0.069109485 0.050863035 0.13747576 0.0998431 0.068362504 0.10968596 0.08606217
0.06096071 0.10226473 0.06548886 0.12769234 0.07231644 0.11216471 0.10910149 0.06688452
00000000: 4a0b 3f3d f920 0c3e 242d c83d 5e1d 9c3e
00000010: 4ce9 d53d 4269 883d af0b 4b3d 7e0e 3c3d
00000020: e38b 7d3e 4689 8d3d c255 503d 72c6 0c3e
00000030: 8a7a cc3d a401 8c3d 08a3 e03d 5d41 b03d
00000040: f0b1 793d 2c70 d13d 061f 863d c8c1 023e
00000050: a41a 943d 9db6 e53d 9a70 df3d c0fa 883d

dense1.1.layers.5.weight f4 [6, 24, 3, 3]
-0.0751373 -0.029036256 0.06166272 -0.047674295 0.09286353 -0.034904998 -0.0076651345 -0.038995862
0.023079239 0.090639085 -0.044347495 0.0016447569 -0.051769827 0.020228561 0.046027273 0.0647682
-0.12969196 0.00831366 0.008581176 -0.12935738 0.0617744 -0.1366185 -0.091625765 0.15683931
0.10766505 0.027963767 0.010884836 -0.17058805 0.11876894 0.017818287 -0.19770095 -0.13670523
0.14347363 -0.029252931 0.18095249 0.096390724 0.035517596 -0.12487244 0.07553357 -0.15255795
-0.16771911 0.24279322 -0.11413626 0.21943963 -0.10069267 0.22589982 0.025489323 -0.13167278
0.16527879 0.022752142 0.010479398 -0.097658955 -0.023244081 -0.18151526 0.01918112 0.004106121
0.036000047 -0.12078639 0.18096104 0.11710941 -0.02972826 0.11804526 -0.2553662 0.04321584
0.12658915 -0.009219274 0.03533842 0.081917524 0.00931007 -0.075678155 -0.010385288 -0.038272515
0.037303247 0.22369549 -0.09735907 0.30567288 0.30444983 -0.30710375 -0.034080587 -0.24408905
-0.27257165 0.008827439 -0.08069063 -0.011917112 0.08310178 -0.14596501 0.017145226 0.06526931
-0.122894384 0.1349653 -0.049064506 -0.040226355 0.015308545 -0.035897672 0.029562624 0.0040209284
-0.010877797 -0.04344713 0.113324024 0.10437595 -0.11838002 -0.045042027 0.0014474484 0.12650745
-0.05619695 0.080314994 -0.034900393 -0.073010765 0.1421578 0.15011361 -0.12923636 0.05769329
0.016652254 -0.16146587 -0.10044807 -0.18388663 0.0044760276 -0.03635675 -0.25981635 -0.038654998
-0.24093273 0.061402358 0.24636197 -0.02238235 0.105624594 0.13437213 0.001434209 -0.13372594
-0.08063428 0.09719852 0.34738725 -0.13769068 -0.06221388 -0.18308944 0.018147757 -0.08927193
-0.01679559 -0.016418565 -0.10992737 -0.04854617 0.1662281 0.04340677 -0.012779487 0.23905604
0.0040611876 -0.09958167 -0.023084296 -0.009839287 0.29234684 0.0074360403 0.021005798 -0.06931352
-0.16817701 -0.008658975 0.12404818 0.0063788146 0.19009537 0.037540074 -0.21474852 0.05914189
-0.13589123 -0.0834155 0.16787098 -0.19368427 -0.0055995136 0.03527647 -0.07723365 -0.028881194
0.052975945 -0.0044595352 0.0057929023 0.060398564 -0.10545637 0.015999762 -0.2380123 -0.10168293
0.17606892 -0.088351436 0.101904295 0.277151 -0.18727753 0.056229264 -0.046648346 0.19944939
0.01247031 -0.09757494 0.16369732 -0.06756535 -0.11468653 0.04812717 -0.06398835 0.010415153
-0.16572182 0.090058625 -0.023329215 -0.06339856 0.0030540626 0.023416923 0.0060614953 0.09764412
-0.06378688 -0.018162938 -0.021535598 0.09182378 -0.052437466 0.111745566 -0.21727628 0.08528284
-0.04343502 -0.02404831 -0.03342284 -0.22489011 0.1053882 -0.08000556 0.19982828 0.017300988
0.11121483 -0.0833656 0.058071572 -0.07455525 -0.049091443 -0.03705145 0.06333279 0.005563071
0.013469733 0.040294662 0.09930855 -0.09456226 0.1379376 0.010623625 -0.007879173 -0.00082598085
0.111118495 0.029441673 0.11123307 0.07147684 -0.021327304 0.015300208 -0.105683096 -0.054019026
-0.048708163 -0.18865679 -0.08120575 -0.22392043 0.015447761 0.03169474 -0.06919206 -0.026410777
0.030332739 0.025820192 0.09605904 -0.032278635 -0.036916353 0.13508317 -0.017171323 -0.06611844
00000000: 96e1 99bd 71dd edbc 0c92 7c3d 1f46 43bd
00000010: 3c2f be3d 8bf8 0ebd cf2b fbbb 20ba 1fbd
00000020: ac10 bd3c fca0 b93d b8a5 35bd e294 d73a
00000030: 990c 54bd 5eb6 a53c 1887 3c3d 31a5 843d
00000040: f8cd 04be 0436 083c 1098 0c3c 4376 04be
00000050: 2707 7d3d b8e5 0bbe 4aa6 bbbd 7c9a 203e
00000060: 7e7f dc3d 4514 e53c 5056 323c a2ae 2ebe
00000070: 213d f33d a8f7 913c 1e72 4abe 75fc 0bbe
00000080: c0ea 123e d8a3 efbc 9c4b 393e 8068 c53d
00000090: e67a 113d 1fbd ffbd 58b1 9a3d 2738 1cbe
000000a0: 8fbe 2bbe c99e 783e 45c0 e9bd c8b4 603e
000000b0: f537 cebd 4852 673e fcce d03c 3bd5 06be
000000c0: d83e 293e b362 ba3c c8b1 2b3c 6b01 c8bd
000000d0: 5f6a bebc 23df 39be b921 9d3c a48c 863b
000000e0: c974 133d db5e f7bd da4d 393e 0fd7 ef3d
000000f0: ae88 f3bc b7c1 f13d 5cbf 82be 1803 313d
00000100: 96a0 013e 700c 17bc 05bf 103d 60c4 a73d
00000110: 4489 183c 26fd 9abd 0e27 2abc a4c3 1cbd
00000120: 4acb 183d 6e10 653e 3164 c7bd 2881 9c3e
00000130: d9e0 9b3e b43c 9dbe 1698 0bbd 7bf2 79be
00000140: 838e 8bbe f6a0 103c 2141 a5bd fe3f 43bc
00000150: 4431 aa3d da77 15be 2574 8c3c eaab 853d
00000160: 0db0 fbbd 5834 0a3e ddf7 48bd 64c4 24bd
00000170: b1d0 7a3c 7009 13bd 512d f23c fec1 833b
00000180: ca38 32bc 9ef5 31bd 6d16 e83d 0fc3 d53d
00000190: 3971 f2bd fd7d 38bd 4fb8 bd3a 2b8b 013e
000001a0: c62e 66bd 307c a43d b7f3 0ebd ab86 95bd
000001b0: d091 113e 62b7 193e 8956 04be cd4f 6c3d
000001c0: 4f6a 883c 4f57 25be b8b7 cdbd c74c 3cbe
000001d0: a4ab 923b d1ea 14bd a606 85be b454 1ebd
000001e0: 12b7 76be 0a81 7b3d 5046 7c3e 315b b7bc
000001f0: b551 d83d d998 093e 12fc bb3a 74ef 08be
00000200: 9623 a5bd 0510 c73d bedc b13e c9fe 0cbe
00000210: fbd3 7ebd cc7b 3bbe 9baa 943c 34d4 b6bd
00000220: e896 89bc 3a80 86bc 9a21 e1bd 59d8 46bd
00000230: b337 2a3e 4ccb 313d 0e61 51bc 1bcb 743e
00000240: b613 853b 79f1 cbbd 471b bdbc f634 21bc
00000250: 7cae 953e 07aa f33b 5a14 ac3c 3ff4 8dbd
00000260: 9836 2cbe 60de 0dbc f90c fe3d 6005 d13b
00000270: 5ca8 423e 9fc3 193d 09e7 5bbe c43e 723d
00000280: 1227 0bbe bfd5 aabd 5fe6 2b3e 2b55 46be
00000290: 207c b7bb 0f7e 103d ad2c 9ebd 4198 ecbc
000002a0: 4efd 583d 4b21 92bb 63d2 bd3b 7c64 773d
000002b0: 82f9 d7bd ef11 833c 7fb9 73be 243f d0bd
000002c0: 694b 343e 99f1 b4bd 33b3 d03d bce6 8d3e
000002d0: aec5 3fbe a850 663d 5612 3fbd 763c 4c3e
000002e0: 4550 4c3c 5fd5 c7bd 45a0 273e b45f 8abd
000002f0: c5e0 eabd ff20 453d 530c 83bd 51a4 2a3c
00000300: fbb2 29be a870 b83d e91c bfbc 1bd7 81bd
00000310: ab26 483b d9d4 bf3c 829f c63b a4f9 c73d
00000320: b2a2 82bd 71ca 94bc 6c6b b0bc 1b0e bc3d
00000330: abc8 56bd dcda e43d ac7d 5ebe c5a8 ae3d
00000340: ebe8 31bd f600 c5bc 63e6 08bd 9849 66be
00000350: c5d5 d73d f4d9 a3bd c99f 4c3e cdba 8d3c
00000360: 9ac4 e33d 95bb aabd 75dc 6d3d 6cb0 98bd
00000370: 1c14 49bd 43c3 17bd 9fb4 813d 6c4a b63b
00000380: 28b0 5c3c 040c 253d 4862 cb3d dca9 c1bd
00000390: 843f 0d3e b60e 2e3c a617 01bc a386 58ba
000003a0: 1892 e33d aa2f f13c 2ace e33d 7362 923d
000003b0: 99b6 aebc b9ad 7a3c 6170 d8bd 0e43 5dbd
000003c0: 3682 47bd 3f2f 41be 334f a6bd 664b 65be
000003d0: 9b18 7d3c 58d2 013d 91b4 8dbd 6a5b d8bc
000003e0: 5d7c f83c de84 d33c 9aba c43d 9a36 04bd
000003f0: 9a35 17bd 3e53 0a3e e0aa 8cbc 1b69 87bd

dense1.1.layers.5.bias f4 [6]
-0.13575888 -0.03380673 0.0870912 0.037229598 0.11439011 0.01434116
00000000: 6004 0bbe ed78 0abd df5c b23d 107e 183d
00000010: 5d45 ea3d 2ff7 6a3c

dense1.2.layers.0.weight f4 [24]
0.91385794 0.95638585 0.8026255 0.8776212 0.9829317 1.0186688 0.8476355 0.8785948
0.8645312 0.9984472 0.94943035 0.69218296 0.781906 0.7633087 0.8585793 0.8462715
0.8368545 0.63117594 0.55609465 0.8210321 0.79287636 0.8097668 0.75843203 0.6551595
00000000: 98f2 693f b4d5 743f dd78 4d3f c8ab 603f
00000010: 69a1 7b3f bd63 823f a4fe 583f 97eb 603f
00000020: eb51 5d3f 3c9a 7f3f de0d 733f e732 313f
00000030: fe2a 483f 3368 433f dacb 5b3f 40a5 583f
00000040: 193c 563f bf94 213f 385c 0e3f 292f 523f
00000050: f2f9 4a3f e14c 4f3f 9a28 423f 88b8 273f

dense1.2.layers.0.bias f4 [24]
0.038222156 0.0018289392 0.064023435 -0.0885457 0.07094818 -0.013141263 -0.042099353 -0.02260626
-0.079628356 0.068281025 0.051711 -0.05268784 -0.034588017 0.015652727 0.024279991 -0.061921638
-0.018904367 0.016695796 -0.05552698 0.078209996 -0.084434316 0.08498509 -0.02907001 0.11959556
00000000: d68e 1c3d 04b9 ef3a b81e 833d 7357 b5bd
00000010: 484d 913d 744e 57bc 5f70 2cbd c330 b9bc
00000020: 3114 a3bd ecd6 8b3d eace 533d 34cf 57bd
00000030: 2aac 0dbd 263a 803c d5e6 c63c 8ba1 7dbd
00000040: 55dd 9abc 9fc5 883c 4270 63bd 902c a03d
00000050: e6eb acbd aa0c ae3d 3b24 eebc 84ee f43d

dense1.2.layers.0.running_mean f4 [24]
-0.084767 -0.16066523 0.3609765 -0.6599559 -0.31794474 0.13797942 -0.51948273 -0.4206248
-0.29680288 0.17387702 0.35030594 -0.5348203 -0.10837099 0.011187275 0.119656436 -0.16098946
-0.010621894 -0.16508484 -0.12035475 -0.063056685 -0.0557678 -0.2951116 -0.18558504 -0.35501203
00000000: 529a adbd 6d85 24be e9d1 b83e dff2 28bf
00000010: a7c9 a2be 7a4a 0d3e d2fc 04bf 225c d7be
00000020: 8cf6 97be d10c 323e 4d5b b33e fce9 08bf
00000030: 9cf1 ddbd d54a 373c 6f0e f53d 6cda 24be
00000040: 7407 2ebc 000c 29be 8d7c f6bd dd23 81bd
00000050: c76c 64bd de18 97be 010a 3ebe 23c4 b5be

dense1.2.layers.0.running_var f4 [24]
0.14371121 0.22434996 0.07494332 0.20472421 0.36236045 0.20759836 0.0851096 0.055331014
0.16024621 0.7434471 0.12968218 0.018809132 0.0938158 0.072015285 0.10843848 0.0957238
0.111171156 0.06744553 0.059124753 0.16098474 0.08354335 0.10161148 0.099821925 0.10354975
00000000: 0829 133e ffbb 653e e27b 993d 39a3 513e
00000010: 4f87 b93e aa94 543e f14d ae3d c6a2 623d
00000020: 9517 243e 8d52 3e3f 68cb 043e 9c15 9a3c
00000030: 8022 c03d c07c 933d fe14 de3d d70a c43d
00000040: b4ad e33d e220 8a3d cc2c 723d 2fd9 243e
00000050: c718 ab3d ae19 d03d 706f cc3d e411 d43d

dense1.2.layers.2.weight f4 [24, 24, 1, 1]
-0.16892911 0.21981995 -0.1990732 -0.14385433 -0.030253667 -0.093947634 0.031960104 -0.059529476
0.03239929 -0.0028409525 -0.06606663 0.25533107 -0.1198988 -0.12753427 -0.11220893 -0.18350749
0.015875854 -0.12170641 -0.03484307 -0.0488836 -0.03015885 0.06654161 -0.11010007 -0.11983349
-0.20024888 -0.1336226 -0.051823 -0.094354264 -0.034244034 -0.1009808 0.08417184 0.18825485
-0.15981306 0.03370355 -0.18123642 0.14314604 0.103295684 -0.09295991 0.19967747 -0.0667275
0.1480584 0.1230933 -0.008263053 -0.17716546 0.08248572 -0.114920534 -0.16008836 -0.06634905
0.1498575 -0.196283 0.16414778 -0.03937567 0.10275826 0.19107537 0.14029247 0.038093057
-0.003123423 0.23668894 0.16910301 0.0527523 0.15573175 -0.08617339 0.04478191 0.011673577
0.14039679 0.008929742 0.1289743 0.0076834476 0.09677519 -0.040603757 -0.13324527 -0.11237003
0.043047596 0.3029656 0.017598743 -0.093355246 0.1956401 0.046156716 -0.028558727 -0.054768614
-0.078740396 0.111539215 0.18010448 -0.056377653 0.06751197 -0.09464753 -0.17007053 0.041488808
0.17890407 -0.3339769 0.03823598 0.15717457 -0.1734268 -0.059793163 0.09034659 -0.116561234
-0.113980256 0.020003041 -0.07082402 0.06109545 0.17534529 -0.06960143 -0.11050865 -0.07658165
0.015973935 -0.04391836 0.1493475 0.02615545 0.113911495 0.1468488 -0.114466004 0.103922084
0.2207717 0.18847468 0.059359692 -0.23356903 -0.031182 0.06489098 0.08032074 0.05955564
0.16036583 -0.0069402168 -0.21764135 0.20009026 0.12663901 -0.037425518 -0.03280896 -0.18381467
0.058204558 0.076876394 -0.15449914 -0.0461422 -0.06826886 -0.01929388 0.034084536 0.055517904
0.044152338 0.14781605 0.21646811 0.072312 0.15619095 -0.13930902 0.14008264 -0.030923069
-0.21474467 -0.117181145 0.16024643 -0.15658471 0.11243716 -0.15351684 -0.0893214 0.033677854
-0.07107321 0.18748628 0.07595655 0.020247994 -0.02983224 -0.099133015 -0.11470658 -0.14351557
-0.029585946 0.23794526 -0.16332565 -0.16750267 -0.185155 -0.21530865 -0.102574535 0.14462852
-0.12402107 -0.15016127 0.03956509 0.04828904 -0.14850587 -0.1283272 -0.23290789 0.110883825
0.09403807 -0.08717724 -0.23769537 0.17503779 -0.0035755003 -0.20094945 0.1279787 0.08754587
-0.1866777 0.06739557 0.04700386 0.09048822 -0.07140341 -0.15280998 -0.04758411 0.057968613
0.19563521 0.11102809 -0.22217736 0.06556307 -0.1092105 0.14599396 -0.034597877 0.08776858
-0.10780797 0.1837067 0.1897331 0.090366535 0.2633145 -0.1444478 0.07619101 0.20340616
-0.043045398 0.27834827 0.14746378 -0.09325814 0.12866083 -0.15011798 0.09390617 0.19490685
0.06875317 -0.14671218 0.028971164 -0.11882311 0.22420034 -0.24212503 0.076939635 -0.2870146
0.21295181 -0.17725833 0.021493424 0.11200017 -0.114300236 -0.039580524 0.02602148 -0.10487021
0.10082891 0.07823448 -0.124520645 -0.03372968 -0.06455007 0.13117048 -0.019822342 0.06632595
0.06502951 0.0069449595 -0.053915504 -0.060734145 -0.25384572 -0.30627108 -0.11871329 0.23789361
-0.12130991 -0.121456176 -0.018199723 0.09301213 0.07197455 0.23813054 -0.12891248 0.12913825
00000000: c1fb 2cbe 7b18 613e d8d9 4bbe 8d4e 13be
00000010: 8ad6 f7bc 9e67 c0bd 99e8 023d 2ed5 73bd
00000020: 1eb5 043d 462f 3abb f14d 87bd c1ba 823e
00000030: 818d f5bd 5898 02be cccd e5bd 63e9 3bbe
00000040: 140e 823c 3641 f9bd 9bb7 0ebd 2b3a 48bd
00000050: b10f f7bc f846 883d 257c e1bd 436b f5bd
00000060: 0b0e 4dbe 5dd4 08be 5b44 54bd cf3c c1bd
00000070: 7943 0cbd 06cf cebd 4962 ac3d e1c5 403e
00000080: 09a6 23be bc0c 0a3d 0a96 39be e094 123e
00000090: b08c d33d c461 bebd 4078 4c3e 6da8 88bd
000000a0: 9f9c 173e 5718 fc3d c261 07bc dd6a 35be
000000b0: 46ee a83d 755b ebbd 34ee 23be 03e2 87bd
000000c0: 3f74 193e 69fe 48be 5b16 283e 6248 21bd
000000d0: ec72 d23d 43a9 433e d4a8 0f3e 7707 1c3d
000000e0: 58b2 4cbb 965e 723e 5729 2d3e cc12 583d
000000f0: 2578 1f3e ad7b b0bd 3c6d 373d 8842 3f3c
00000100: 2dc4 0f3e 0d4e 123c d711 043e 6ec5 fb3b
00000110: 1232 c63d 2050 26bd 7371 08be 4222 e6bd
00000120: ad52 303d 4f1e 9b3e 3d2b 903c 0931 bfbd
00000130: e155 483e d30e 3d3d fef3 e9bc 0e55 60bd
00000140: a542 a1bd ac6e e43d 4f6d 383e 41ec 66bd
00000150: b743 8a3d 90d6 c1bd f826 2ebe 2bf0 293d
00000160: a132 373e 05ff aabe 559d 1c3d 5ff2 203e
00000170: cc96 31be ade9 74bd a207 b93d a8b7 eebd
00000180: 7b6e e9bd 6bdd a33c 2f0c 91bd 393f 7a3d
00000190: b78d 333e 328b 8ebd 5c52 e2bd d7d6 9cbd
000001a0: c5db 823c bde3 33bd 8dee 183e f443 d63c
000001b0: 6e4a e93d 885f 163e 276d eabd 1ad5 d43d
000001c0: fa11 623e 82ff 403e 2623 733d b82c 6fbe
000001d0: 6571 ffbc 90e5 843d 337f a43d 9df0 733d
000001e0: f136 243e c26a e3bb 60dd 5ebe 76e4 4c3e
000001f0: a8ad 013e 804b 19bd b062 06bd ea39 3cbe
00000200: e767 6e3d 5f71 9d3d 0635 1ebe 9aff 3cbd
00000210: 8bd0 8bbd 330e 9ebc 3a9c 0b3d be66 633d
00000220: 15d9 343d 175d 173e d1a9 5d3e 5018 943d
00000230: 85f0 1f3e 06a7 0ebe d371 0f3e 6052 fdbc
00000240: 07e6 5bbe abfc efbd a417 243e be57 20be
00000250: 7445 e63d 8533 1dbe 23ee b6bd caf1 093d
00000260: d58e 91bd 67fc 3f3e 1c8f 9b3d 1fdf a53c
00000270: be62 f4bc 4006 cbbd 49eb eabd bff5 12be
00000280: 3a5e f2bc eca7 733e d73e 27be d285 2bbe
00000290: 4699 3dbe df79 5cbe 9912 d2bd 8019 143e
000002a0: c2fe fdbd e0c3 19be 010f 223d baca 453d
000002b0: ec11 18be 3568 03be 687f 6ebe 0f17 e33d
000002c0: 0897 c03d fb89 b2bd 6a66 73be 1b3d 333e
000002d0: f152 6abb b1c5 4dbe d90c 033e 404b b33d
000002e0: 7028 3fbe b006 8a3d 1f87 403d e351 b93d
000002f0: f33b 92bd 387a 1cbe 8ee7 42bd 7f70 6d3d
00000300: 9954 483e b262 e33d 7682 63be ee45 863d
00000310: c1a9 dfbd 717f 153e 81b6 0dbd 03c0 b33d
00000320: 6dca dcbd 9c1d 3c3e 6549 423e 1712 b93d
00000330: 28d1 863e 20ea 13be 080a 9c3d b449 503e
00000340: 5f50 30bd aa83 8e3e bf00 173e 20fe bebd
00000350: aabf 033e 87b8 19be e151 c03d a995 473e
00000360: 76ce 8c3d b83b 16be ef54 ed3c 8859 f3bd
00000370: c694 653e a0ef 77be 8792 9d3d 94f3 92be
00000380: 0a10 5a3e 3583 35be fa12 b03c 5860 e53d
00000390: 3e16 eabd 301f 22bd 002b d53c 31c6 d6bd
000003a0: 637f ce3d 6639 a03d ae04 ffbd 2228 0abd
000003b0: d432 84bd 8e51 063e 7762 a2bc e6d5 873d
000003c0: 312e 853d 8b92 e33b 81d6 5cbd 5ec4 78bd
000003d0: 11f8 81be 90cf 9cbe f41f f3bd 629a 733e
000003e0: 5571 f8bd 04be f8bd 9617 95bc 257d be3d
000003f0: 6567 933d 7ed8 733e a201 04be d13c 043e

dense1.2.layers.2.bias f4 [24]
0.20731643 0.12264808 -0.34999433 0.091166556 -0.15291625 0.009919573 0.028021952 0.01321162
-0.38691515 0.030090772 -0.02620295 0.25833237 0.044520564 0.12003786 -0.3085854 0.13628934
-0.075631164 -0.22143169 0.10745242 -0.023683665 0.09794572 0.022273378 -0.015795708 -0.117354915
00000000: c24a 543e eb2e fb3d 7532 b3be 88b5 ba3d
00000010: 1496 1cbe b485 223c 4b8e e53c 8d75 583c
00000020: be19 c6be ec80 f63c 92a7 d6bc 2444 843e
00000030: 325b 363d 69d6 f53d e8fe 9dbe 6f8f 0b3e
00000040: 83e4 9abd fdbe 62be 0410 dc3d 3f04 c2bc
00000050: c497 c83d a976 b63c 0066 81bc c657 f0bd

dense1.2.layers.3.weight f4 [24]
0.9709868 0.8950057 0.9660024 0.89248633 0.7774122 0.8109724 0.7459697 0.7902758
0.6214425 0.8552031 0.8069779 0.90479577 0.91800445 0.8465941 0.739528 0.8656381
0.8971675 0.86702263 0.8902105 0.79310167 0.6527798 0.9146436 0.8887207 0.7904802
00000000: 9792 783f 181f 653f ef4b 773f fc79 643f
00000010: 7c04 473f e39b 4f3f dff7 3e3f 844f 4a3f
00000020: db16 1f3f 97ee 5a3f 1b96 4e3f b2a0 673f
00000030: 5702 6b3f 64ba 583f b551 3d3f 759a 5d3f
00000040: c5ac 653f 32f5 5d3f d6e4 633f b608 4b3f
00000050: 941c 273f 1526 6a3f 3383 633f e95c 4a3f

dense1.2.layers.3.bias f4 [24]
0.0038167585 -0.018035349 -0.10029441 -0.008738265 -0.0146676395 -0.017292626 0.021261685 0.025513273
-0.07173553 -0.05039285 0.008443349 0.017402943 0.008066267 -0.004982089 -0.039178006 0.0057109394
-0.014774639 -0.005766016 -0.019233298 0.04077862 -0.016177632 -0.044322506 0.0202035 -0.007673258
00000000: 9522 7a3b debe 93bc 2867 cdbd f12a 0fbc
00000010: 8a50 70bc 44a9 8dbc fc2c ae3c 3601 d13c
00000020: 14ea 92bd bc68 4ebd f955 0a3c 9e90 8e3c
00000030: 6028 043c cb40 a3bb 1e79 20bd d522 bb3b
00000040: 5411 72bc d9f0 bcbb 268f 9dbc 7b07 273d
00000050: f486 84bc 848b 35bd cf81 a53c f46f fbbb

dense1.2.layers.3.running_mean f4 [24]
-0.16602042 0.22827561 0.3985576 0.3683065 0.26627213 0.35057843 -0.26499513 -0.11711931
0.44422567 0.09905727 -0.09844392 0.361288 0.008660364 0.5689953 -0.13643181 -0.18674172
-0.014758386 0.029700983 0.024445977 -0.24665882 0.20121585 0.24365096 0.13499618 -0.14261219
00000000: 4201 2abe 15c1 693e be0f cc3e ab92 bc3e
00000010: d254 883e 047f b33e 71ad 87be 40dc efbd
00000020: 8c71 e33e 8ade ca3d f79c c9bd befa b83e
00000030: 33e4 0d3c ada9 113f c8b4 0bbe 3939 3fbe
00000040: 28cd 71bc 7a4f f33c ee42 c83c 2194 7cbe
00000050: 870b 4e3e a37f 793e 703c 0a3e ee08 12be

dense1.2.layers.3.running_var f4 [24]
0.11679486 0.06819288 0.1987329 0.07941303 0.084544614 0.10629706 0.087886125 0.09539807
0.072097585 0.15572698 0.1595444 0.07361044 0.08825167 0.15292487 0.12797505 0.078958146
0.2835676 0.09295105 0.122973084 0.20716035 0.0834996 0.11584649 0.12906633 0.09563773
00000000: 2532 ef3d b5a8 8b3d a380 4b3e 4ca3 a23d
00000010: ba25 ad3d 46b2 d93d a4fd b33d 1060 c33d
00000020: e6a7 933d e576 1f3e 9b5f 233e 12c1 963d
00000030: 4bbd b43d 5698 1c3e e40b 033e cfb4 a13d
00000040: c62f 913e 1f5d be3d 50d9 fb3d d821 543e
00000050: d701 ab3d ed40 ed3d f729 043e b7dd c33d
